model/actor.pt (torch, 825576 bytes, 8 tensors)

0.weight f4 [512, 77]
0.25254038 0.19470485 0.4112076 -0.062614836 -0.32443783 -0.04628254 -0.026984336 0.1687091
0.2693655 -0.14719215 -0.19469254 -0.20574646 0.28976312 0.075487435 0.32050225 -0.19681533
0.32404816 0.008857856 -0.020879082 -0.0091927685 0.080709584 0.23710838 0.196726 0.010302818
-0.13103332 -0.19888726 0.111691706 0.14080215 0.28032887 0.017936677 0.12908472 -0.10530692
-0.06344421 -0.01715104 0.008302571 0.067852244 0.003082669 7.294061e-05 -0.07722165 -0.052552175
-0.012850011 0.05277111 0.024827389 0.004111885 0.021014627 0.023358392 0.10602455 -0.04543324
0.0060869833 -0.16579689 0.15403993 -0.045301422 0.20273933 -0.07762859 0.20328411 0.054989245
-0.11797396 0.080455534 0.06073741 0.05334803 0.055631883 -0.100069754 0.06745315 -0.085817985
0.031126218 0.001859488 -0.0149431955 -0.06256496 -0.037098244 0.061795954 0.08044999 0.06667791
0.018746156 -0.013420123 0.058344696 0.018270431 0.124156505 0.1342977 0.043058127 0.08943205
-0.17246778 0.02213231 -0.11905329 0.10272124 0.21188548 -0.1054032 0.24578187 -0.016876943
-0.04427901 -0.22635403 -0.2329489 -0.02248656 0.08987299 0.054570545 -0.26028323 0.20907487
0.082574025 0.0721578 0.23902231 -0.27433813 -0.043924727 -0.33430403 -0.021577917 -0.20426221
0.025296949 0.1369747 2.0831762e-06 0.16962762 -0.041596077 -0.23321314 -0.0114422655 0.03590506
0.01836243 0.058106486 0.07684083 0.031596087 0.0036117113 -0.01127866 0.09709872 0.1006491
-0.02405565 -0.038887605 0.07841139 0.08837077 -0.0011121669 -0.0065978398 -0.08228433 0.12601352
0.21114011 0.13065755 0.011294377 0.0751927 -0.07192092 -0.135729 0.060927555 0.021442961
0.028878953 0.064989805 0.014192168 0.018449467 -0.0097382 -0.0016566546 -0.0706843 -0.13238975
0.050447073 -0.13260686 0.06535638 0.057139102 0.0030099521 0.023861881 0.03404413 -0.18696232
-0.06748509 0.06385105 -0.24467097 -0.22500077 -0.084411256 -0.005517627 -0.10236742 0.023170749
0.14578263 -0.16380471 0.15865059 -0.24320449 -0.06626476 0.14577435 -0.30077997 -0.02980316
-0.12417239 -0.1920963 0.01367915 0.21655656 0.11911099 0.31567878 -0.2460407 -0.0042966786
0.062066615 0.100233965 -0.18589841 -0.22442241 -0.041213803 0.14664938 -0.064246505 0.036514517
-0.005187817 -0.07383746 0.068512835 0.045047004 0.015133032 -0.056291785 -0.022340711 0.006085989
0.047284786 -0.036161225 -0.009260532 -0.07294358 0.031072808 -0.005566802 0.021803387 0.0017661074
-0.19206701 -0.100472584 -0.15418915 0.04412252 0.095975704 0.035276115 -0.11025355 -0.12787926
-0.12599029 0.14586987 0.071182035 0.11594591 0.004466236 -0.04149567 -0.039160296 0.08093355
0.10899508 0.10371525 -0.08154332 -0.07496746 -0.09785739 -0.067751095 -0.02769497 0.012944769
0.15927364 -0.08926314 0.013121114 -0.032453626 -0.0894898 0.08929227 0.08727762 0.19657162
0.046851695 0.47428596 0.51038724 -0.0127330655 0.17821254 -0.01755469 0.09138304 0.043438043
-0.08248029 -0.12624213 -0.12866318 -0.05167356 -0.028570544 0.13240698 -0.13306269 0.08902769
-0.09787254 -0.14371397 0.11996154 0.1873656 0.099531256 0.09319938 -0.25294223 0.08312613
00000000: f94c 813e b560 473e cd89 d23e 353c 80bd
00000010: b71c a6be c392 3dbd 410e ddbc 14c2 2c3e
00000020: 46ea 893e 8ab9 16be 7b5d 47be 33af 52be
00000030: d55b 943e 2899 9a3d df18 a43e f589 49be
00000040: a4e9 a53e 8a20 113c 9c0a abbc 449d 16bc
00000050: 114b a53d 8acc 723e 8a72 493e 27cd 283c
00000060: 992d 06be 1aa9 4bbe 9fbe e43d 702e 103e
00000070: 4487 8f3e f0ef 923c c92e 043e 28ab d7bd
00000080: 0aef 81bd 5680 8cbc 8207 083c 1ef6 8a3d
00000090: 9b06 4a3b b1f7 9838 6226 9ebd f340 57bd
000000a0: da88 52bc 8526 583d cf62 cb3c febc 863b
000000b0: de26 ac3c 195a bf3c 6623 d93d 3418 3abd
000000c0: 5175 c73b a9c6 29be a5bc 1d3e fc8d 39bd
000000d0: e69a 4f3e bdfb 9ebd b629 503e 673c 613d
000000e0: 559c f1bd dfc5 a43d cac7 783d 7783 5a3d
000000f0: 42de 633d 5ff1 ccbd e124 8a3d 57c1 afbd
00000100: 69fc fe3c 10ba f33a 4ed4 74bc 0f22 80bd
00000110: 54f4 17bd c11d 7d3d f7c2 a43d 6e8e 883d
00000120: 8a91 993c 13e0 5bbc d9fa 6e3d dfab 953c
00000130: c445 fe3d 5685 093e b85d 303d 2728 b73d
00000140: 659b 30be d14e b53c 36d2 f3bd 835f d23d
00000150: 82f8 583e a2dd d7bd 3eae 7b3e 8441 8abc
00000160: e85d 35bd 5ac9 67be 288a 6ebe bc35 b8bc
00000170: 550f b83d 5d85 5f3d d843 85be b917 563e
00000180: 921c a93d 78c7 933d 44c2 743e 0c76 8cbe
00000190: 6aea 33bd e629 abbe 2cc4 b0bc 1d2a 51be
000001a0: 8c3b cf3c 1943 0c3e b2cc 0b36 ddb2 2d3e
000001b0: a660 2abd 6dcf 6ebe 5778 3bbc 2f11 133d
000001c0: cf6c 963c 1101 6e3d ba5e 9d3d e66a 013d
000001d0: 76b2 6c3b 21ca 38bc b2db c63d 1e21 ce3d
000001e0: 5b10 c5bc 9c48 1fbd 2796 a03d bcfb b43d
000001f0: 21c6 91ba b132 d8bb b084 a8bd b009 013e
00000200: 1d35 583e 18cb 053e 0d0c 393c a1fe 993d
00000210: 464b 93bd 8bfc 0abe 2c8f 793d 26a9 af3c
00000220: 8e93 ec3c 6019 853d 4486 683c 5623 973c
00000230: f98c 1fbc 1b24 d9ba eec2 90bd 2e91 07be
00000240: 97a1 4e3d 18ca 07be 91d9 853d b10a 6a3d
00000250: 9e42 453b fe79 c33c dc71 0b3d 0d73 3fbe
00000260: 9f35 8abd 57c4 823d 078b 7abe 9a66 66be
00000270: cfdf acbd 36cd b4bb 03a6 d1bd 95d0 bd3c
00000280: 0b48 153e 6cbc 27be 4d75 223e 990a 79be
00000290: d2b5 87bd df45 153e d5ff 99be c225 f4bc
000002a0: 184e febd e4b4 44be 831e 603c 01c1 5d3e
000002b0: 76f0 f33d a6a0 a13e 18f2 7bbe 27cb 8cbb
000002c0: 9039 7e3d 7747 cd3d 275c 3ebe fdce 65be
000002d0: cecf 28bd 412b 163e ac93 83bd 3f90 153d
000002e0: 90fe a9bb 1838 97bd 7550 8c3d 3583 383d
000002f0: 89f0 773c 3792 66bd de03 b7bc fa6c c73b
00000300: b1ad 413d cb1d 14bd 7db9 17bc 7263 95bd
00000310: 678c fe3c b869 b6bb 049d b23c bb7c e73a
00000320: 37ad 44be 92c4 cdbd c3e3 1dbe d1b9 343d
00000330: e98e c43d b07d 103d 9dcc e1bd c8f2 02be
00000340: 9903 01be e95e 153e e3c7 913d 0d75 ed3d
00000350: 8159 923b 5df7 29bd 8c66 20bd 7dc0 a53d
00000360: d038 df3d a968 d43d 2f00 a7bd 8a88 99bd
00000370: 7569 c8bd 16c1 8abd 90e0 e2bc 4c16 543c
00000380: a118 233e 98cf b6bd f1f9 563c 18ee 04bd
00000390: 6e46 b7bd dede b63d 9cbe b23d 124a 493e
000003a0: 90e7 3f3d 9cd5 f23e bda8 023f 599e 50bc
000003b0: 597d 363e dace 8fbc 0827 bb3d 17ec 313d
000003c0: 6deb a8bd 9e45 01be 48c0 03be a8a7 53bd
000003d0: c60c eabc b295 073e 9641 08be 2654 b63d
000003e0: 6671 c8bd c129 13be 65ae f53d c5dc 3f3e
000003f0: 0bd7 cb3d 51df be3d a581 81be 083e aa3d

0.bias f4 [512]
0.12785962 -0.027272854 0.05329113 -0.045538347 -0.084572054 0.031694263 -0.081644565 0.011847921
0.06838179 0.08125515 -0.089832075 0.079220794 0.15152636 0.0016125299 -0.0703067 0.017219147
-0.06547281 -0.01772672 -0.07223051 0.08112782 -0.0038220559 0.077586666 -0.094786495 -0.17597027
-0.06042143 0.002403156 -0.109736726 0.12644358 -0.006881904 -0.078030676 0.027587257 0.12402283
-0.008614961 -0.06785846 0.065559655 0.022105021 0.0700613 -0.027264036 -0.09523985 -0.07780665
-0.082046166 0.09991591 -0.13741615 -0.21596724 -0.06528385 0.015983488 -0.180831 0.15154396
0.14294174 0.050246302 -0.1871827 -0.03474409 0.025899451 -0.13677621 0.022899691 0.06828914
0.022712732 0.05187645 -0.06598707 0.08942892 0.043952845 0.007011747 0.028503306 -0.059648313
-0.15785016 -0.023544326 -0.018943025 -0.12609304 -0.02265497 -0.042234648 0.025423398 -0.0798405
-0.13792874 0.15713511 0.121770024 -0.107828036 0.1416515 -0.026482403 0.13459243 -0.06898919
-0.027323514 0.054522093 0.0079419715 0.11781498 -0.11815532 -0.054324433 0.0008456232 0.03787504
0.04198507 -0.118297435 -0.021723635 0.039856724 -0.06172338 0.11399119 0.0023388397 0.062193315
-0.20667756 -0.05995631 -0.0659684 -0.09250676 -0.043686204 -0.108154535 0.015168137 -0.08262324
-0.04359553 -0.059061676 -0.089510985 -0.09301217 0.0708739 0.09620559 0.09239817 0.12734528
0.06850713 0.0058676344 0.08220274 -0.041660234 0.0047593433 -0.02069386 0.031648263 -0.1619738
0.07254798 0.0949808 -0.012220353 -0.028693382 0.07846706 0.05322783 0.013402588 -0.15322597
0.09307347 -0.050789956 0.10655663 -0.009508653 -0.020676862 0.061667293 -0.031457536 -0.060818903
0.10426137 0.07887659 0.04517709 -0.112018876 -0.12528926 -0.015892932 0.09093825 0.016743552
-0.018457647 -0.09157396 0.04234913 0.0033765165 -0.0548384 0.0641204 -0.091014266 -0.020666424
-0.047869127 0.16878937 -0.0021033366 0.054186244 -0.07712598 -0.018264074 -0.171809 -0.098317645
0.032260273 0.050419647 0.11436592 -0.053519495 0.101121865 -0.00429149 -0.19122662 0.05119779
-0.0065673366 -0.0104639875 0.033265945 -0.10612602 -0.07767879 0.17546302 -0.06744037 0.009011841
-0.006505135 0.116559796 -0.0010538824 0.0667234 0.02825749 0.081560895 -0.021982923 -0.122273326
-0.12670888 0.09755874 -0.12531267 -0.049190078 -0.115863934 -0.07550831 -0.10348258 -0.04485297
-0.078226276 0.032161146 0.10053002 -0.0478654 -0.009017919 -0.034442484 0.09079416 -0.07030502
0.04413429 -0.015507446 0.026987812 -0.06128998 -0.0007119268 0.089852 -0.026163436 -0.06898197
-0.051286682 0.032685604 0.16211286 -0.06951742 -0.02809915 0.038208958 -0.051572204 0.057772886
-0.1141686 0.033867285 -0.065048255 0.0630187 0.01208785 -0.06830786 0.013886211 -0.110321105
0.08064298 0.17132586 -0.076451905 -0.20079818 0.10078935 0.06984238 0.09061197 -0.028386833
-0.01089398 0.011128304 0.046259645 0.004721048 -0.17553718 -0.080018215 0.01864941 -0.05095305
-0.037353233 -0.05659196 -0.1291944 -0.046129357 0.124776185 -0.025096726 -0.034791946 0.011335593
-0.16334388 -0.06683124 -0.0854624 0.08809858 -0.08671821 0.04386449 0.09393799 0.015445046
00000000: a2ed 023e 526b dfbc cd47 5a3d 6b86 3abd
00000010: 1d34 adbd d8d1 013d 4435 a7bd c81d 423c
00000020: c00b 8c3d 1a69 a63d e1f9 b7bd 833e a23d
00000030: ba29 1b3e 865b d33a f6fc 8fbd 2b0f 8d3c
00000040: 9c16 86bd a037 91bc 97ed 93bd 5826 a63d
00000050: 757b 7abb c2e5 9e3d 6c1f c2bd 8d31 34be
00000060: 767c 77bd 447e 1d3b a6bd e0bd 6d7a 013e
00000070: 9881 e1bb 8cce 9fbd acfe e13c aeff fd3d
00000080: c425 0dbc 60f9 8abd 2444 863d 9715 b53c
00000090: 4d7c 8f3d d458 dfbc 1c0d c3bd 1859 9fbd
000000a0: d207 a8bd b6a0 cc3d d2b6 0cbe 8426 5dbe
000000b0: 8ab3 85bd ceef 823c c32b 39be 572e 1b3e
000000c0: 525f 123e 11cf 4d3d d2ac 3fbe d24f 0ebd
000000d0: 162b d43c 100f 0cbe 2298 bb3c 2ddb 8b3d
000000e0: 0d10 ba3c 677c 543d 3b24 87bd 8226 b73d
000000f0: e607 343d ccc2 e53b c47f e93c ca51 74bd
00000100: 79a3 21be 08e0 c0bc 672e 9bbc 891e 01be
00000110: ea96 b9bc 3dfe 2cbd bb44 d03c 6b83 a3bd
00000120: 313d 0dbe 07e8 203e 9062 f93d f2d4 dcbd
00000130: 170d 113e a0f1 d8bc 99d2 093e 344a 8dbd
00000140: 90d5 dfbc 8f52 5f3d 0b1f 023c fb48 f13d
00000150: 6bfb f1bd 4c83 5ebd d0ac 5d3a dc22 1b3d
00000160: 89f8 2b3d ed45 f2bd c4f5 b1bc ce40 233d
00000170: a8d1 7cbd 3774 e93d 3847 193b 6bbe 7e3d
00000180: 48a3 53be bf94 75bd 711a 87bd 2f74 bdbd
00000190: 4ef0 32bd 2080 ddbd c783 783c 6036 a9bd
000001a0: 3a91 32bd a8ea 71bd 8951 b7bd 2a7d bebd
000001b0: 5626 913d 7007 c53d 403b bd3d cd66 023e
000001c0: 774d 8c3d 4945 c03b e959 a83d eca3 2abd
000001d0: 44f4 9b3b 2b86 a9bc 9ca1 013d 76dc 25be
000001e0: 0994 943d 4b85 c23d e037 48bc 620e ebbc
000001f0: 57b3 a03d 6d05 5a3d 8796 5b3c 45e7 1cbe
00000200: 4e9d be3d 2109 50bd 5d3a da3d 2eca 1bbc
00000210: 8662 a9bc d896 7c3d 9ed9 00bd 3e1d 79bd
00000220: fc86 d53d 0d8a a13d 9d0b 393d 276a e5bd
00000230: d44b 00be e531 82bc d53d ba3d c629 893c
00000240: 7e34 97bc 218b bbbd 4876 2d3d 8c48 5d3b
00000250: 3b9e 60bd 8e51 833d b065 babd a24c a9bc
00000260: 6b12 44bd 1fd7 2c3e 22d8 09bb 65f2 5d3d
00000270: 3af4 9dbd 8a9e 95bc b3ee 2fbe c35a c9bd
00000280: 5923 043d d584 4e3d ae38 ea3d 4237 5bbd
00000290: fb18 cf3d a19f 8cbb e9d0 43be c6b4 513d
000002a0: d032 d7bb 2571 2bbc df41 083d 9958 d9bd
000002b0: 0f16 9fbd 94ac 333e 2d1e 8abd 67a6 133c
000002c0: 0729 d5bb e7b6 ee3d 6d22 8aba 47a6 883d
000002d0: 407c e73c 6609 a73d 8815 b4bc 706a fabd
000002e0: f9bf 01be e0cc c73d f751 00be 897b 49bd
000002f0: 124a edbd 1aa4 9abd adee d3bd bfb7 37bd
00000300: 1935 a0bd 68bb 033d afe2 cd3d 820e 44bd
00000310: e5bf 13bc 9013 0dbd 4af2 b93d 14fc 8fbd
00000320: 28c6 343d f112 7ebc 8b15 dd3c 340b 7bbd
00000330: 99a0 3aba 5304 b83d b454 d6bc 6b46 8dbd
00000340: fc11 52bd 57e1 053d ea00 263e 265f 8ebd
00000350: 3030 e6bc ff80 1c3d 603d 53bd 43a3 6c3d
00000360: 3ad1 e9bd 6cb8 0a3d 0538 85bd f30f 813d
00000370: 1e0c 463c fee4 8bbd fe82 633c 08f0 e1bd
00000380: 2628 a53d 0c70 2f3e d192 9cbd 0a9e 4dbe
00000390: a66a ce3d 8609 8f3d c592 b93d 818b e8bc
000003a0: aa7c 32bc 7d53 363c c17a 3d3d 05b3 9a3b
000003b0: 05c0 33be 97e0 a3bd a6c6 983c 25b4 50bd
000003c0: b4ff 18bd f9cc 67bd 894b 04be 23f2 3cbd
000003d0: a88a ff3d a697 cdbc 0082 0ebd ecb8 393c
000003e0: 9e43 27be d1de 88bd e906 afbd 076d b43d
000003f0: 5199 b1bd 40ab 333d 9062 c03d 380d 7d3c

2.weight f4 [256, 512]
0.12427165 -0.07392646 0.076703556 0.09188211 0.030109355 0.045191236 0.046817597 0.053477086
-0.0858738 -0.016009632 -0.03951289 -0.032186635 -0.049709342 -0.038478065 0.04147221 -0.013731504
0.06191901 0.027543431 -0.06444645 -0.11360576 -0.09257327 -0.19736493 -0.044367224 0.074993454
0.0051324284 0.029269604 0.062235657 0.12004736 0.044322696 -0.06313277 0.055539846 0.002733164
0.045463853 0.031067768 -0.015109382 0.051447734 0.12187987 0.0669149 0.046245284 0.08649444
-0.045797 0.09833023 -0.044792514 -0.10693141 -0.05019156 0.113566175 -0.073023796 0.1201617
0.07622399 0.07444277 0.02466597 -0.034484755 -0.0039036032 -0.19174032 0.060459882 -0.06681125
0.072307974 0.12857182 0.052643716 -0.010861206 0.03508354 0.050398592 -0.053775895 0.045720506
-0.10560122 0.05560038 -0.124858186 0.05939961 -0.07435119 0.058619555 0.013940874 -0.083107285
-0.05653533 0.20051439 0.12678927 -0.027866846 0.0345022 -0.0013975954 -0.08187804 0.023112863
0.103732094 0.06901196 0.047514416 -0.109844945 -0.09145522 -0.12863927 0.009219416 0.019710563
0.09019819 0.065212026 0.04621045 0.13817835 -0.09962247 -0.03033492 0.07141812 -0.073440574
0.07353625 0.058007546 -0.054420926 0.062303636 -0.00034713023 -0.07820523 -0.044791117 -0.041579578
-0.08617063 0.038992945 -0.17829156 -0.032636844 0.071564 0.14902435 -0.028347135 -0.017808842
0.26435354 0.01564443 -0.004629952 -0.13343655 0.07177881 -0.11202622 0.18149468 0.038353402
0.04270314 0.059016306 -0.0602013 0.074836925 0.0148952585 -0.01610501 0.0146511365 -0.04395031
0.12592913 0.021879982 0.053759962 -0.11643073 -0.01781724 0.09074177 0.039053693 0.0068383585
0.055816777 0.038021382 -0.06456542 -0.03596642 -0.0496081 0.021198915 0.122522704 -0.008563863
0.013785924 0.04510789 0.033302944 0.12721135 0.07767699 0.120528184 0.019634072 -0.029421505
0.12127168 0.10935154 0.06541998 0.03793292 -0.05255304 -0.014537835 -0.008657922 0.06690514
0.033680793 -0.05143254 0.06406794 -0.030791515 0.034573488 0.048940744 -0.069451116 0.035354573
-0.03084545 -0.02876951 0.070398495 -0.025058636 -0.1268716 0.011685158 -0.0076920325 -0.033370875
0.07201524 0.08353937 0.032211997 0.09657972 0.046891473 0.19661088 -0.021806883 0.026138486
-0.040697522 0.053696796 -0.09201847 0.10019808 -0.15126653 0.106535695 -0.05299334 -0.03739012
-0.06763351 -0.00247674 -0.0047506914 0.006232893 -0.02911995 0.0848343 0.102689475 0.04585405
0.017864048 0.12225832 0.13701014 0.010192197 0.11727963 0.00085328484 0.0040232656 -0.096525654
-0.019521108 0.0042467476 0.0395489 0.018683784 0.0013929692 0.21295533 0.046644628 0.0760177
0.12356409 0.08902809 0.010684887 0.093957804 0.045080576 -0.089550085 0.052869357 -0.033883337
0.16550282 -0.04277149 -0.03133154 0.019314671 -0.009795983 0.059162367 -0.098548554 -0.048833117
-0.051050335 -0.052012954 -0.06393704 0.051999263 -0.0011539541 -0.026884891 0.06392565 0.10112925
0.14985399 0.031131456 0.003803665 0.024662748 0.13933659 -0.059989516 -0.059135128 0.109836794
0.0637958 -0.035701863 -0.04462119 -0.11996313 -0.006314323 -0.053534523 -0.032680426 -0.022500835
00000000: 2382 fe3d c266 97bd c116 9d3d b02c bc3d
00000010: e5a7 f63c 721a 393d cfc3 3f3d ca0a 5b3d
00000020: 9ade afbd a226 83bc 45d8 21bd 22d6 03bd
00000030: 069c 4bbd 2d9b 1dbd c4de 293d 1afa 60bc
00000040: ca9e 7d3d c3a2 e13c 80fc 83bd 23aa e8bd
00000050: 0e97 bdbd 081a 4abe 68ba 35bd 2b96 993d
00000060: ee2d a83b cfc6 ef3c d1ea 7e3d 64db f53d
00000070: b78b 353d c14b 81bd c07d 633d e21e 333b
00000080: 4e38 3a3d d581 fe3c 578d 77bc dcba 523d
00000090: 279c f93d ae0a 893d b26b 3d3d ff23 b13d
000000a0: a395 3bbd 5c61 c93d 5b78 37bd dbfe dabd
000000b0: aa95 4dbd 6295 e83d 808d 95bd 5617 f63d
000000c0: 531b 9c3d 7375 983d 4a10 ca3c e33f 0dbd
000000d0: 98d3 7fbb 9357 44be c8a4 773d 56d4 88bd
000000e0: 3416 943d 55a8 033e f0a0 573d 33f3 31bc
000000f0: c2b3 0f3d c16e 4e3d 1d44 5cbd 6d45 3b3d
00000100: 7445 d8bd 39bd 633d a6b5 ffbd 014d 733d
00000110: 7045 98bd 0f1b 703d 4368 643c 2734 aabd
00000120: 9791 67bd a553 4d3e 0cd5 013e 0349 e4bc
00000130: 2e52 0d3d 852f b7ba adaf a7bd 3057 bd3c
00000140: 7e71 d43d 2456 8d3d 7a9e 423d 63f6 e0bd
00000150: e04c bbbd 03ba 03be 090d 173c 0c78 a13c
00000160: d4b9 b83d e28d 853d 2b47 3d3d a07e 0d3e
00000170: de06 ccbd f080 f8bc aa43 923d 0368 96bd
00000180: 2c9a 963d 5299 6d3d 7ae8 5ebd 1932 7f3d
00000190: 08ff b5b9 102a a0bd e476 37bd 594f 2abd
000001a0: 3a7a b0bd 11b7 1f3d 1092 36be 36ae 05bd
000001b0: 2590 923d d799 183e 4038 e8bc d9e3 91bc
000001c0: 5959 873e bf28 803c dab6 97bb 97a3 08be
000001d0: c500 933d 016e e5bd bed9 393e 7518 1d3d
000001e0: 7de9 2e3d 15bb 713d a395 76bd 1a44 993d
000001f0: 3e0b 743c a7ee 83bc 520b 703c 3e05 34bd
00000200: 91f3 003e a63d b33c 6833 5c3d 3c73 eebd
00000210: 76f5 91bc d2d6 b93d c4f6 1f3d 4f14 e03b
00000220: 22a0 643d 4fbc 1b3d e03a 84bd 8651 13bd
00000230: dd31 4bbd 59a9 ad3c 2fed fa3d 724f 0cbc
00000240: 5bde 613c 0dc3 383d ab68 083d b143 023e
00000250: 1d15 9f3d 7bd7 f63d a2d7 a03c 5e05 f1bc
00000260: 495d f83d b3f3 df3d e9fa 853d 8d5f 1b3d
00000270: db41 57bd 1930 6ebc f5d9 0dbc 9005 893d
00000280: dff4 093d edaa 52bd 0d36 833d 7d3e fcbc
00000290: ee9c 0d3d 1776 483d 633c 8ebd f5cf 103d
000002a0: 99af fcbc 09ae ebbc 162d 903d c547 cdbc
000002b0: a1ea 01be 1b73 3f3c 720d fcbb e6af 08bd
000002c0: ba7c 933d b016 ab3d baf0 033d 97cb c53d
000002d0: 4611 403d 5d54 493e 59a4 b2bc 6120 d63c
000002e0: 72b2 26bd 2cf1 5b3d 2e74 bcbd a734 cd3d
000002f0: 9de5 1abe 632f da3d 8b0f 59bd 6226 19bd
00000300: 7083 8abd cd50 22bb b0ab 9bbb 4c3d cc3b
00000310: f68c eebc 9bbd ad3d dc4e d23d 75d1 3b3d
00000320: a057 923c 9262 fa3d 634c 0c3e 2cfd 263c
00000330: 4d30 f03d faae 5f3a 99d5 833b 3eaf c5bd
00000340: bbea 9fbc 4d28 8b3b 07fe 213d bc0e 993c
00000350: 4a94 b63a f610 5a3e 700e 3f3d 2baf 9b3d
00000360: 2b0f fd3d 5c54 b63d aa0f 2f3c f36c c03d
00000370: 69a6 383d 0966 b7bd 8a8d 583d 41c9 0abd
00000380: 9279 293e 2831 2fbd 8055 00bd cd39 9e3c
00000390: 557f 20bc 3d54 723d d3d3 c9bd 3c05 48bd
000003a0: 281a 51bd 890b 55bd 6cf1 82bd 2efd 543d
000003b0: 4640 97ba b43d dcbc 74eb 823d da1c cf3d
000003c0: 5373 193e 6507 ff3c e946 793b 8809 ca3c
000003d0: 40ae 0e3e 91b7 75bd ad37 72bd 1df2 e03d
000003e0: 5fa7 823d 1e3c 12bd b5c4 36bd 3baf f5bd
000003f0: 61e8 cebb 0447 5bbd e9db 05bd ac53 b8bc

2.bias f4 [256]
0.0152284885 -0.104789995 -0.025143828 0.009272011 -0.076514825 -0.12597392 -0.07046921 -0.01799681
-0.08646495 -0.07025735 -0.12778127 -0.09589275 -0.06951593 -0.056190703 -0.15963553 -0.0017569693
-0.054830655 -0.08354807 -0.13819729 0.016740626 -0.1004929 -0.13262868 -0.013181935 -0.08484241
0.023062523 0.046721775 -0.027515251 -0.014314288 -0.062824905 -0.040175978 -0.1266515 -0.028545216
-0.0036407486 -0.057141464 0.02479005 -0.03655833 -0.15849714 0.008581954 0.09225836 -0.06671293
-0.0049678227 -0.14799555 -0.0883836 -0.08668792 -0.06359117 -0.123431645 -0.10133233 -0.05069912
-0.046749815 -0.08813045 -0.12584569 -0.0762191 0.0017908477 -0.118423395 -0.10141577 0.0017694068
-0.049728636 -0.036218643 -0.05214092 0.007812901 -0.058893472 -0.024227304 -0.029438058 -0.08251413
-0.09203459 0.005658004 -0.035709515 -0.14507829 -0.05210835 -0.04369307 -0.025801266 -0.087094836
0.021522088 -0.018145025 -0.050007112 0.012337764 -0.13602202 -0.08182533 -0.04994863 0.011385675
-0.117230766 0.031798236 -0.20443654 -0.05873476 -0.11186846 0.04021485 -0.00488698 -0.12657377
-0.15588628 -0.018664116 -0.08306693 -0.07115894 -0.016114727 -0.12294303 0.026437761 0.029601283
-0.011972526 -0.030213675 -0.08422238 -0.082692415 -0.12146157 0.053479057 -0.018092183 -0.030275345
0.09707591 -0.08190469 -0.030786473 -0.044172186 -0.025152227 -0.077879064 -0.008097156 -0.036016505
-0.14891487 0.06549234 0.08204432 -0.063440606 -0.043475095 0.021637162 -0.13201821 0.008021254
-0.17816164 -0.025110142 -0.025431471 -0.019297073 0.010899684 -0.09416119 -0.011994826 -0.13110097
-0.10301413 -0.11368123 0.068568975 0.03927276 0.011267451 0.014804271 -0.07832875 -0.11471594
0.007456429 -0.05849756 -0.060678862 0.019593416 -0.12723418 0.06330841 -0.095736615 -0.087266214
-0.00351165 -0.058016222 -0.04357846 0.054750767 -0.016973563 0.025804507 -0.034900423 -0.009537544
-0.11131134 -0.089716054 -0.08014997 -0.036380693 0.00043985082 -0.019194104 -0.12375835 -0.068009585
-0.015614251 -0.09635675 -0.030146804 -0.05632391 -0.14595424 0.04662714 -0.07251864 -0.028807832
0.03113138 -0.062080044 -0.012419598 -0.093111396 -0.06111732 -0.14883325 -0.10441159 -0.052586798
-0.10304503 0.010744082 -0.11401001 -0.023176135 -0.0082400255 -0.15349239 -0.067682765 -0.08023181
0.0331762 0.034035303 0.014203856 0.053596165 -0.087626025 -0.0030328806 -0.023065766 -0.109113365
-0.07076397 -0.08674205 -0.0743466 -0.004861825 -0.1381868 -0.031115474 0.02918779 -0.07139312
-0.0403729 -0.05995527 -0.112211 0.060801566 0.0061597954 -0.06917803 -0.1472242 -0.08617047
-0.017910235 -0.12117359 -0.018687446 -0.031327914 -0.03661383 -0.07822306 -0.051343963 -0.017827785
-0.082563296 -0.06342849 -0.034594983 -0.16942486 -0.07035838 -0.03053273 -0.059487436 -0.0799784
0.010090203 -0.07672524 -0.082522854 0.010815316 -0.07957601 -0.17125848 -0.070501916 -0.013675552
-0.05807957 0.033144087 -0.07996854 -0.019523691 -0.07331092 -0.059074212 -0.064220026 -0.041422714
-0.03648036 -0.05845238 -0.101304054 -0.098240726 -0.037137106 -0.082899995 -0.05703982 -0.009733429
-0.10329114 0.08408248 -0.062107142 -0.0861325 -0.10044138 -0.09378294 -0.00070276466 -0.10238503
00000000: e980 793c 239c d6bd 6efa cdbc a2e9 173c
00000010: ceb3 9cbd 4fff 00be 2952 90bd 0c6e 93bc
00000020: 8914 b1bd 16e3 8fbd 18d9 02be 6b63 c4bd
00000030: 5e5e 8ebd 3928 66bd 7f77 23be 1b4a e6ba
00000040: 1c96 60bd 401b abbd 9783 0dbe a323 893c
00000050: 39cf cdbd d0cf 07be 0bf9 57bc dcc1 adbd
00000060: 9eed bc3c 555f 3f3d aa67 e1bc 7a86 6abc
00000070: 58aa 80bd 918f 24bd eeb0 01be a8d7 e9bc
00000080: a099 6ebb 2b0d 6abd 8114 cb3c 30be 15bd
00000090: 134d 22be 539b 0c3c f3f1 bc3d caa0 88bd
000000a0: 1ec9 a2bb 258c 17be 7602 b5bd 7089 b1bd
000000b0: 163c 82bd bbc9 fcbd 5387 cfbd e1a9 4fbd
000000c0: bc7c 3fbd bd7d b4bd b1dd 00be c218 9cbd
000000d0: e1ba ea3a f787 f2bd 12b3 cfbd 71eb e73a
000000e0: 41b0 4bbd 005a 14bd b891 55bd af01 003c
000000f0: 483a 71bd 5778 c6bc 1528 f1bc 2bfd a8bd
00000100: a27c bcbd c766 b93b 2444 12bd 678f 14be
00000110: 916f 55bd 81f7 32bd 2d5d d3bc c75e b2bd
00000120: 174f b03c e0a4 94bc 42d4 4cbd 5524 4a3c
00000130: 5b49 0bbe 0a94 a7bd ef96 4cbd fb8a 3a3c
00000140: af16 f0bd de3e 023d d057 51be dc93 70bd
00000150: 4b1b e5bd 54b8 243d f622 a0bb 8e9c 01be
00000160: a7a0 1fbe 7de5 98bc ff1e aabd c7bb 91bd
00000170: 0803 84bc 8ec9 fbbd 0194 d83c 647e f23c
00000180: 6a28 44bc ab82 f7bc c87c acbd a45a a9bd
00000190: d8c0 f8bd db0c 5b3d 0f36 94bc 0004 f8bc
000001a0: bccf c63d a5bd a7bd ea33 fcbc e5ed 34bd
000001b0: 0b0c cebc 0f7f 9fbd efa9 04bc 0b86 13bd
000001c0: 247d 18be d920 863d da06 a83d 26ed 81bd
000001d0: f112 32bd 6b40 b13c c82f 07be 946b 033c
000001e0: 0170 36be c9b3 cdbc a955 d0bc e514 9ebc
000001f0: 9794 323c 95d7 c0bd f285 44bc 553f 06be
00000200: 12f9 d2bd b4d1 e8bd e46d 8c3d 79dc 203d
00000210: 1d9b 383c 9d8d 723c d36a a0bd 31f0 eabd
00000220: 0f55 f43b 239b 6fbd 668a 78bd 5f82 a03c
00000230: ad49 02be d7a7 813d 8f11 c4bd a1b8 b2bd
00000240: b623 66bb 6ba2 6dbd 547f 32bd 5742 603d
00000250: 240c 8bbc f963 d33c bff3 0ebd 5c43 1cbc
00000260: 33f7 e3bd 0dbd b7bd ab25 a4bd ec03 15bd
00000270: c79b e639 f43c 9dbc 0575 fdbd 9c48 8bbd
00000280: ead2 7fbc b056 c5bd 6ef6 f6bc e6b3 66bd
00000290: 0775 15be 1afc 3e3d a784 94bd 67fe ebbc
000002a0: 3c07 ff3c a547 7ebd 927b 4bbc 30b1 bebd
000002b0: 2856 7abd be67 18be bed5 d5bd 4165 57bd
000002c0: 4609 d3bd f207 303c 157e e9bd e1db bdbc
000002d0: 2c01 07bc 1c2d 1dbe 439d 8abd 9350 a4bd
000002e0: c4e3 073d 9a68 0b3d 4ab7 683c a787 5b3d
000002f0: 4675 b3bd 4bc3 46bb 6bf4 bcbc d476 dfbd
00000300: b3ec 90bd d1a5 b1bd 0843 98bd f24f 9fbb
00000310: d780 0dbe e1e5 febc 3b1b ef3c 8e36 92bd
00000320: 0e5e 25bd a893 75bd e1ce e5bd 100b 793d
00000330: 1cd8 c93b 36ad 8dbd f1c1 16be 257a b0bd
00000340: 7cb8 92bc dc29 f8bd 6a16 99bc b351 00bd
00000350: 62f8 15bd 6933 a0bd 0c4e 52bd 930b 92bc
00000360: f216 a9bd cce6 81bd 78b3 0dbd b67d 2dbe
00000370: 0e18 90bd c71f fabc 19a9 73bd b7cb a3bd
00000380: 6151 253c 1f22 9dbd be01 a9bd b932 313c
00000390: bff8 a2bd 625e 2fbe 4f63 90bd 6c0f 60bc
000003a0: d8e4 6dbd 18c2 073d 8cc6 a3bd 26f0 9fbc
000003b0: 0924 96bd cdf7 71bd ca85 83bd ddaa 29bd
000003c0: 6e6c 15bd c36b 6fbd 8078 cfbd 6f32 c9bd
000003d0: 141d 18bd 79c7 a9bd 96a2 69bd f678 1fbc
000003e0: 4e8a d3bd 6f33 ac3d 0f64 7ebd 3c66 b0bd
000003f0: 36b4 cdbd 4511 c0bd bd39 38ba 3eaf d1bd

4.weight f4 [128, 256]
0.045553155 -0.07039521 0.0144966105 -0.04715836 -0.015262617 -0.013809598 0.0062054046 -0.0054685534
-0.07152148 -0.037845794 0.031606752 0.07491288 -0.078855656 0.0653581 -0.03141377 0.05850653
0.07572715 -0.0010690173 -0.013707553 -0.046715785 -0.011372798 0.13873982 0.0044278195 -0.08114795
-0.08173861 -0.029399257 -0.14654298 0.1048968 -0.096630715 -0.043070205 -0.067108944 0.08442948
-0.105442636 -0.055337965 -0.018602472 -0.048876982 0.0675029 -0.04740274 4.8888145e-05 0.09197803
-0.023244673 0.12163704 -0.06612844 0.021131158 0.08901108 0.015091939 0.1127692 -0.11404289
-0.10751814 -0.038410977 0.032816578 0.091005735 -0.08149468 0.064691335 -0.05346858 -0.05133529
0.026990797 0.061045103 0.022593964 -0.09667885 0.007162957 -0.10158446 0.03863503 -0.04361081
0.057914868 -0.0063062888 0.042637233 -0.12577227 -0.107087724 -0.028254779 0.043959964 0.07086999
-0.06601581 -0.055744797 -0.035882127 -0.01984632 0.07990132 -0.03256991 -0.023395468 -0.03610764
0.045217425 0.020964637 -0.00364191 0.05695823 0.034948695 -0.07229817 0.030667894 0.033988282
-0.106576614 -0.0134893395 -0.104330845 0.07534197 -0.041971084 -0.11667386 -0.05053108 -0.12715119
0.044253394 0.04018993 -0.098861724 0.053267192 -0.07031932 0.025241174 0.062617585 0.055549137
-0.01786259 -0.047997646 0.023826336 -0.11975186 -0.12305418 -0.008956488 -0.09492006 -0.09279565
-0.11215433 -0.05411746 0.024636509 0.018621337 -0.021675933 0.036035273 0.110143885 -0.0020828692
0.029613731 -0.00250516 -0.079319105 0.07948192 -0.12948552 -0.04003699 -0.0824929 0.063537605
0.12887532 0.12023457 0.08475482 0.047527842 -0.09120382 -0.013769945 0.092262484 0.07206745
-0.0166044 -0.004856548 0.018649455 -0.114780106 0.022343079 -0.21441106 0.06898891 -0.044109493
-0.02349354 -0.038098007 -0.1735244 0.06861649 0.048404668 -0.034214735 -0.065302156 -0.004829043
0.07273792 0.10516857 -0.057506293 0.059286866 6.44785e-05 0.028015416 0.012649816 0.14687495
0.123160824 -0.015252847 0.045134068 0.0656169 -0.03896105 -0.06464292 0.09454429 0.04701836
0.018016715 0.0027357661 0.04019057 0.05652203 0.07668713 -0.008376595 0.09084758 0.042611543
0.02962392 -0.12551823 0.0025920433 0.0064338488 -0.13270618 0.055799227 -0.0056265057 0.012582145
-0.11276903 -0.17192413 -0.05611855 -0.0017585746 0.057473224 0.012055892 -0.06526859 0.006684134
-0.038485877 -0.028083522 0.0010713555 -0.05427538 0.035030838 -0.049021237 0.008215839 0.08264386
0.1285307 -0.021022553 -0.06606198 0.012948238 -0.019212626 0.010674187 0.13190906 0.043904796
0.024382569 0.02447416 -0.03624719 -0.03439131 -0.005199218 0.06388963 0.06316793 -0.08054836
-0.02706813 0.11211819 -0.041718848 0.20158759 0.029678917 -0.12048105 -0.11735766 0.1397494
-0.09548925 0.14743678 0.0007553173 -0.110204436 0.06460473 0.124701776 0.08200725 -0.051606424
-0.097449 -0.05732472 -0.008249893 0.048572764 0.07887257 0.08165238 0.07300786 -0.0771326
0.0019050833 0.040217474 0.04118204 0.0993074 -0.096012436 0.097268365 -0.026363432 -0.116631135
0.13772964 -0.07773757 -0.22712573 4.0031042e-05 -0.08836326 0.019987775 -0.015843272 0.11220846
00000000: f295 3a3d 5d2b 90bd 3183 6d3c 2029 41bd
00000010: 0e10 7abc a741 62bc b556 cb3b 8d31 b3bb
00000020: db79 92bd 3104 1bbd 1576 013d ed6b 993d
00000030: 137f a1bd 78da 853d baab 00bd 8ba4 6f3d
00000040: d616 9b3d 451e 8cba a595 60bc 0d59 3fbd
00000050: f954 3abc d011 0e3e 3e17 913b e530 a6bd
00000060: 9366 a7bd b6d6 f0bc 5d0f 16be 22d4 d63d
00000070: 53e6 c5bd 626a 30bd 6a70 89bd 5de9 ac3d
00000080: 4ff2 d7bd 10aa 62bd 3664 98bc 3b33 48bd
00000090: f63e 8a3d 6029 42bd 3f0d 4d38 fa5e bc3d
000000a0: 9d6b bebc d71c f93d 596e 87bd 401b ad3c
000000b0: 714b b63d 2e44 773c 8af3 e63d 528f e9bd
000000c0: 7832 dcbd d454 1dbd ad6a 063d 3761 ba3d
000000d0: afe6 a6bd e47c 843d df01 5bbd f444 52bd
000000e0: ce1b dd3c 6e0a 7a3d fa16 b93c 90ff c5bd
000000f0: 3db7 ea3b 830b d0bd c43f 1e3d 40a1 32bd
00000100: 2438 6d3d fca4 cebb 61a4 2e3d 72ca 00be
00000110: cf50 dbbd 9176 e7bc 5d0f 343d 4924 913d
00000120: 4c33 87bd a854 64bd 23f9 12bd c094 a2bc
00000130: 4ea3 a33d 0768 05bd daa7 bfbc 9be5 13bd
00000140: e835 393d 08be ab3c 1cad 6ebb 084d 693d
00000150: 5d26 0f3d 1011 94bd 3c3b fb3c 4c37 0b3d
00000160: d744 dabd 6402 5dbc 69ab d5bd e44c 9a3d
00000170: dfe9 2bbd b4f2 eebd aef9 4ebd ec33 02be
00000180: 0c43 353d 329e 243d 0478 cabd b32e 5a3d
00000190: 9303 90bd 94c6 ce3c a63d 803d 7e87 633d
000001a0: 9154 92bc 2e99 44bd 732f c33c 7740 f5bd
000001b0: d403 fcbd 3cbe 12bc 7365 c2bd a50b bebd
000001c0: 2bb1 e5bd 45aa 5dbd 81d2 c93c c68b 983c
000001d0: ba91 b1bc b999 133d 1e93 e13d bf80 08bb
000001e0: 7f98 f23c 9c2d 24bb 0e72 a2bd 6bc7 a23d
000001f0: da97 04be d4fd 23bd 0af2 a8bd 0120 823d
00000200: e4f7 033e 8b3d f63d ef93 ad3d 8eac 423d
00000210: 12c9 babd 569b 61bc 1df4 bc3d 1998 933d
00000220: f305 88bc ad23 9fbb bec6 983c d511 ebbd
00000230: d508 b73c 938e 5bbe 0f4a 8d3d 28ac 34bd
00000240: 8675 c0bc a80c 1cbd 61b0 31be cd86 8c3d
00000250: f943 463d c024 0cbd 23bd 85bd f33c 9ebb
00000260: 9ef7 943d 9f62 d73d b88b 6bbd c9d6 723d
00000270: a238 8738 9680 e53c 2d41 4f3c 6366 163e
00000280: be3b fc3d 14e7 79bc 80de 383d 2762 863d
00000290: 9f95 1fbd 8263 84bd 70a0 c13d 5396 403d
000002a0: ca97 933c 8a4a 333b de9e 243d a583 673d
000002b0: 240e 9d3d fc3d 09bc 4c0e ba3d 7189 2e3d
000002c0: ddad f23c da87 00be 45df 293b 09d3 d23b
000002d0: 21e4 07be bb8d 643d 8d5e b8bb 5725 4e3c
000002e0: 73f3 e6bd e10c 30be 91dc 65bd f97f e6ba
000002f0: 0b69 6b3d 1386 453c 8aab 85bd 9406 db3b
00000300: 5ea3 1dbd 6a0f e6bc ba6c 8c3a dc4f 5ebd
00000310: 7f7c 0f3d 7eca 48bd ba9b 063c 2f41 a93d
00000320: 8d9d 033e 7d37 acbc 814b 87bd d924 543c
00000330: cc63 9dbc c9e2 2e3c 2b13 073e 84d5 333d
00000340: f4bd c73c 097e c83c ef77 14bd e7dd 0cbd
00000350: 345e aabb 91d8 823d 305e 813d 8af6 a4bd
00000360: fcbd ddbc 399e e53d 62e1 2abd fa6c 4e3e
00000370: 3321 f33c c5be f6bd 3659 f0bd 771a 0f3e
00000380: de8f c3bd abf9 163e 7c00 463a ddb2 e1bd
00000390: 7c4f 843d a563 ff3d 6bf3 a73d 4261 53bd
000003a0: 5793 c7bd 53cd 6abd 8f2a 07bc 3cf4 463d
000003b0: f187 a13d 5d39 a73d 2585 953d b2f7 9dbd
000003c0: fdb3 f93a 14bb 243d 80ae 283d ae61 cb3d
000003d0: 2ba2 c4bd a334 c73d 20f8 d7bc 4edc eebd
000003e0: 0009 0d3e e034 9fbd a693 68be 01e7 2738
000003f0: ccf7 b4bd 67bd a33c c0c9 81bc 8dcd e53d

4.bias f4 [128]
-0.0808544 -0.08580788 -0.09588575 -0.08627356 -0.075681865 -0.03679176 -0.0034934818 -0.02589375
-0.13222362 -0.08532319 0.012154848 0.08881592 -0.051783755 -0.05330508 -0.035404284 -0.0922841
-0.028812056 0.0027217616 -0.058103178 -0.06786963 -0.08376033 -0.06778681 -0.044793963 -0.010469225
-0.09963395 -0.06092447 -0.056747887 -0.058932535 -0.05480967 -0.049502913 -0.011688309 -0.013921857
0.009538519 0.035295352 -0.09022547 -0.0041886107 -0.10394725 -0.08822133 -0.047931142 -0.13431439
-0.060807668 -0.017959379 -0.127125 -0.08629876 -0.07183368 0.013163882 -0.096171044 0.020725453
-0.04632731 -0.009162553 -0.054226432 -0.17524625 0.0011761212 -0.0053944867 -0.0080510825 -0.11127446
-0.06257615 -0.03847716 0.015520089 -0.06417564 -0.06760059 -0.05365341 -0.055321444 -0.10522567
-0.05240375 -0.025984121 -0.10064625 -0.08083935 -0.13691388 -0.07845818 -0.058370028 -0.15073499
-0.056864884 0.018641291 -0.057338886 -0.013467815 -0.07982577 -0.0009385208 -0.03437644 -0.15864357
-0.20666619 0.058844455 -0.13775878 0.03962562 -0.15940765 -0.055205982 -0.04409403 -0.005451422
-0.041244455 -0.058527343 -0.09926636 -0.041333005 -0.1933063 0.036975723 -0.051835433 -0.079718865
-0.109310836 0.017591704 -0.06275855 -0.0027690018 -0.12149583 -0.0022042673 -0.10312886 -0.039827686
-0.10163094 -0.056531727 -0.12649515 -0.07010379 -0.009678454 0.011841128 0.057630323 -0.040708248
-0.042853527 -0.13420759 -0.05810268 -0.13443026 0.07120244 0.06993239 -0.027894527 -0.047474932
-0.029710451 -0.15699433 -0.06935679 -0.05325525 0.014167647 -0.04001632 0.015356674 -0.16727473
00000000: fe96 a5bd 0bbc afbd c05f c4bd 31b0 b0bd
00000010: 18ff 9abd f5b2 16bd e6f2 64bb 211f d4bc
00000020: a165 07be edbd aebd 2125 473c 1fe5 b53d
00000030: 341b 54bd 6d56 5abd 1504 11bd 72ff bcbd
00000040: 4307 ecbc 955f 323b 99fd 6dbd 3cff 8abd
00000050: 898a abbd d0d3 8abd e079 37bd 1d87 2bbc
00000060: e20c ccbd f08b 79bd 7970 68bd 3e63 71bd
00000070: 1b80 60bd 91c3 4abd 5280 3fbc 8018 64bc
00000080: 7347 1c3c dc91 103d 22c8 b8bd 9d40 89bb
00000090: 4ce2 d4bd 62ad b4bd 7253 44bd b689 09be
000000a0: 7611 79bd 8c1f 93bc 0e2d 02be 67bd b0bd
000000b0: 891d 93bd 53ad 573c 53f5 c4bd 6dc8 a93c
000000c0: b5c1 3dbd 881e 16bc 891c 5ebd c173 33be
000000d0: 1428 9a3a 3cc4 b0bb b0e8 03bc dde3 e3bd
000000e0: ed27 80bd 3a9a 1dbd f947 7e3c 856e 83bd
000000f0: 2e72 8abd aec3 5bbd bd98 62bd 8e80 d7bd
00000100: 51a5 56bd a7dc d4bc 9f1f cebd 1a8f a5bd
00000110: 2733 0cbe afae a0bd 6915 6fbd 465a 1abe
00000120: 27eb 68bd 9fb5 983c 2edc 6abd 1ca8 5cbc
00000130: b17b a3bd 1107 76ba 4fce 0cbd 7673 22be
00000140: 4da0 53be e206 713d a310 0dbe 794e 223d
00000150: c23b 23be ab1f 62bd f19b 34bd d8a1 b2bb
00000160: f2ef 28bd 5eba 6fbd 294c cbbd cc4c 29bd
00000170: 16f2 45be db73 173d 6451 54bd a543 a3bd
00000180: 5cde dfbd 7a1c 903c 8e87 80bd 2478 35bb
00000190: ced2 f8bd 7875 10bb 3935 d3bd 5b22 23bd
000001a0: e223 d0bd d08d 67bd f287 01be 9392 8fbd
000001b0: 6192 1ebc 4a01 423c c60d 6c3d b1bd 26bd
000001c0: 2e87 2fbd b76d 09be 13fd 6dbd 16a8 09be
000001d0: 96d2 913d b638 8f3d 1083 e4bc 1375 42bd
000001e0: 5563 f3bc 1fc3 20be ef0a 8ebd 2d22 5abd
000001f0: 6b1f 683c 27e8 23bd 8f9a 7b3c 114a 2bbe

6.weight f4 [12, 128]
-0.086841635 -0.02770144 0.10792095 -0.0720709 0.06634708 0.05193809 0.013782982 0.031028619
-0.038383577 0.044066332 0.04390076 -0.017616417 -0.018776307 -0.07185908 -0.023964046 0.026595447
0.025474742 -0.041605387 -0.017779212 -0.12250213 -0.030554222 -0.008007175 -0.009134198 -0.0079156915
0.007925137 -0.021743309 0.059138227 -0.028359907 0.088676 -0.016648846 -0.04326556 -0.056008846
-0.012442462 -0.051925294 0.19535127 0.010139948 0.0645652 -0.0036168871 -0.008341082 0.015687356
0.0076451036 -0.0839269 -0.106932625 -0.19528143 0.020927584 0.028701609 0.021042487 -0.014343996
-0.011743673 0.061690222 0.07139193 0.061752457 0.015479619 -0.005480187 -0.053284172 -0.008167523
0.05139797 -0.06454238 0.095740914 -0.07206933 0.053312488 -0.007983867 -0.03664145 0.08691644
0.10809286 -0.05916639 -0.078269385 -0.044224147 -0.029443368 -0.18069369 -0.027403327 0.00859986
0.01890901 -0.01140873 0.091021255 0.037375998 0.039899684 0.020462815 -0.04485007 0.058037635
0.030927047 -0.052455567 0.06856604 -0.034328658 0.046614274 0.060086146 0.0009173362 0.008513133
-0.03450757 -0.008152325 0.020614175 0.052026223 0.20643754 -0.046674237 0.0034299663 0.058644276
-0.039184622 -0.07919965 0.021590918 0.02050414 -0.007072336 0.10981991 0.034058 -0.03700283
-0.04502842 0.021411994 -0.05260163 0.028396731 -0.091651365 -0.1236064 0.04241662 0.028551929
-0.0279608 0.08490997 -0.007964584 -0.07370957 0.03756539 -0.005336327 -0.03651281 0.00015416283
0.08707404 -0.0008469499 0.105370626 -0.020985717 0.043745507 0.034587882 -0.05211469 -0.029863272
0.030868582 -0.022088924 -0.09011779 0.084480874 0.110991985 0.06375186 0.061110098 0.06757294
0.03627092 0.009860233 -0.037259515 0.01529045 0.039346926 0.016374195 0.13042845 0.10461646
-0.022322556 -0.02526263 -0.033004764 -0.19475012 -0.052145015 -0.0028914686 0.041818943 0.0080049625
-0.12653556 0.029945986 0.00061100296 0.037596274 0.027715769 -0.021135658 -0.013721965 -0.0691699
0.018277753 -0.11452953 0.061884217 -0.05152798 0.012583235 -0.0695181 0.10162304 -0.046080276
0.030910328 0.023066612 -0.0064247563 0.02566111 0.06357929 0.039109826 0.053838998 -0.02834126
0.056217633 -0.00084940833 0.046015438 0.018961657 0.014436711 0.015298556 -0.016284375 -0.0056894026
0.0007151154 0.044905484 0.0019893134 -0.037056115 -0.008589744 0.008561467 -0.05591246 0.0032219065
0.030923165 -0.02916071 -0.07348775 -0.014486609 -0.016432822 0.03648171 -0.054564312 0.07625712
-0.0113705415 -0.029568426 -0.023918055 -0.022290884 -0.07739437 -0.016702587 -0.094355874 -0.014121906
0.16244024 -0.03281771 0.022997314 0.0021897561 0.03961244 -0.11970323 -0.031143311 0.010631674
0.017582722 -0.051432837 -0.06790578 -0.046567705 0.1703841 -0.047405094 0.05016287 0.039300628
-0.07666004 0.020907622 0.012155651 0.020753067 0.017295834 -0.07126636 0.007637381 -0.08131935
0.07264587 -0.042508353 0.005015768 -0.026925458 -0.046165545 0.03757015 0.11158984 -0.27773985
0.024037074 0.016182194 0.01730217 0.21888445 0.070700474 0.0043737614 0.07388584 -0.022025693
0.02179247 0.048794318 0.043686762 -0.041349065 -0.044710223 0.080711804 0.049914833 -0.025269678
00000000: 07da b1bd 21ee e2bc a905 dd3d e899 93bd
00000010: fae0 873d 09bd 543d 04d2 613c bb2f fe3c
00000020: 1938 1dbd e67e 343d 49d1 333d 4e50 90bc
00000030: c5d0 99bc da2a 93bd 3f50 c4bc b2de d93c
00000040: 68b0 d03c 696a 2abd b6a5 91bc 66e2 fabd
00000050: d94c fabc 8730 03bc 9aa7 15bc d1b0 01bc
00000060: 6fd8 013c 061f b2bc ed3a 723d 0953 e8bc
00000070: c39b b53d 2963 88bc 3a37 31bd 8869 65bd
00000080: 78db 4bbc 9eaf 54bd 2a0a 483e 0622 263c
00000090: c23a 843d 4c09 6dbb 09a9 08bc c582 803c
000000a0: c783 fa3b dee1 abbd 7eff dabd dbf7 47be
000000b0: 5370 ab3c a31f eb3c 4b61 ac3c 1403 6bbc
000000c0: 8968 40bc e3ae 7c3d ef35 923d 25f0 7c3d
000000d0: 3a9e 7d3c 2493 b3bb 8140 5abd 13d1 05bc
000000e0: ae86 523d cc2e 84bd d013 c43d 1699 93bd
000000f0: 325e 5a3d c4ce 02bc 5815 16bd 3f01 b23d
00000100: ca5f dd3d 7558 72bd b34b a0bd 6124 35bd
00000110: 3833 f1bc c407 39be f17c e0bc 6de6 0c3c
00000120: 11e7 9a3c afeb 3abc 5a69 ba3d 9317 193d
00000130: da6d 233d a2a1 a73c b5b4 37bd dfb8 6d3d
00000140: b85a fd3c a6db 56bd 5a6c 8c3d 359c 0cbd
00000150: 9cee 3e3d e41c 763d 6479 703a ab7a 0b3c
00000160: cf57 0dbd 5491 05bc 0fdf a83c 7319 553d
00000170: 5d64 533e 7c2d 3fbd 49c9 603b fb34 703d
00000180: 0e80 20bd 6d33 a2bd 70df b03c 4cf8 a73c
00000190: 0ebf e7bb 43e9 e03d 6780 0b3d 4890 17bd
000001a0: b86f 38bd 3568 af3c cf74 57bd 43a0 e83c
000001b0: b6b3 bbbd 5a25 fdbd 0dbd 2d3d bce5 e93c
000001c0: 0c0e e5bc 47e5 ad3d e37d 02bc 0bf5 96bd
000001d0: 2bde 193d 5bdc aebb 758e 15bd c5a6 2139
000001e0: e053 b23d d805 5eba 8ecc d73d 3dea abbc
000001f0: 7d2e 333d 06ac 0d3d 3776 55bd d2a3 f4bc
00000200: 1ce0 fc3c d5f3 b4bc ad8f b8bd 4f04 ad3d
00000210: c44f e33d 5690 823d 954e 7a3d ae63 8a3d
00000220: d190 143d d18c 213c 6f9d 18bd cc84 7a3c
00000230: 3e2a 213d 2d23 863c 098f 053e 2841 d63d
00000240: cbdd b6bc 93f3 cebc 0130 07bd 936c 47be
00000250: 0396 55bd cb7e 3dbb 574a 2b3d 3f27 033c
00000260: 8a92 01be 4951 f53c b72b 203a 8dfe 193d
00000270: 2e0c e33c b024 adbc 18d2 60bc f3a8 8dbd
00000280: 3abb 953c 758e eabd 4e7a 7d3d 010f 53bd
00000290: ea29 4e3c 815f 8ebd be1f d03d acbe 3cbd
000002a0: a837 fd3c 31f6 bc3c c386 d2bb 4037 d23c
000002b0: dc35 823d a031 203d 4886 5c3d ee2b e8bc
000002c0: 7644 663d d4aa 5eba af7a 3c3d 7a55 9b3c
000002d0: f487 6c3c cba6 7a3c cf66 85bc 2b6e babb
000002e0: 9576 3b3a d0ee 373d 245f 023b 27c8 17bd
000002f0: ffbb 0cbc 6545 0c3c 7704 65bd 9f26 533b
00000300: 9452 fd3c 71e2 eebc bf80 96bd 3e59 6dbc
00000310: 209e 86bc d86d 153d d47e 5fbd b12c 9c3d
00000320: 824b 3abc 7c39 f2bc ccef c3bc 5f9b b6bc
00000330: f180 9ebd ddd3 88bc a73d c1bd 915f 67bc
00000340: bc56 263e dd6b 06bd dd64 bc3c 0382 0f3b
00000350: a740 223d f826 f5bd 4220 ffbc 7930 2e3c
00000360: a409 903c 3dab 52bd 3012 8bbd c7bd 3ebd
00000370: 2b79 2e3e d82b 42bd 9577 4d3d b2f9 203d
00000380: f0ff 9cbd 7646 ab3c 7f28 473c 5602 aa3c
00000390: feaf 8d3c 19f4 91bd ff42 fa3b c28a a6bd
000003a0: 5cc7 943d 3d1d 2ebd 505b a43b c792 dcbc
000003b0: 1518 3dbd 28e3 193d 3789 e43d eb33 8ebe
000003c0: 66e9 c43c 8590 843c 48bd 8d3c 3f23 603e
000003d0: 69cb 903d c551 8f3b 7651 973d 3a6f b4bc
000003e0: 1f86 b23c 8ddc 473d e4f0 323d a35d 29bd
000003f0: 1122 37bd 3b4c a53d 7f73 4c3d 5b02 cfbc

6.bias f4 [12]
0.011735007 -0.08089739 0.06329183 -0.05538992 -0.06823418 0.08394166 -0.029980628 -1.443282e-05
0.052883387 -0.0073872223 -0.034475 -0.0074379356
00000000: 3044 403c 88ad a5bd 269f 813d 8ae0 62bd
00000010: 5dbe 8bbd 9be9 ab3d ef99 f5bc 7d24 72b7
00000020: 409c 583d 8310 f2bb a835 0dbd edb9 f3bb
