mujoco_test/model/blind_locomotion/actor/actor_b.pth (torch, 825600 bytes, 8 tensors)

actor.0.weight f4 [512, 77]
000000 36 74 37 ba a3 cf 2f 3e 8d 7e 46 bf 52 92 1b be
       -0.0006998213 0.17169051 -0.7753685 -0.15192536
000010 78 dd da 3b a7 a0 ed 3d 81 4b e8 bd d8 e2 1b bd
       0.006679233 0.11602908 -0.11342526 -0.038058132
000020 36 14 5e 3f 3b d5 5f 3d b5 e6 d0 3c 59 56 5c bd
       0.8674959 0.05464671 0.025500635 -0.053793285
000030 22 b7 91 3d 8b 22 c9 3e ec 6e a9 3e 38 10 e0 3e
       0.07115008 0.39284167 0.3309244 0.43762374
000040 c7 60 32 be 8a 0e 2e 3e 27 11 3f be 6f 86 b0 be
       -0.1741973 0.16997734 -0.18658887 -0.34477565
000050 a6 71 a5 be 00 4c f0 be 42 63 83 3f 5e cb 00 3e
       -0.3231327 -0.46932983 1.0264666 0.12577578
000060 8f af 9a be 01 cf 57 3e 9c 58 bc 3d bc c0 24 3e
       -0.30212066 0.2107506 0.091965884 0.16089147
000070 66 86 1b bf 6f 44 26 3e cc 76 59 bd 86 39 92 3d
       -0.6075195 0.16237043 -0.05309181 0.07139878
000080 fe f5 77 be a3 7d 17 bd e3 26 23 bb 6c 1d 4a 3d
       -0.24214932 -0.03698505 -0.0024895004 0.049344465
000090 c8 c9 5a bc cc 18 a7 3b 87 32 03 3d 32 d0 98 3c
       -0.013353772 0.0050993916 0.03203061 0.018653963
0000a0 1c 84 03 3d ea 5d 98 bd 36 7c 2d 3d 0e 59 99 bc
       0.03210841 -0.07439788 0.042354785 -0.018719222
0000b0 8d bd 78 bd 71 76 a1 bd 88 98 df 3d e0 10 30 bc
       -0.060727645 -0.07883919 0.10917765 -0.010746211
0000c0 5e 98 04 be 7c 11 85 3b 65 98 7c bd 16 b0 69 be
       -0.12948748 0.004060922 -0.061668772 -0.22821078
0000d0 0a c1 f8 3d 08 18 15 be f1 25 33 be 31 f1 b2 bd
       0.12146194 -0.14559948 -0.17494942 -0.0873741
0000e0 11 ca e7 bd 27 1c 54 3c d5 7b 17 3e 4a 65 1d 3e
       -0.11317838 0.012946165 0.14793332 0.1537067
0000f0 94 7e 1f 3c a8 41 25 3c 7a 1c fe 3d ff 62 39 3d
       0.009734768 0.010086454 0.12407775 0.045260426
000100 57 fd ca 3e 57 2d 8a 3b 88 d1 51 3e eb f1 30 bd
       0.39646408 0.0042168307 0.20490086 -0.04319946
000110 29 88 7a be 78 8b 1e 3e f7 97 e8 3c 8a a1 25 bd
       -0.24466003 0.1548289 0.028392775 -0.04043726
000120 e8 3d 8b 3d e3 c4 b2 3d 6b f4 16 3e 08 c8 78 be
       0.06798917 0.087289594 0.14741676 -0.24295056
000130 15 2b 2e 3e 43 98 ca bd 41 a0 31 bd 7e a7 15 3f
       0.17008622 -0.09892323 -0.04336572 0.584587
000140 db 16 23 bf 33 3a 39 bf cf 4a 51 3d f9 95 21 3e
       -0.6370675 -0.7235443 0.051096734 0.15779866
000150 15 ae 80 3d 6b 84 dc 3e b5 94 ad be b0 b0 1d 3e
       0.062832035 0.43069777 -0.33902517 0.15399432
000160 13 b8 f4 3d 7b 57 3e be e3 9f 39 3e 3f 73 a5 3e
       0.11949172 -0.18588059 0.18127398 0.32314488
000170 98 f7 50 3e 9b d8 d6 3e 7c e1 fd 3c d3 46 39 3e
       0.2040695 0.41962132 0.030991308 0.18093424
000180 7c d7 a6 3d 49 2b c3 bd d8 29 7c 3d 37 fd 9e be
       0.08146569 -0.0952974 0.061563343 -0.31052563
000190 f9 ad 19 bf 54 ad bd be a8 63 3a 3e f8 41 01 3e
       -0.60031086 -0.370463 0.18202078 0.12622821
0001a0 59 30 f2 be 37 9d 38 3e e5 d4 a5 3e 2a f8 17 3f
       -0.4730251 0.18028723 0.32388988 0.59363043
0001b0 90 a8 81 bf 26 b9 7f bf 16 0b 0d 3d 00 ce ab 3d
       -1.0129566 -0.9989189 0.0344344 0.08388901
0001c0 9e 66 cd bd 6a ec 94 3d 3e d2 5a bc 60 22 69 bd
       -0.10029338 0.07271655 -0.01335579 -0.05691755
0001d0 46 b9 2b 3d 4b a7 a7 3c 3a d4 1b be 80 ea 4f bc
       0.041924737 0.020465514 -0.15217677 -0.0126901865
0001e0 e3 4d e9 bd 05 3e a5 3d 19 87 8c 3e bb c1 8f 3d
       -0.11391809 0.0806847 0.2744682 0.07019373
0001f0 00 30 aa 3c d0 eb fa 3d 25 3f b6 3e 03 82 67 be
       0.020774841 0.12252009 0.3559505 -0.2260819
000200 c8 d5 67 3e 85 a5 27 bb 72 b2 ef 3e df 08 39 be
       0.22640145 -0.0025580835 0.4681583 -0.1806979
000210 6a d9 48 bd f9 92 a9 3c 86 48 be 3d c2 ab 8a be
       -0.049035467 0.020699965 0.092911765 -0.27084166
000220 51 bc 8b 3c aa 77 25 3d fc 82 d2 3c 7d b0 70 3d
       0.01705757 0.040397324 0.025697224 0.058762062
000230 8c 19 c1 3b 55 e4 95 3c 02 13 7f 3e a1 1f 18 be
       0.005892938 0.018297354 0.24909595 -0.14855815
000240 16 ca 54 bd 1d 6d 99 3e 3a 6e 28 be cd a7 a6 bd
       -0.051950537 0.2996606 -0.16448298 -0.08137474
000250 92 ce 82 3e 58 70 88 bd 53 dc 63 bc 02 9b 04 bd
       0.25548226 -0.06662053 -0.01390751 -0.03237439
000260 48 1f a4 3e 85 cf ea bc da c1 a1 be 0c 8e 26 3e
       0.32055116 -0.028663406 -0.3159321 0.16265124
000270 31 25 a7 bd 77 aa 22 be 8c d1 16 3f 01 30 a1 bd
       -0.081613906 -0.1588534 0.58913493 -0.07870484
000280 3d 6b 3b bc 6a e9 db 3d 7f f5 31 be 27 b2 8a be
       -0.011439142 0.107378796 -0.17378806 -0.27089044
000290 42 75 89 bc a1 dd 88 3c 78 79 d2 be 02 f7 ea 3d
       -0.016779546 0.016707243 -0.41108298 0.11472894
0002a0 7a 35 cd 3e bd 89 04 be fa dd 5d be fc ad 44 3e
       0.40079862 -0.12943168 -0.21666709 0.19206995
0002b0 ea d8 e0 3e 8a 56 78 3e 13 d4 82 be 8e 9c 21 be
       0.43915492 0.24251762 -0.25552425 -0.15782377
0002c0 5f 81 98 3d 41 26 f4 3d 58 f4 0b be 4e df fa 3b
       0.074465506 0.11921359 -0.13667428 0.0076560145
0002d0 21 93 4b bc 1b 07 64 be af 6f 8f bc 81 7f 4f 3d
       -0.012425215 -0.22268336 -0.01750931 0.050658707
0002e0 57 34 ac be 0b 2f d3 3d 95 97 c2 bb 67 8c 60 3c
       -0.33633682 0.10311707 -0.00593848 0.0137053495
0002f0 57 65 3e bc 0f 27 04 3a 35 d1 0c 3b 9a a3 8c 3c
       -0.011620841 0.00050412206 0.0021487002 0.017167855
000300 e1 d9 24 bd ad ba d5 bc 06 2a 48 3d c7 04 08 bc
       -0.040246848 -0.02608999 0.0488682 -0.00830192
000310 f0 3b 97 bd 6e 1c 0b 3d d3 ce a4 3c 21 f5 bb 3d
       -0.07384479 0.03396266 0.020118153 0.09177614
000320 f6 02 2a 3d 59 3f 94 bd 46 38 22 be 15 88 f2 bc
       0.04150673 -0.07238645 -0.15841779 -0.029605905
000330 8e 37 2c bc 7d 37 32 bd d4 53 a8 bd df ec a7 3e
       -0.010511292 -0.04350995 -0.08219114 0.32797906
000340 01 30 13 3e 19 03 fa bd 95 f0 bf 3e e3 55 42 bd
       0.14373781 -0.12207622 0.37488237 -0.04744519
000350 32 d7 84 be 44 c0 6d 3e 98 f5 ba bd 55 28 9a 3d
       -0.2594543 0.23217875 -0.091288745 0.07527224
000360 a8 ed 72 bd f0 ec af bc 2c 73 b9 bc 09 3b b4 3d
       -0.059308678 -0.021475285 -0.022637926 0.088003226
000370 af 50 38 be 30 e4 5e bd ca 8f 82 3e 61 5b ba 3d
       -0.17999528 -0.054416835 0.25500327 0.090994604
000380 51 18 bf bd 00 2a 10 3b cc 8d c7 3d 57 92 28 be
       -0.0933081 0.002199769 0.097438425 -0.16462074
000390 19 1e 98 bd 93 4d 3b 3e dc 17 19 3e cc ba fb 3e
       -0.07427616 0.18291311 0.14950508 0.49165952
0003a0 be de 3b ba 20 ff 45 bf 6b c5 42 3e d9 1f 83 be
       -0.0007166675 -0.77342415 0.19020621 -0.25610235
0003b0 ad c8 8c 3d 99 74 7f bd b9 ac ab 3d 27 20 86 3e
       0.06874213 -0.062367056 0.083825536 0.26196405
0003c0 af e4 6b be ae 35 da be 3a 24 95 bc 1e 6d de 3e
       -0.23036455 -0.4261908 -0.01820575 0.43442625
0003d0 2c 4f fc bd 35 bd 9f 3e f8 28 a8 3e 52 79 96 3e
       -0.12319788 0.3119904 0.32843757 0.29389435
0003e0 46 18 22 3f 1d fd a7 be 0c 88 0a 3e 88 42 0b be
       0.6331829 -0.32810298 0.1352846 -0.13599598
0003f0 81 89 84 3c 1d ce 14 3c 68 3c 7d be 2f e7 83 bd
       0.016178848 0.009082344 -0.24730074 -0.06440579

actor.0.bias f4 [512]
000000 b1 74 00 3d 0c be e7 bd a1 1c 3a bd 37 9e 50 3d
       0.031361286 -0.113155454 -0.04543746 0.050932135
000010 16 f5 99 bd e5 da 34 3e d5 be 48 be 62 96 5f be
       -0.075174496 0.17661627 -0.19604047 -0.2183471
000020 00 37 e3 3c 8b 5f 70 bd fc 13 fc 3d a9 76 28 3e
       0.027736187 -0.058684867 0.12308499 0.16451515
000030 e6 84 e0 bc 5c 54 ed bd 04 3f 60 3e 2f ec 50 3e
       -0.02740712 -0.11588356 0.21899039 0.20402597
000040 4e e8 10 3d ef 69 fe bc a9 6b 33 bd a6 5c d1 bd
       0.035377793 -0.031056372 -0.043803845 -0.102227494
000050 1b 2f 6c be 49 34 fe 3d 22 9f 73 be 2e 1b 8b 3d
       -0.23064844 0.12412316 -0.23791173 0.067922935
000060 18 c0 64 bb 06 4d 95 3d 1e 81 a5 bd 20 f7 33 3e
       -0.0034904536 0.07290082 -0.08081268 0.1757474
000070 e2 d7 36 3d 63 bf 75 be 92 a4 f7 bc 5b 2d b8 bd
       0.044639476 -0.2399879 -0.03022984 -0.08993026
000080 71 97 ec 3c b0 a1 b0 3d 85 14 25 bd a3 b6 84 be
       0.028880807 0.086245894 -0.040302772 -0.2592059
000090 ee 8b c5 bd e1 9d 23 be b6 bf 89 3d 34 25 59 3d
       -0.0964583 -0.15978195 0.06726019 0.053013995
0000a0 a4 98 1d 3d e2 40 a4 bd d3 3b 90 be 72 7c 9c bd
       0.038475648 -0.08020188 -0.28170642 -0.076409236
0000b0 52 4b 13 bd 78 ed ff bd 01 a7 4c be 5e 04 4c be
       -0.035960503 -0.124964654 -0.19985582 -0.19923541
0000c0 f8 6b 9a bd d3 3b 53 bb 88 12 b0 bd 43 82 57 be
       -0.07540125 -0.0032231703 -0.085972846 -0.21045785
0000d0 2d 79 59 be 79 0c b9 bd bb 58 ac 39 f8 e0 55 3d
       -0.21237631 -0.09035582 0.00032872506 0.0522165
0000e0 1a 3c db bc de d3 e3 bd 3a e1 50 be b5 b3 88 be
       -0.026762057 -0.11124395 -0.20398417 -0.26699606
0000f0 95 4c df 3c f2 49 12 bc 0b 5b a8 bd ac c6 00 bd
       0.027258197 -0.008928763 -0.0822049 -0.03143947
000100 7c 8b 97 bc 1e 49 50 be ee 78 77 3d 0d a0 19 bd
       -0.018499129 -0.20340392 0.060418062 -0.037506152
000110 46 22 e8 3d 27 ef 2d bd e0 a3 dc bd 04 6a 9c be
       0.11334662 -0.0424644 -0.10773444 -0.30549634
000120 2f 97 20 be 43 34 48 be b1 c0 d2 3d 69 03 3d be
       -0.15682672 -0.19551186 0.10290659 -0.18458332
000130 16 de 30 be a9 77 c0 bd b1 49 02 3e 89 06 80 3b
       -0.17272219 -0.09397823 0.12723424 0.003907029
000140 b1 ea 11 be 05 dd 04 bd cf e5 52 3d b5 d1 4c bd
       -0.14249684 -0.032437343 0.051488694 -0.05000468
000150 d9 40 c1 3d 4d 94 8c 3d 6a 1d 38 be 28 a7 34 bd
       0.09436197 0.06864224 -0.1797997 -0.044104725
000160 f0 ae 0f 3d 15 b4 bc 3d ab b1 9a 3d bf 75 ff 3c
       0.035078943 0.092140354 0.07553419 0.031184075
000170 19 d4 b8 3d 31 c9 24 be d1 57 79 be e5 22 b0 bd
       0.090248294 -0.16092373 -0.24349906 -0.086004056
000180 72 84 0e be 2d 10 25 be 6c 9a 27 3d 46 c5 25 be
       -0.13917711 -0.16119452 0.040918753 -0.16188535
000190 a1 e5 30 bd af e6 c8 3d c9 9f 50 3e d5 5e e9 bd
       -0.04318774 0.098096244 0.20373453 -0.11395041
0001a0 20 c2 d1 3d 04 46 aa be 6e 4c c3 3c 4f e5 bf bd
       0.102421045 -0.33256543 0.023840155 -0.09369909
0001b0 bc 0d 18 3e 38 09 68 be 3c 40 0b be 0b 03 3e 3d
       0.14848989 -0.22659767 -0.13598722 0.04638962
0001c0 31 95 15 be 0f 00 58 be 9a e2 dc bc 48 cc e6 bd
       -0.14607693 -0.21093772 -0.02696352 -0.11269432
0001d0 aa b3 0d 3e b1 4d 43 3d 97 ac 91 3d 60 ff 16 be
       0.13838068 0.047681514 0.07112997 -0.14745855
0001e0 bb f3 94 bd 6f f4 69 bd df b9 23 be 61 fc d3 3d
       -0.072730504 -0.057117876 -0.15988873 0.10350872
0001f0 9d b7 03 3e ff 7b 8a be 9c fe 47 3e ec fa 4b be
       0.12863012 -0.27047727 0.1953072 -0.19919938
000200 78 94 77 be 08 5f 0b be 5e 26 78 3d c1 7f 77 be
       -0.2417773 -0.1361047 0.060583465 -0.24169828
000210 20 48 83 bd dd 9c 49 be 28 e0 fc 3d a5 ec 9e 3d
       -0.06410241 -0.19688745 0.12347442 0.0775998
000220 be 3f 79 3d da e0 21 bd cc d7 19 be 95 c8 39 be
       0.060851805 -0.039521076 -0.15023726 -0.18142922
000230 fc 79 0c 3c b5 04 ac 3d 3b 24 3c be a2 a9 8a bb
       0.008574005 0.08399335 -0.18373196 -0.0042316476
000240 2b 8e dd 3d d3 bf 14 3e 0c 1e 23 bd ed 3f eb bc
       0.10818132 0.145263 -0.039823577 -0.028717006
000250 84 fd 39 be a9 b3 28 3e 0d 01 13 3e 56 de 35 3d
       -0.18163115 0.16474785 0.1435587 0.04440149
000260 e3 8b f3 bd ba e8 9f 3d 77 4b 6e 3e df 6b e1 bd
       -0.11891916 0.07808061 0.23270975 -0.11006903
000270 3f 9d 78 be e5 0d 3d 3d 69 ba 11 bd 51 20 51 bd
       -0.24278735 0.04615583 -0.035578165 -0.05105621
000280 8f eb d7 bd a5 5b 0c bd fc 0d 74 3e 43 db ff 3d
       -0.10542976 -0.034267087 0.2383346 0.12492993
000290 26 02 58 3e 7b 62 3d bd 45 10 a0 bc bc ac 3d 3e
       0.2109457 -0.046236496 -0.019539008 0.18522924
0002a0 a3 e8 08 3e 5e 7e a2 bc ab 89 68 bc 01 6a 77 bd
       0.13369994 -0.019835647 -0.014192979 -0.060403828
0002b0 4a 12 fe bc bd f7 f6 3d fa c4 3e be 9b 29 16 3c
       -0.03101458 0.12058971 -0.18629828 0.009165193
0002c0 8d a8 8d be e0 5b 15 3d a2 b1 17 3e 30 b6 83 bd
       -0.27667657 0.036464572 0.14813855 -0.06431234
0002d0 41 22 85 bc a5 6f 0c bd a3 48 3d bd fa 06 0c be
       -0.016251685 -0.03428616 -0.04621185 -0.13674536
0002e0 3a 5e 0a be e9 bc 64 be b5 86 96 bc cd 89 33 bd
       -0.13512507 -0.22337689 -0.01837478 -0.04383259
0002f0 2d 38 b7 3d cb f2 1d be 57 f8 05 be d2 ea a7 3d
       0.089462616 -0.1542465 -0.13083015 0.08199085
000300 fd 5c 1b 3e f5 27 a0 3d 11 e4 42 be 45 6a a4 3d
       0.15172191 0.07820121 -0.19032313 0.08028082
000310 4c c0 14 be 75 d3 ff 3d aa 66 2f be a9 95 95 3c
       -0.1452648 0.12491504 -0.17129007 0.01825984
000320 54 76 38 be 66 0a 8b be 15 3f 72 3d 12 84 01 3d
       -0.18013889 -0.2715637 0.05914219 0.031620093
000330 fa 94 9b be 03 e0 26 be d0 ec 52 3b 69 15 03 3e
       -0.30387098 -0.16296391 0.0032184608 0.12801136
000340 76 41 c5 be be 5e 32 3d 26 f3 c2 bd b2 0b 32 be
       -0.38526505 0.043547384 -0.09519033 -0.17387274
000350 59 9c 7d be 2c a7 57 3e a0 13 83 3d 1c da 20 be
       -0.24766673 0.21059865 0.064002275 -0.15708202
000360 49 69 9b bd 6e db 8f 3c 50 3b 80 3e c4 ff 2c 3e
       -0.07588441 0.017560687 0.25045252 0.16894442
000370 22 a5 48 3e fe ee 97 3b ca 61 f0 bd 94 1c f3 bd
       0.19594243 0.0046366444 -0.11737402 -0.11870685
000380 29 f0 76 3d c2 51 83 3d f2 06 12 3c cb 09 51 bc
       0.06028763 0.064120784 0.008912789 -0.0127586825
000390 fc 01 80 bc d3 dc 6c 3e 02 74 6b bc 9d 48 b0 3d
       -0.015625946 0.23131113 -0.01437092 0.086076
0003a0 72 0b 48 bd a3 00 a2 bd be 7c bf 3d 4e 19 21 bd
       -0.04883904 -0.07910278 0.093499646 -0.039330773
0003b0 3e 44 a9 be e9 43 8e bd af 53 13 be 2c 06 40 be
       -0.33059877 -0.069465466 -0.14387392 -0.18752354
0003c0 4f d8 b3 be d7 2e 41 3c 55 97 3f be bc 71 ee ba
       -0.35125968 0.011790953 -0.18710072 -0.0018191854
0003d0 30 72 63 3e 31 49 82 3d f9 2d 15 3e e2 9a d7 3d
       0.22211528 0.063616164 0.14568318 0.105275884
0003e0 e0 a7 43 3d ff 3b f3 bd 38 d3 00 be 43 4c 82 bd
       0.04776752 -0.11876678 -0.12580574 -0.06362202
0003f0 2c a9 9f bd 86 9b ed 3d 20 98 74 3e 56 dc d4 bd
       -0.07795939 0.11601929 0.23886156 -0.10393588

actor.2.weight f4 [256, 512]
000000 75 3e 07 3d 1a 1a 7c bd 81 5c 42 3e 2d 60 04 3e
       0.033018548 -0.06154833 0.189806 0.12927313
000010 a3 50 da bd a8 9c 40 be 66 75 d3 3e d6 69 02 be
       -0.106599115 -0.1880976 0.41300505 -0.12735686
000020 f4 9a d5 bd 8f 3e 9c 3e 60 27 7e 3b 5f 89 9b bd
       -0.104299456 0.30516478 0.0038780794 -0.07594561
000030 f5 ee b9 3d f5 be d9 bb e1 6a 63 bc 6b e7 8a 3d
       0.090787806 -0.0066450783 -0.013880462 0.06782421
000040 ce f9 99 bd f5 60 af 3c 78 a3 ea bc 03 96 29 3e
       -0.075183496 0.021408537 -0.028642401 0.16561131
000050 c3 98 c2 bd ef 11 ac 3e 62 5b a8 bb d1 f4 7b 3e
       -0.09501793 0.33607432 -0.005137847 0.24605109
000060 06 4b 2d be ff 69 f3 3d 2a 58 cb 3d 2d 9b 89 3d
       -0.1692315 0.118854515 0.09928925 0.067190506
000070 d9 af 00 be c0 75 40 3e 8e 8d d5 bd 06 ae 0e 3e
       -0.1256708 0.18794918 -0.1042739 0.13933572
000080 15 05 80 3d 91 ef c7 3d 09 58 95 3e aa 85 8d 3d
       0.06250969 0.097624905 0.29168728 0.0691026
000090 e0 3f 04 3d d8 2e b4 3b 53 45 b6 bd 2f cc af 3b
       0.03228748 0.0054987483 -0.08899941 0.0053649168
0000a0 59 78 12 be 5c 6e 84 3e 32 01 7b 3e 11 da 33 be
       -0.14303721 0.25865448 0.24512175 -0.17563654
0000b0 80 04 6e be 3b af c3 3d d9 ff 62 be ca 68 8a 3e
       -0.23243904 0.09554907 -0.2216791 0.27033073
0000c0 3a a8 97 3e e8 0b 2e be ce f2 be 3d 30 c4 72 3e
       0.29620534 -0.1699673 0.09323655 0.23707652
0000d0 e6 ea 22 3e fa 45 2e bd bf 79 cf bd 1d 8d 95 be
       0.15909919 -0.042547204 -0.10130643 -0.29209223
0000e0 a2 c5 60 3e 19 e8 8d 3d 97 b5 dd 3c 55 71 2d 3e
       0.21950391 0.06929035 0.027064128 0.16937764
0000f0 ef 3d 14 be 74 e1 aa bd 0a 58 ae 3e ed 3a 25 bd
       -0.14476751 -0.08343783 0.34051543 -0.0403394
000100 50 8d 12 be 7f 93 6b 3d 3f 35 61 3e 0d 7c 76 bd
       -0.14311719 0.05751371 0.21992968 -0.060176898
000110 fd c0 10 be 06 84 81 3e f4 f6 9e 3d 1f d2 86 bd
       -0.14136119 0.25296038 0.07761946 -0.06583046
000120 68 fd dc bd 10 ba 22 be fe 30 6d bd aa 73 28 3d
       -0.10790521 -0.1589129 -0.05790805 0.04112593
000130 97 19 dd bd 9e f9 50 be 6a 77 d0 3d 90 1b 61 3a
       -0.107958965 -0.20407721 0.101790264 0.0008587176
000140 d2 7d 84 bd 19 32 0f 3e 8c d2 1c 3e 86 45 0f 3e
       -0.06469311 0.13983954 0.15314692 0.13991365
000150 b6 64 a6 3c 59 a4 86 3e 8d df df 3e f9 1e 17 3d
       0.020311695 0.26297262 0.43725243 0.036894772
000160 30 b0 a2 3d d4 e0 fd 3e 8f b4 26 be 71 f3 1c be
       0.07943761 0.49585593 -0.16279815 -0.1532724
000170 17 89 07 3e eb ab e0 3d f1 e4 8e 3e 0c 38 3f be
       0.1323589 0.10970291 0.27909043 -0.18673724
000180 45 67 12 bd 8b c2 bf 3d d6 16 50 be b1 a0 5f 3e
       -0.035743017 0.09363278 -0.20321211 0.21838643
000190 31 c2 15 bd e1 e2 10 3e cf 3b 14 be d9 68 70 3c
       -0.03656215 0.14149047 -0.1447594 0.014673435
0001a0 0c 56 84 bc 47 5b 8b 3e d2 2b 4e 3e a8 77 4c be
       -0.016154312 0.27218077 0.20133904 -0.1996752
0001b0 b2 8f 9e 3d cd 3d e7 bd 57 37 0e be ec 9e 28 bc
       0.077422515 -0.112910844 -0.13888298 -0.010291796
0001c0 97 d4 43 3d 03 a2 e8 bd 77 54 a5 3e ef 91 02 3e
       0.047810163 -0.11359026 0.32291004 0.12750982
0001d0 95 3a 7c be 79 19 d3 3d d0 57 3e 3c 6a 95 d6 3d
       -0.24631722 0.10307593 0.011617616 0.10477717
0001e0 fa 53 41 3e 25 54 1d bd d7 79 0d be a6 58 33 3d
       0.18879691 -0.038410325 -0.1381601 0.043785714
0001f0 fb 8e 4d 3e 4d aa a2 be 25 95 ba 3d 75 39 1c 3d
       0.20074074 -0.31770554 0.09110478 0.038140733
000200 35 d5 b8 3e e7 5f 81 3e 79 44 10 be 3f aa 98 bd
       0.36100164 0.2526848 -0.1408862 -0.07454347
000210 b9 b4 0d 3e b7 88 68 3c 78 15 84 3c 25 fa 0c 3c
       0.13838471 0.014192752 0.016123518 0.008604561
000220 e0 07 d6 3d 07 2e 98 3e ce 71 55 3c 27 cf 49 3c
       0.10450721 0.29722616 0.013027621 0.012317455
000230 01 05 c3 3e 81 e0 1b 3e d7 d8 93 3d 8f 2b 85 3d
       0.38089755 0.1522236 0.07219093 0.06502449
000240 e7 c4 e7 bd d3 85 1f 3e 23 4a a7 bd 32 cc 93 be
       -0.11316853 0.15578394 -0.08168437 -0.28866726
000250 93 58 3a 3e 27 a6 c2 3d 43 b3 0f 3e 8b 8c 94 3d
       0.18197851 0.09504347 0.14033227 0.07253369
000260 ed 63 02 be d6 1b 2f 3e 25 f9 3f 3e e7 ed aa bb
       -0.12733431 0.17100462 0.18747385 -0.0052163485
000270 21 9a eb bd aa 82 dc bd 9c 1e 70 be 4d df 0e 3e
       -0.11504007 -0.1076711 -0.23449177 0.1395237
000280 0e d9 38 3e 0a d3 a9 3d 89 db f4 3c 3f c2 2b bb
       0.1805155 0.08292206 0.029889839 -0.002620831
000290 81 d5 53 bd fd e0 4a 3d ec fa 21 3d f6 2d 95 be
       -0.051717285 0.04953097 0.03954594 -0.29136628
0002a0 6b 8f 86 3e 16 18 c5 3d 9b e3 7f 3e d3 ed 13 bd
       0.26281294 0.09623735 0.24989168 -0.03611548
0002b0 12 91 6f be a7 d8 8f 3e 5f a7 8c 3e b6 66 a3 3d
       -0.23395184 0.2809498 0.27471444 0.07978575
0002c0 72 d1 13 be d7 1d 92 be d5 cd 0d be eb e5 55 bd
       -0.14435366 -0.2853839 -0.1384805 -0.05222122
0002d0 19 87 2a 3e 62 7a 32 3d 74 2a 91 3e 42 97 8a 3d
       0.16653098 0.043573745 0.28352702 0.067671314
0002e0 88 c1 f1 3c 03 54 e5 bd 56 aa 6b bd 45 f0 d2 bd
       0.029511228 -0.111976646 -0.057535492 -0.10299734
0002f0 be a8 35 be f8 3b cd 3d c4 27 8d 3e 96 6b 58 3e
       -0.17740151 0.10021204 0.275694 0.21134791
000300 ce 9c c2 3d d1 b5 4d 3e e2 c4 5c be 38 b9 64 bd
       0.09502564 0.20088889 -0.2155948 -0.0558407
000310 c1 ff 1c 3e f6 d1 5a 3d f6 c0 f2 bc 42 be 13 be
       0.15331937 0.05342289 -0.029633027 -0.14428046
000320 41 4d fb 3d b7 8f ea 3d 4e b7 c2 bd 5b 1f 20 bd
       0.122705944 0.11453193 -0.09507619 -0.039092403
000330 cd 11 37 bc 0e 6d 67 3d 4f 1f f3 bd 47 48 18 3e
       -0.011173678 0.056500487 -0.11871206 0.14871322
000340 0c a0 ee bd 1b 6a e0 3c 28 e4 6b bd 6a 10 a2 3e
       -0.1165162 0.027394345 -0.057590634 0.31653148
000350 47 fe 0e 3e 8b ee fa 3d 95 02 d4 be 64 03 fa bd
       0.13964187 0.1225253 -0.4140822 -0.12207678
000360 d4 33 b9 3c a2 8e 25 be cb 28 8d be ea 00 a1 be
       0.022607721 -0.16167691 -0.27570185 -0.3144601
000370 51 87 81 be 11 b2 5b 3d ec cd 29 3c d1 aa 37 bd
       -0.2529855 0.053636614 0.010364037 -0.044840638
000380 95 dd f6 3d a5 47 4e bd e3 b2 24 3b 39 ad b6 bd
       0.12053982 -0.050361294 0.002513104 -0.08919758
000390 2f a4 15 be 0a d6 7b be 71 3f 59 be 5f 1e 44 3d
       -0.14613412 -0.24593368 -0.21215607 0.047880527
0003a0 66 08 b2 3e f8 26 36 3e 54 16 17 3e 9e 0d 1d 3e
       0.34772032 0.17788303 0.14754611 0.15337226
0003b0 05 a2 00 3e eb 26 93 3d cb cf 9a 3e fe 22 ed bc
       0.12561806 0.071851574 0.30236658 -0.02894735
0003c0 a6 d9 8d 3d 0d 5b ac be 9b 98 97 bd 9c a7 57 3d
       0.06926279 -0.33663216 -0.07402154 0.05265008
0003d0 b8 fc 94 be d6 c0 94 bd 5a 29 b1 3e 26 a5 81 3c
       -0.2909906 -0.07263343 0.3460186 0.01582582
0003e0 ec bd dc 3c 59 a9 1c 3e 82 4d 6c bd dc 98 5c be
       0.02694603 0.15298976 -0.057691105 -0.21542686
0003f0 86 00 af be 32 8c 82 be ca ab b6 3b bf 05 cb 3e
       -0.34180087 -0.25497586 0.005574678 0.3965282

actor.2.bias f4 [256]
000000 8a e2 a8 bd 6a bb 88 3d 21 05 95 bd e3 02 39 be
       -0.08246334 0.066763714 -0.07276369 -0.18067507
000010 4c 97 60 bd f3 bd a1 bd a9 a7 54 be 4a f5 13 be
       -0.054831788 -0.07897558 -0.20767082 -0.14449039
000020 63 85 b8 bd 21 4b a8 be 28 5a 7a be 3e e5 07 bd
       -0.090098165 -0.3286982 -0.24448454 -0.033177607
000030 52 b8 ba bd 04 6a 88 be ec c3 76 be 60 d0 8d bd
       -0.091171876 -0.26643384 -0.24098176 -0.0692451
000040 e5 d6 54 be 15 c8 57 be db 8d 37 be b7 6b 3d be
       -0.20785101 -0.21072419 -0.17925207 -0.18498121
000050 dd 69 5e bd 30 c0 50 3d a3 c5 be bb ca b1 28 be
       -0.054300178 0.050964534 -0.0058219 -0.16474071
000060 da f8 58 be 90 d0 a3 3d 6f ff a6 bd 54 c8 0c be
       -0.2118868 0.079987645 -0.08154189 -0.13748294
000070 09 5c b0 bd 58 e6 6e be 5a 9c 04 be 05 1d 03 be
       -0.08611304 -0.23330057 -0.12950268 -0.12804039
000080 41 4f 1a be 75 85 4d be ad d6 ce bc 65 6a 3b be
       -0.15069295 -0.20070441 -0.02524885 -0.18302305
000090 93 c6 f4 b9 e0 82 d1 bd 90 95 54 be fc 10 23 be
       -0.00046687256 -0.102300406 -0.20760179 -0.15924448
0000a0 ae a4 b8 bd 67 67 2e be 23 5b 5f bc 6e ae fd bc
       -0.09015785 -0.17031632 -0.0136325685 -0.030966964
0000b0 5c 79 a7 bd 7d f2 99 bd d0 e0 4b bd bb 2e d8 bd
       -0.08177444 -0.07516954 -0.049774945 -0.10555788
0000c0 ab 12 b2 bc f1 b5 3b bd 0a 5f 8d bc f6 95 0a be
       -0.021737417 -0.04582781 -0.017257232 -0.13533768
0000d0 0a 10 2d be 9b 78 b6 bd cb c7 93 bd d8 a9 b3 be
       -0.1690065 -0.089097224 -0.07215842 -0.35090518
0000e0 1f 6b 98 be 70 7a 0d bc 2e d6 3a be 75 2c e9 bd
       -0.29769227 -0.008635148 -0.18245766 -0.11385433
0000f0 c7 f6 64 bc 6f 04 03 be 6a b5 3f be 92 b0 13 be
       -0.013974852 -0.1279466 -0.18721548 -0.14422825
000100 43 51 dc bb 67 17 21 bd 4f 9a 25 be 18 d3 a9 bd
       -0.0067235543 -0.03932896 -0.16172145 -0.08292216
000110 10 f2 86 bd 16 f3 88 bd 4b ad ee bd a6 65 95 be
       -0.065891385 -0.0668699 -0.11654147 -0.29179114
000120 08 c3 8a 3d bf d5 05 be 49 b6 00 bd 15 4b 89 bd
       0.067754805 -0.13069819 -0.03142384 -0.06703774
000130 3a a7 63 be 27 2c f1 bc f0 25 95 bd c2 c2 0f 3c
       -0.2223176 -0.029439999 -0.07282627 0.008774461
000140 1d 9b e7 bd 1b 4f ae bd 8a 3f 3f be 0f 06 f0 bd
       -0.113088824 -0.08511182 -0.18676582 -0.117199056
000150 dd 7c c2 bd 2d 86 df bc 55 45 37 be d8 04 16 be
       -0.09496472 -0.02728566 -0.17897542 -0.14650285
000160 86 7b 9b be d3 0d e8 bd b1 13 27 bd 45 2e bf be
       -0.30367678 -0.11330762 -0.040790264 -0.37339988
000170 d7 58 ae be 52 70 e2 bd 9d f3 c6 bd bb a4 09 be
       -0.34052154 -0.1105658 -0.09714434 -0.13441746
000180 2b f5 19 be fe 85 db bd 05 75 37 be 69 f3 aa 3d
       -0.1503493 -0.10718916 -0.17915733 0.08347208
000190 ec e0 8e bd 98 43 8d be 28 f0 0f be 44 2a 12 be
       -0.06976494 -0.27590632 -0.14056456 -0.14273936
0001a0 13 20 13 be e2 21 2e be af 98 22 3c c1 87 c2 bd
       -0.14367704 -0.17005113 0.009924098 -0.09498549
0001b0 8f 0a cd be eb c0 41 be a4 21 db bd ac b4 e9 bd
       -0.40047118 -0.18921249 -0.10699776 -0.114114136
0001c0 d4 9c ae be 7c 03 8d be c2 e0 d1 bd 6a ad da bc
       -0.34104025 -0.2754172 -0.10247947 -0.026694018
0001d0 d4 52 12 be 2f c6 d1 bd 79 c5 6a bd 09 22 b5 bc
       -0.14289409 -0.10242879 -0.05731723 -0.022110956
0001e0 51 d7 ab be 4b 32 c0 bd 57 ff 65 be 49 a1 26 be
       -0.3356271 -0.093845926 -0.22460686 -0.16272463
0001f0 c6 20 d6 bc cc ee 40 be 27 d9 31 be c6 ba 1c be
       -0.026138674 -0.18841094 -0.17367993 -0.15305623
000200 a7 64 21 be b4 9e ca bd 9a 90 34 be f2 49 fd bd
       -0.15761052 -0.098935515 -0.17633286 -0.123676196
000210 f5 f8 f2 bd 3a ff 5b 3e 5f 33 5a be 82 c2 16 be
       -0.11863891 0.2148408 -0.21308659 -0.14722636
000220 58 aa 6d bc 3b 03 18 be bc 51 98 be 1b a9 61 bd
       -0.014505945 -0.14844982 -0.29749858 -0.055092912
000230 e9 3d 02 be 30 a3 8c be 71 04 48 bd 8f 61 d6 3d
       -0.1271893 -0.27468252 -0.04883236 0.104678266
000240 0a 41 7d bd a3 21 f8 bd de 81 2e bd 48 d9 40 3e
       -0.061829604 -0.12115791 -0.04260432 0.18832886
000250 af 02 be be f1 45 50 be 3f 84 f0 3c 5a 30 33 bd
       -0.37111422 -0.2033918 0.029359935 -0.043747284
000260 b9 d4 0f 3e 26 35 1e be a5 7c 35 be 81 b4 37 be
       0.14045991 -0.15449962 -0.1772333 -0.1793995
000270 d0 2a 3e bd 81 20 2a 3d 5b 45 ad bd 95 93 92 bd
       -0.046427548 0.041534904 -0.08460494 -0.07157055
000280 ee dd 91 be 0b 9c 3b be 92 69 1d be b8 24 94 bd
       -0.2848963 -0.18321244 -0.15372303 -0.07233566
000290 85 d1 7f bd 69 50 c1 bc 52 88 61 bd 0e 8f 66 bd
       -0.062455673 -0.023597913 -0.055061646 -0.05628877
0002a0 ac 7d 45 be e8 cb 5a bd a6 a9 c4 bd 87 e8 8c be
       -0.19286221 -0.053417116 -0.0960267 -0.27521154
0002b0 e7 11 11 be e4 a1 3a be 9b d5 75 be b6 fa 69 be
       -0.14166985 -0.18225819 -0.24007265 -0.22849545
0002c0 4f 1c 57 be 8d 08 c4 bd b6 38 e9 bd 28 47 10 be
       -0.21006893 -0.095719434 -0.1138777 -0.14089644
0002d0 5f cb 21 be 39 ae be bc 5e ab 17 be 3b 92 0f be
       -0.15800236 -0.023276435 -0.14811465 -0.14020626
0002e0 a1 95 87 bd e6 74 c2 3c e3 bb 9c be 82 af 04 3c
       -0.06620336 0.023737382 -0.30612096 0.008098485
0002f0 dc 8e a6 be 1a 55 77 be ba 7d be bd 2b 55 87 3c
       -0.32530868 -0.24153557 -0.09301324 0.016520103
000300 fb 7d de bd 52 d8 f4 bd 68 b9 34 be 10 91 b6 bd
       -0.108638726 -0.11955322 -0.17648852 -0.08914387
000310 ab 4a b3 bd a2 53 d2 3c 20 53 68 bd a7 3e 34 be
       -0.08754476 0.025674645 -0.0567199 -0.17602025
000320 5e 54 a1 3c 3b 52 07 be 9a 5c 28 be bf 9b 00 be
       0.01969355 -0.13214962 -0.16441575 -0.12559412
000330 c4 58 0f 3e ef 6d 3b bd c4 70 04 be 8d 8e 1c be
       0.13998705 -0.045759138 -0.12933642 -0.15288754
000340 86 5a bf bc 97 91 fd bd 8e a3 b2 be 92 d3 6f be
       -0.023358595 -0.12381285 -0.34890407 -0.23420551
000350 86 eb 58 be 20 e8 93 bd bc d4 d5 3c 6d ef 43 be
       -0.21183595 -0.07222009 0.026102416 -0.19134302
000360 1d 01 14 be 6f ca 4e be 07 54 af bd 2b b6 ec bd
       -0.1445355 -0.2019441 -0.08560949 -0.11558183
000370 df 79 83 be ac a1 c8 bd 03 34 39 be d8 dd d3 bd
       -0.25678918 -0.097964615 -0.18086247 -0.10345048
000380 af 96 97 bd cf c1 ec bc fc 71 05 be d0 4b 2c be
       -0.074017875 -0.028901009 -0.13031763 -0.16825795
000390 77 62 7b be 3e ef 4b 3c a0 65 99 3c 84 a7 2f be
       -0.2454928 0.0124471765 0.018725216 -0.17153746
0003a0 a0 07 d7 be 82 f3 3b be 7e 21 05 be d1 47 10 be
       -0.41998005 -0.1835461 -0.13001058 -0.14089896
0003b0 f7 7b 65 be 07 c2 2c be d1 b3 2f be ae 3a 89 bd
       -0.2241057 -0.1687089 -0.17158438 -0.067006454
0003c0 f3 74 0a bd 6e 0c e8 bd 50 72 e2 3c 88 b2 99 be
       -0.033802938 -0.11330496 0.0276424 -0.3001902
0003d0 bc 77 27 be 02 55 91 be b7 4d e7 be ca 3a 8f bd
       -0.16354269 -0.28385168 -0.4517648 -0.06993635
0003e0 7c f4 35 be 10 49 e6 bd 7a aa bd bd f1 38 56 bd
       -0.17769045 -0.11244404 -0.092610314 -0.052300397
0003f0 b9 5c a5 be 9b 65 d7 bd 33 1a 11 be 1c c3 3c bb
       -0.32297304 -0.105174266 -0.1417015 -0.0028802818

actor.4.weight f4 [128, 256]
000000 16 ff 06 3d 73 80 4a bc 29 e7 17 3c 77 e0 54 be
       0.032958113 -0.012359726 0.0092714215 -0.20788752
000010 49 1a dc 3c 04 62 b3 3c 87 06 ce bd b5 78 9a bc
       0.026868002 0.021897323 -0.10059839 -0.018856386
000020 69 8c e6 bc c9 b7 ec bd cf c7 a8 bd 58 36 d7 3c
       -0.028143125 -0.11558492 -0.082412355 0.02627103
000030 58 33 d0 3d d5 43 5c 3e 33 3b 46 3e 9f 2b b1 3b
       0.10166043 0.21510251 0.1935852 0.0054068114
000040 9c 10 22 be ca c8 bb bd 58 63 09 3e 43 e1 39 3d
       -0.15826648 -0.09169157 0.13416803 0.045380842
000050 67 ee ec bc 5c 40 05 3e 03 18 fd bb 4f 0d ce 37
       -0.028922273 0.13012832 -0.0077238097 2.4563311e-05
000060 aa fd 80 3b c7 50 d4 bd ea 9f c3 3d d2 fc f6 bd
       0.003936489 -0.103669696 0.095519856 -0.120599404
000070 a1 99 e5 bd 27 63 d1 3b 15 c4 7a 3e 10 a1 ec bd
       -0.11210943 0.0063899937 0.24488862 -0.11554158
000080 5d 99 2f 3d ca 7f 86 39 bd 2d 8a bc 84 ab 30 3d
       0.042870868 0.00025653682 -0.016867513 0.04313232
000090 fe 62 cd 3d 48 d9 fa 3a 68 5f a8 bd b0 3e 81 3c
       0.10028647 0.0019138241 -0.08221322 0.015776962
0000a0 4c 72 af 3d ae 6d c8 bd 40 15 26 3e 38 e1 1a 3d
       0.08566722 -0.09786545 0.16219044 0.03781244
0000b0 3b 8f 4d bd 2a c7 bf bd 2c ce 41 3e 7e b8 ee 3d
       -0.050185423 -0.093641594 0.18926305 0.11656283
0000c0 a0 06 51 be 77 7c 7a be d0 39 a4 bd 10 84 c0 bc
       -0.20412683 -0.24461542 -0.08018839 -0.023500472
0000d0 ce 32 0c be 4b b3 c6 3d 3c 4e 07 be 2f 76 f4 3d
       -0.13691255 0.09702166 -0.13213438 0.11936604
0000e0 74 43 02 3e 89 32 d1 3d 60 e0 7e 3c 81 e0 81 bb
       0.12721044 0.10214717 0.015556425 -0.0039635305
0000f0 88 ef c3 bd 1b da 4c 3d 15 a9 51 3d 61 33 8a bc
       -0.09567171 0.05001269 0.05118664 -0.016870202
000100 7f 91 71 bd 5b b5 84 bd 27 5b e6 bd cf c3 39 3d
       -0.058976647 -0.06479903 -0.11247855 0.045352753
000110 c6 74 a8 be e6 53 f9 3d 5c a5 fc bd 63 04 6f bd
       -0.3290159 0.121742055 -0.12336227 -0.058353793
000120 5a 33 33 be 42 43 9d bd e2 23 33 be 10 4d a7 3d
       -0.17500058 -0.07678844 -0.17494157 0.081689954
000130 d3 ff b1 be 73 88 92 3c 18 41 52 be 2b b7 a4 3e
       -0.3476549 0.01788733 -0.20532644 0.32170996
000140 5c e2 ce bd 0f a3 69 be 3a 9b 52 bd bc 40 03 3e
       -0.101017684 -0.22816108 -0.051417567 0.12817663
000150 b3 88 5f bd c0 b5 a1 3c 47 ac 64 3e c3 e7 03 3e
       -0.054573726 0.019739985 0.22331344 0.12881379
000160 37 3a 45 3e b2 96 66 3d b4 a1 9c bc ad 94 0b 3e
       0.19260488 0.056296058 -0.019120075 0.13630934
000170 fa cf b8 bd 26 d6 98 3d e0 2d d7 bd 33 05 8c be
       -0.090240434 0.074627206 -0.10506797 -0.27347717
000180 02 2f 3e 3d e3 35 03 3d df 2a 23 be d1 58 0c 3d
       0.04643155 0.032033812 -0.15934323 0.03426439
000190 ef 21 d6 bd 6e 9f c5 3d f4 cd 1a 3e 55 24 bd bc
       -0.10455691 0.096495494 0.15117627 -0.023088614
0001a0 d6 0a 0d be c1 a7 e9 bd e8 40 24 be 78 cd b3 bd
       -0.13773665 -0.1140895 -0.16040385 -0.087794244
0001b0 d9 11 86 3e 80 2c 24 bd a2 9c 92 bd cc 0f d7 bd
       0.26185492 -0.0400815 -0.071587816 -0.1050106
0001c0 74 dd 0e be 53 5f 6d 3d 57 61 3c be 40 06 25 3e
       -0.13951665 0.057952236 -0.18396507 0.16115665
0001d0 10 4f 00 3e 5e a8 a1 3c 0e 1a 27 be 70 bf df 3d
       0.1253016 0.019733604 -0.16318533 0.10925186
0001e0 b3 52 33 3e d3 c1 e9 bd b1 65 29 ba d4 40 66 bd
       0.17512016 -0.11413922 -0.00064619916 -0.05621417
0001f0 f4 7f 87 3d f1 3d 61 bd a2 92 19 be a1 6a 25 3e
       0.06616202 -0.054990713 -0.14997342 0.16153957
000200 3e dc 85 3d 31 cf 87 3c 48 b5 72 bd fb 93 0f 3d
       0.065361485 0.016578289 -0.059254915 0.035053235
000210 d7 e9 5a be 25 44 0c 3d 88 7e c1 3d 6c 25 c5 bd
       -0.21378265 0.034244675 0.09447962 -0.09626278
000220 0f 61 bd 3b 66 0c 1f be bc 5f 07 bd 13 cf 89 3d
       0.0057793926 -0.15532073 -0.033050284 0.067289494
000230 53 96 7b 3e f3 44 16 3d ad a3 e2 3d dd 79 bb bd
       0.24569063 0.03668685 0.11066375 -0.09154103
000240 e8 ee 13 be 4d ea c3 bc 89 2b b9 3c 5d e2 43 be
       -0.14446604 -0.023915434 0.022603767 -0.1912932
000250 98 7f 4e be 21 25 e1 3d 4c 6f 7f bd 36 11 6f 3e
       -0.2016586 0.1099341 -0.062362 0.23346409
000260 1d 71 a7 bd da cf 93 bd 39 e5 0f 3e 0f b0 8f be
       -0.081758715 -0.07217379 0.14052285 -0.2806401
000270 12 94 02 3d 8f cb 30 be 75 8d 8c 3d b6 f9 1d bd
       0.031879492 -0.17265151 0.06862918 -0.03856822
000280 07 45 c5 3d 29 84 e5 3d f1 8e 00 bc 70 03 a2 3d
       0.096323065 0.11206848 -0.00784658 0.07910812
000290 84 17 1c be 9f bc 6f 3d b6 60 c6 3d 18 f4 02 bd
       -0.15243345 0.058529492 0.09686415 -0.031971067
0002a0 53 93 dd bd 55 f2 2c 3d 82 dc 77 3d 19 9a 69 bd
       -0.108191155 0.042223293 0.060513027 -0.057031725
0002b0 80 1c ee 3b 0a f0 6e 3d ab 34 4b bc 95 d5 22 bd
       0.007266581 0.058334388 -0.012402694 -0.03975447
0002c0 98 59 6f bd 4a a6 cf bd 5b 53 64 3d a0 f8 10 bd
       -0.058435053 -0.10139139 0.055743556 -0.035393357
0002d0 c7 d8 aa bd 52 3d 7c bc 3f 26 27 be be 66 90 3e
       -0.08342128 -0.015395479 -0.16323183 0.28203386
0002e0 52 ed eb 3d 4a 68 00 be 41 59 48 3d f6 69 f2 3b
       0.11519875 -0.12539783 0.048913244 0.0073978854
0002f0 f9 32 92 be 14 1e 0d 3e d9 ca ea bd a5 b7 78 bd
       -0.28554514 0.13781005 -0.11464471 -0.060722012
000300 e4 c5 c1 3d 98 86 85 bc 38 30 91 3c c1 23 bc 3d
       0.09461573 -0.01629953 0.017723188 0.09186507
000310 6f f8 de bd cb 6f 3d 3e 52 52 29 3e 4b aa 18 3e
       -0.10887229 0.18499677 0.16535309 0.14908712
000320 b2 c0 69 3b 13 98 77 bc 43 23 d2 3d 72 74 55 3e
       0.0035667834 -0.015111941 0.10260632 0.20845202
000330 30 c6 8b 3d ad 2a e5 3c 49 50 fc 3c 99 a3 c9 bb
       0.06824911 0.027974451 0.030800002 -0.0061535356
000340 13 81 e3 bc 1e ed b8 3c 5a 48 11 be 48 2b 30 bd
       -0.027771508 0.022574004 -0.14187756 -0.043010026
000350 03 04 b0 3b f3 d3 ea bc 23 c3 a9 3d 22 bd 15 3e
       0.005371572 -0.028665518 0.082891725 0.1462293
000360 ee 3b 93 3c c4 0a 34 3d 53 fb bf 3d 07 93 e7 3c
       0.017972913 0.04395558 0.09374108 0.02826835
000370 3f 94 36 bc f8 16 27 3d e8 33 e4 bd 1d 35 66 be
       -0.011143743 0.04079339 -0.11142713 -0.22481199
000380 25 73 b5 bd 72 8d a3 bd 4c 64 e2 bd 4a 93 ac bd
       -0.08859853 -0.07985963 -0.11054286 -0.08426531
000390 90 ec 27 3b ea 54 9c bd 43 0f ab bc dc 36 6d bd
       0.002562318 -0.076333836 -0.0208813 -0.057913646
0003a0 51 f9 0d 3d b2 8e a2 be 7e 87 20 bd 4b d1 85 3e
       0.034661595 -0.31749493 -0.039191715 0.2613624
0003b0 92 fd df bd 11 67 b6 3c 15 1f 4e 3e 50 ad 26 3e
       -0.109370366 0.022265943 0.20129044 0.16277051
0003c0 30 48 85 bc 16 f8 af bc d2 b3 98 bd 30 2a 1e be
       -0.016269773 -0.021480601 -0.07456173 -0.15445781
0003d0 22 bd 09 be d9 cf ec bd 83 17 af 3d 12 8f 6f bd
       -0.13451055 -0.11563081 0.085494064 -0.05848605
0003e0 22 6f a9 3d aa 58 1a be db 0c 0c 3e d3 4f f5 3d
       0.0827315 -0.15072885 0.13676779 0.11978116
0003f0 2b b8 13 bc 27 ab 5d bd 33 9f be 3d 52 fb e9 bb
       -0.009016077 -0.0541183 0.093077086 -0.0071405554

actor.4.bias f4 [128]
000000 c8 cc cf bd 05 fd 94 be 70 08 a4 bd 4c 91 03 bd
       -0.10146481 -0.2909929 -0.08009422 -0.032120988
000010 72 e3 12 bf 61 2c 7d bc ad ba 17 be b2 b2 34 be
       -0.57378304 -0.015452475 -0.14817305 -0.17646292
000020 df 5d 19 bd 66 4e 60 be e2 12 7c be 33 0b c4 bd
       -0.037443038 -0.21904907 -0.24616578 -0.095724486
000030 cf 40 b4 bd 89 a4 fa be 9f f2 5f be 3b 98 00 be
       -0.08801424 -0.48953655 -0.21869896 -0.12558071
000040 4a c5 a5 bd de a8 1e be 60 93 6e be 2b c8 58 be
       -0.080942705 -0.15494105 -0.23298407 -0.21170108
000050 3b 8c 9d bd 35 a4 2a be 80 fb 10 be 8b 72 c3 bc
       -0.076927625 -0.16664203 -0.1415844 -0.02385833
000060 86 0d ab 3d 9a 3d 29 be 02 54 53 be e5 f2 22 3c
       0.08352189 -0.16527405 -0.20637515 0.009945606
000070 c3 76 c9 bd 9b 7d 18 be b1 5b 2d be de 34 5e bd
       -0.09837105 -0.14891665 -0.16929509 -0.054249637
000080 a2 ad 22 3d 70 6c 82 be 5a f7 93 bd 8d 89 ce bc
       0.03971637 -0.25473356 -0.07224913 -0.025212074
000090 f9 d0 e4 bd 9f d2 01 be f0 75 a1 bd 63 7c a9 bd
       -0.11172671 -0.12678002 -0.07883823 -0.08275678
0000a0 4a d5 47 be 62 fe f5 bd 3d c2 e4 bd 1d fd 33 bd
       -0.19514957 -0.1201141 -0.111698605 -0.04394256
0000b0 bb 5b 87 be 4a 4e bc bd 31 c0 84 be eb 79 af bd
       -0.26437172 -0.0919462 -0.2592788 -0.08568176
0000c0 58 54 ca bd 60 cd 3b bd 2c ec 8b be 19 25 3c bd
       -0.098793685 -0.045850158 -0.27328622 -0.045933817
0000d0 b5 e1 f1 bd ee 3c 1c be d2 b9 08 be 31 31 00 be
       -0.11810628 -0.15257618 -0.13352135 -0.12518765
0000e0 5e e0 68 bd e6 be 8f be fd b0 e5 bd a9 91 ae bd
       -0.0568546 -0.2807533 -0.112153985 -0.08523876
0000f0 a3 5d 1e be 18 bf 32 be ea 93 7d be 9b b5 a3 bd
       -0.15465407 -0.17455709 -0.24763456 -0.07993623
000100 c2 b3 58 bb 0c f0 54 be ad 59 51 be 78 cb 29 be
       -0.0033066128 -0.20794696 -0.20444365 -0.16581523
000110 a9 66 59 be 83 d5 0a be 03 a0 84 3b 6e 6c 26 be
       -0.21230568 -0.13558011 0.004047395 -0.162523
000120 77 6c 16 be 3d a1 21 bd 56 6b 8d bd a8 f0 0e bf
       -0.14689814 -0.03946041 -0.06905238 -0.5583596
000130 58 02 37 be 31 6b 87 be 73 95 2e be 2d 9e 83 be
       -0.17871988 -0.26448968 -0.17049198 -0.25706616
000140 66 49 1a be f5 6a c3 bd e6 61 34 be 7f fd e0 bd
       -0.15067062 -0.09541885 -0.1761547 -0.109858505
000150 1a 36 ac be f3 8b 36 3c 9c 40 b4 bd 3f a1 1d be
       -0.33635026 0.011141765 -0.08801386 -0.15393542
000160 50 a5 ad bd d7 df 7d be 3c 45 d2 bd 7b f6 ff bd
       -0.084787965 -0.2479242 -0.10267112 -0.12498184
000170 61 85 c3 3d 9a 07 64 be 28 de c4 bd 8e 6a 67 be
       0.095469244 -0.22268525 -0.096126854 -0.22599241
000180 b2 72 69 be 25 62 58 be ef e2 d9 bd db 01 fc bb
       -0.22797659 -0.21131189 -0.10638987 -0.007690651
000190 3d 36 e1 bd 41 58 21 bd ab 01 16 be 87 14 a6 be
       -0.10996673 -0.039390806 -0.14649074 -0.32437536
0001a0 84 cc 5e be 93 63 02 be 37 66 66 be cf ef 4e be
       -0.21757704 -0.12733297 -0.2249993 -0.20208667
0001b0 4e 19 00 be 17 92 77 be 64 2e eb ba 4e 8f 4f be
       -0.12509653 -0.24176823 -0.0017942903 -0.2026951
0001c0 15 e2 e1 bd 5c 9d c8 bd f9 1f 28 be 57 f7 ae bd
       -0.1102945 -0.09795639 -0.16418447 -0.0854327
0001d0 18 8b f4 bd d0 bb 6d 3d 71 b0 86 bd 2e e6 ef bd
       -0.119405925 0.05804044 -0.06576622 -0.11713825
0001e0 7b d8 41 be 21 f0 d6 bd 10 7d dc bd a6 af ed bd
       -0.18930237 -0.1049502 -0.10766041 -0.11605768
0001f0 9f f8 11 be b1 f3 cb be 5c 9f 21 be 2e 90 c5 bd
       -0.14254998 -0.3983436 -0.15783447 -0.09646641

actor.6.weight f4 [12, 128]
000000 bc 75 b0 bb a5 15 9f bd 3a d2 8d 3c b6 0f 06 be
       -0.005385129 -0.077678 0.017312158 -0.13091931
000010 85 81 2a 3d 34 6a 3e bb b6 7d 2c bb 0d e1 6f bb
       0.041627426 -0.0029055001 -0.0026320047 -0.0036602647
000020 f1 0e 2b 3c 69 9c 37 3c ed 5f 9e bc 19 3f 15 3d
       0.010440574 0.011206725 -0.01933285 0.036437128
000030 1b 87 49 3c b7 5f 63 3c ad 26 d2 3b 76 37 52 bc
       0.012300278 0.013877801 0.006413302 -0.012830606
000040 20 c7 35 3d 2b ed 9e 3c cb 3b bc bc a1 8c 34 3b
       0.044379354 0.0194002 -0.02297773 0.0027549642
000050 4d 31 24 3d 62 22 66 bd d3 b7 eb bc cb 71 3d 3d
       0.04008608 -0.056185134 -0.028774178 0.0462511
000060 74 43 6d 3c da 3f 87 bb 36 25 ac bb 9c bf 25 3e
       0.014481414 -0.0041274847 -0.0052534593 0.16186374
000070 b5 90 10 3c 16 c4 8d 3c f1 f1 f2 3b aa 57 1a 3d
       0.008823563 0.017305415 0.0074140956 0.03768126
000080 17 0b d5 3c d8 0a 48 bc eb 21 2d bd 44 df c8 bb
       0.026006265 -0.012209617 -0.042268675 -0.006130131
000090 56 15 7c 3c ca 94 cb 3b 82 46 0e bc bb 7a 2f 3d
       0.015385946 0.0062128054 -0.008683803 0.042841654
0000a0 00 f9 85 3c 99 62 19 3d 64 b5 cb 3c 8f 01 ab bc
       0.016354084 0.037447546 0.024866767 -0.020874767
0000b0 95 58 d5 3c be 16 16 3c 9e 55 84 3d 0c 8e 57 3b
       0.026043216 0.009160696 0.06461643 0.0032891063
0000c0 99 69 84 3d 6b 0f 1f bb 76 42 7a bc 87 6f 14 bc
       0.06465454 -0.0024270664 -0.015274635 -0.009059793
0000d0 eb 81 d2 bb 1d b2 22 bd cf e1 66 3d f0 2c db 3c
       -0.006424179 -0.039720643 0.05636769 0.026754826
0000e0 c1 07 17 3d 89 9a 64 3c 3a b7 4c bd ec 22 1b 3c
       0.03687263 0.01395286 -0.049979426 0.009468775
0000f0 de 9b ae bc 09 4e 9b bb 27 30 f4 3b c8 e6 3b bd
       -0.021314558 -0.004739527 0.0074520293 -0.045874387
000100 60 1d ad bc 0f ab bc bc af 9a 94 bd 5a 35 8b 3c
       -0.021132171 -0.023030786 -0.07256066 0.016993213
000110 e2 ad 16 3d c3 86 7e 3d c8 d2 dc 3a 6a bd 07 bc
       0.03678692 0.062140238 0.0016847486 -0.008284906
000120 02 f8 73 3c 23 3b 24 3b 79 e9 6e bd 16 d0 4e 3e
       0.014890673 0.0025059662 -0.058328126 0.20196566
000130 d2 f3 00 3d 5e 2f 9f bc f6 f0 e2 ba 22 06 02 bd
       0.031482525 -0.019431766 -0.0017314244 -0.03174413
000140 9d af 71 3c 90 30 d7 3b d1 eb 5a bc 53 f4 90 3c
       0.014751342 0.0065670684 -0.013361887 0.017694628
000150 44 d2 08 bd 15 75 39 bc 34 c0 60 bd ec f1 f6 bb
       -0.03340365 -0.011319418 -0.0548708 -0.0075361636
000160 b5 b2 b7 ba ba 4f 78 bc a0 1a 04 bd fb a1 b3 bb
       -0.0014015051 -0.015155727 -0.032251954 -0.005481956
000170 a1 df 23 bd 20 15 a6 3c c6 72 9f 3c 50 5d f1 bc
       -0.04000819 0.020273745 0.019463908 -0.02946344
000180 a0 be 3f bd 2b 0d b8 3d e6 51 4d bd 47 08 b7 bd
       -0.046812654 0.089868866 -0.050126933 -0.08937126
000190 e4 5e 13 3c 48 4e 5a bd 94 3b d5 bc 8f a3 da 3d
       0.008994792 -0.05329731 -0.026029386 0.106757276
0001a0 30 f7 fd bc 62 5b 07 bd 2f 4a 68 bd 08 96 75 3d
       -0.031001657 -0.033046134 -0.056711372 0.059957534
0001b0 1e ef 21 3d a7 51 ca 3b a5 d4 b3 bc b7 3d b6 3c
       0.03953468 0.0061742845 -0.021951983 0.022246225
0001c0 2d e5 35 3d b5 3b 60 bc 91 b8 f4 ba 99 fd cd ba
       0.044408012 -0.01368611 -0.0018670728 -0.0015715837
0001d0 1e 07 9c 3c 69 20 92 3a 6a 0c 5d bc 6e 98 61 3c
       0.019046362 0.0011148575 -0.013491729 0.013769252
0001e0 d0 a9 8d bc f6 d8 41 bd 09 6f b6 bc cb f7 46 bc
       -0.017292887 -0.04732605 -0.022269743 -0.012144039
0001f0 83 73 85 3c 12 58 21 3e 20 10 da 3b 0e 77 1a bc
       0.016290432 0.15756252 0.0066547543 -0.009427799
000200 29 fc c2 bc 2a 7f bb 3c 82 1b 25 3d b1 08 a4 bd
       -0.02380188 0.022887785 0.040309437 -0.0800947
000210 0f 7e 76 bd 3c b9 b9 bb c3 53 a6 bb f0 a6 15 3d
       -0.060178813 -0.0056678336 -0.005075903 0.036536157
000220 5d 48 a0 bb c9 f3 d5 3c 28 39 1b bc 8e 5f 20 3d
       -0.004891439 0.026117222 -0.009474076 0.039153628
000230 a8 30 54 3c b8 cb 94 bc ac 6c 0c 3c 68 4b 9c 3b
       0.012951054 -0.018163547 0.008570831 0.0047697313
000240 94 28 a5 3b ed 19 82 bd ce a0 43 3b dc cd 07 bc
       0.0050402377 -0.06352601 0.0029850486 -0.008288827
000250 12 cd 52 bd 15 cf cd 3c ad e2 ba bb 7f 9c 76 bc
       -0.0514651 0.025123158 -0.0057032914 -0.01505196
000260 85 ba 79 3b ad e6 d5 bb 3c 5e 53 3a e2 9e 97 bd
       0.003810556 -0.006527743 0.0008063053 -0.07403351
000270 f9 9f af ba 36 d5 8b bc 19 cf 3c 3d 06 42 21 bd
       -0.0013399116 -0.01706944 0.04609594 -0.039369605
000280 d2 a0 8c 3c 28 21 fc bc 55 f2 a0 3c d4 c2 40 3d
       0.017166529 -0.030777529 0.019646803 0.047060803
000290 f2 fd 18 3d 55 ff b3 3c 1c 4d f0 bb 42 6c 2a bd
       0.037351556 0.021972338 -0.007333411 -0.04160715
0002a0 7d 74 17 3d c0 1f f5 3c 57 d2 88 bc 0b f7 d8 bd
       0.036976326 0.029922366 -0.01670186 -0.10593995
0002b0 09 f5 f2 bc 53 38 a3 bc f3 d3 fa 3d f6 72 20 3b
       -0.029657857 -0.019924318 0.12247457 0.0024482585
0002c0 2c a8 be 3c af 1c 29 3c 9d ec c9 bc f9 ef 91 bc
       0.02327355 0.01032178 -0.024648959 -0.017814623
0002d0 33 39 7c be f5 8f df 3b c1 2a 22 3d 5d 4d 18 3a
       -0.24631195 0.006822581 0.039591555 0.0005809868
0002e0 7a f7 f8 3c 89 a7 bd bc e9 30 d1 3d 9b 1f 20 bd
       0.030391444 -0.023151176 0.10214407 -0.03909264
0002f0 4f d2 ce 3c 64 e7 69 3b 4c f4 55 bd c0 1f 36 bd
       0.025246767 0.0035690898 -0.052234933 -0.044463873
000300 56 45 56 bc 1b 83 db 3c 12 21 51 bd 9b 0f 87 3c
       -0.013078054 0.026795914 -0.05105693 0.016486933
000310 e6 f0 c2 b8 4b f0 0a 3d e3 b7 ae 3c 1c 45 98 bc
       -9.295512e-05 0.033920567 0.021327918 -0.018587641
000320 a9 03 9f bc 92 ee c1 3c b2 12 30 3d ef 83 57 3d
       -0.019410925 0.02367333 0.04298658 0.052616056
000330 93 a8 91 3c 3b 5a 6e 3b 48 a4 00 3d ed dd a9 bc
       0.017780578 0.00363697 0.03140667 -0.020735705
000340 0b c7 6b 3c eb 23 d5 bc 9a 44 10 3c b6 89 82 bc
       0.014390717 -0.026018104 0.008805418 -0.015934806
000350 99 3e 81 bd f2 4a aa 3d a8 60 3a bd bb 37 39 3b
       -0.06310768 0.08315076 -0.045502335 0.0028261978
000360 77 2a 0b bd 43 9b 70 3c 36 e6 ea 3d 30 c9 34 3d
       -0.033976045 0.014685455 0.114696905 0.04413718
000370 21 de e7 bc 5c bc cb 3c 8f be a9 ba 26 29 61 3a
       -0.028304162 0.02487009 -0.0012950468 0.00085892004
000380 5b e5 71 3c 58 78 48 bd ef 35 68 3d fe 8e c4 3c
       0.014764155 -0.048942894 0.05669206 0.023993965
000390 72 6d bc bc 63 f8 8d 3b 0b f7 1d bb 9f 1c 13 bd
       -0.023001406 0.0043325885 -0.0024103548 -0.035915967
0003a0 f2 69 e4 3a 0b 69 8a bd b6 40 06 bd fb 87 5c 3b
       0.0017426594 -0.067583166 -0.032776557 0.0033650387
0003b0 aa 03 84 bc 4c 73 cd 3c ce 2b 7c 3c cc 4f ff 3a
       -0.016115028 0.025079392 0.015391303 0.0019478737
0003c0 e1 b9 bc bc 56 61 52 bc ab ef 92 bb 77 5d 1b 3d
       -0.023037853 -0.0128405895 -0.004484137 0.037930932
0003d0 17 c8 43 bb 27 a1 37 3d 06 99 5e bd 5a 6c 0a bd
       -0.0029873902 0.04483142 -0.054345153 -0.03379474
0003e0 81 40 42 3d 4c e4 12 3c 0b f1 e2 ba 47 42 0d 3c
       0.047424797 0.008965563 -0.0017314268 0.008621759
0003f0 64 fd f2 3c df 9e 22 3d 0f 1b 1c 3d f8 f4 66 bc
       0.029661842 0.039702293 0.038111743 -0.014096491

actor.6.bias f4 [12]
000000 62 25 0a 3d 00 35 79 3d b6 be 20 3e 22 56 da bc
       0.033727057 0.06084156 0.1569775 -0.0266524
000010 3f 94 31 3d d3 10 3d 3e a5 74 2b bd 8b d0 03 3c
       0.04335427 0.18463449 -0.041859288 0.008045326
000020 b2 66 54 3e eb 20 2e bd 26 11 bc bb d2 e6 73 3e
       0.207423 -0.04251186 -0.005739349 0.2381852
