mujoco_test/model/blind_locomotion/actor/actor_oracle.pth (torch, 826108 bytes, 8 tensors)

actor.0.weight f4 [512, 77]
-0.28194028 0.21170756 -0.46726814 -0.25573334 0.16256087 0.10577897 -0.020135654 -0.06439344
0.5477491 0.22522119 -0.086171456 -0.55961025 0.1820716 -0.3698841 0.6773718 0.0034893965
0.32615495 0.595364 0.25318334 0.10955019 -0.0057745446 -0.15055315 0.1649959 0.20836073
-0.31059757 0.11161522 0.2103001 0.038777806 -0.20173343 0.16220549 -0.06886032 -0.09897241
-0.34289122 0.00086743623 -0.03636473 0.0062721083 0.043801993 0.010989829 -0.10097482 -0.045219097
-0.01743632 -0.0114818495 -0.008246314 0.042918902 -0.005446625 0.1564962 -0.056832846 0.12923557
0.34404302 -0.03439121 -0.06069576 -0.12820843 -0.041975252 -0.23255324 -0.08650558 -0.18613863
0.2592914 0.1041483 -0.23300247 0.11312424 -0.09683164 -0.025467053 -0.03513891 0.4225954
-0.024957705 0.024780948 0.14303067 0.028937703 -0.046840683 0.08202347 0.11202419 -0.20638308
0.05201778 0.05172595 0.09156839 0.13215977 0.12801118 -0.044836596 -0.22841403 0.124309056
-0.37745056 -0.060310192 -0.12681271 0.002775997 0.06825418 -0.7017732 -0.09592434 0.02800376
0.08763477 -0.30128106 -0.19856441 0.5670884 0.31768358 -0.020336812 -0.35224748 -0.32314155
0.48711675 -0.23397294 0.6696039 0.11406019 -0.016781516 -0.37517363 -0.2744954 -0.045600716
0.08475226 -0.09665333 -0.027114248 0.4711106 -0.20654614 -0.29202348 0.053768456 0.017005252
-0.03655439 0.034528118 0.049262542 -0.05820467 -0.00895324 0.010506703 0.016463622 0.022840705
-0.0835956 0.0119050015 -0.17120394 0.18016197 0.16748531 0.30102473 0.27584404 -0.06419892
0.09617635 -0.1238675 -0.08740271 -0.047497563 0.19933295 -0.086204246 -0.23653463 -0.011206508
-0.28566697 -0.017159525 0.03572586 0.2523051 -0.0043259766 0.06441689 -0.049997713 0.21779287
-0.19782132 0.05516713 0.04900929 -0.14856313 0.14214952 0.052101694 -0.07445371 -0.10456598
0.1437898 0.20489003 -0.19516927 0.06617964 0.7555962 -0.32715732 -0.36309257 0.071215406
-0.05341362 -0.007535951 -0.091065854 -0.17350301 -0.35189733 0.56603223 0.3068763 -0.016655581
0.36483267 -0.5350064 -0.2639353 0.14014338 0.8987555 0.29941562 -0.24596249 -0.1954049
-0.37965348 0.32652816 0.22732802 -0.26050967 -0.012106915 -0.0070847296 0.08016657 -0.014220484
-0.7101678 0.1955741 -0.24022768 0.04756181 -0.016112782 -0.0059021055 -0.055473655 -0.06048086
0.044209074 -0.024871437 0.0084320735 0.051695183 -0.038487945 -0.09109651 0.051098473 0.16113956
0.16090459 -0.14254448 0.013326635 -0.07780035 -0.13642845 -0.05505333 -0.0024323026 0.10870697
-0.22927445 0.24058016 0.09489408 -0.05677433 0.15526211 0.07652728 0.105686896 -0.08765029
-0.28776535 0.042229995 0.016057884 -0.28599477 -0.14345264 -0.11581294 -0.026882999 0.06596577
0.15147144 0.14753 0.14634974 -0.17321438 0.0023641796 0.11328391 0.043859474 0.22123513
0.47062093 0.0626138 0.113547415 -0.18991672 0.014294963 -0.107295565 0.020122584 -1.106923
-0.17958178 0.06358082 0.11385204 0.21997784 -0.3293357 0.40163106 0.37804726 0.25768986
0.10820621 -0.5863964 -0.23291211 0.39063823 0.69653946 0.11798797 -0.24204366 0.075179085
00000000: 7a5a 90be dec9 583e c53d efbe 7bef 82be
00000010: 5b76 263e a5a2 d83d 87f3 a4bc b5e0 83bd
00000020: 4939 0c3f 62a0 663e a97a b0bd 9e42 0fbf
00000030: fa70 3a3e 7361 bdbe 3d68 2d3f 5cae 643b
00000040: c8fd a63e c669 183f 3fa1 813e da5b e03d
00000050: 6438 bdbb 9b2a 1abe aff4 283e 845c 553e
00000060: a506 9fbe 8596 e43d e958 573e 7ad5 1e3d
00000070: 3593 4ebe 3219 263e a406 8dbd 0cb2 cabd
00000080: 708f afbe a964 633a 2ff3 14bd 4286 cd3b
00000090: b869 333d af0e 343c e3cb cebd a937 39bd
000000a0: 9dd6 8ebc 5e1e 3cbc 8c1b 07bc bbcb 2f3d
000000b0: 9a79 b2bb 8a40 203e 8fc9 68bd 5456 043e
000000c0: 6826 b03e ccdd 0cbd 1e9c 78bd 1249 03be
000000d0: 3eee 2bbd 7022 6ebe d629 b1bd 209b 3ebe
000000e0: d8c1 843e b44b d53d 3398 6ebe aead e73d
000000f0: ab4f c6bd 48a0 d0bc d1ed 0fbd 6d5e d83e
00000100: 1a74 ccbc 6a01 cb3c a276 123e c30e ed3c
00000110: 04dc 3fbd ecfb a73d f06c e53d 1656 53be
00000120: 9810 553d 97de 533d 3588 bb3d e454 073e
00000130: 5d15 033e 94a6 37bd 5ee5 69be bf95 fe3d
00000140: 3341 c1be d207 77bd 31db 01be 80ed 353b
00000150: d9c8 8b3d 69a7 33bf fb73 c4bd 2468 e53c
00000160: dc79 b33d 8341 9abe 7854 4bbe b52c 113f
00000170: 6ca7 a23e 6399 a6bc c859 b4be cf72 a5be
00000180: 5e67 f93e 9a96 6fbe 296b 2b3f 6498 e93d
00000190: 6479 89bc c216 c0be a98a 8cbe d1c7 3abd
000001a0: 9892 ad3d 2ef2 c5bd b31e debc 6935 f13e
000001b0: d580 53be 1a84 95be 503c 5c3d 994e 8b3c
000001c0: 0eba 15bd 5b6d 0d3d 85c7 493d 0568 6ebd
000001d0: 9cb0 12bc 4e24 2c3c b8de 863c 6e1c bb3c
000001e0: 2c34 abbd 320d 433c 1650 2fbe 617c 383e
000001f0: 4581 2b3e ea1f 9a3e 6e3b 8d3e b97a 83bd
00000200: 1bf8 c43d 3eae fdbd 3100 b3bd ce8c 42bd
00000210: f01d 4c3e da8b b0bd 2236 72be 809b 37bc
00000220: f142 92be 2292 8cbc 4855 123d 222e 813e
00000230: ecc0 8dbb 01ed 833d 67ca 4cbd 1805 5f3e
00000240: ac91 4abe eef6 613d f7bd 483d ef20 18be
00000250: a58f 113e 9668 553d 307b 98bd b026 d6bd
00000260: a23d 133e b1ce 513e 74da 47be 3189 873d
00000270: c16e 413f 2a81 a7be 45e7 b9be 62d9 913d
00000280: 3dc8 5abd 24f0 f6bb bc80 babd c6aa 31be
00000290: e32b b4be 7de7 103f e41e 9d3e 4971 88bc
000002a0: 59cb ba3e 2ef6 08bf 8722 87be bf81 0f3e
000002b0: d714 663f 014d 993e 97dd 7bbe 3918 48be
000002c0: f161 c2be b32e a73e adc8 683e 8661 85be
000002d0: 155c 46bc 0527 e8bb 5f2e a43d 08fd 68bc
000002e0: 8fcd 35bf 9444 483e 3ffe 75be 2cd0 423d
000002f0: f4fe 83bc 7366 c1bb 5838 63bd c7ba 77bd
00000300: 9314 353d 2fbf cbbc ae26 0a3c 54be 533d
00000310: 89a5 1dbd cf90 babd a24c 513d c501 253e
00000320: 2cc4 243e 2ef7 11be f557 5a3c ca55 9fbd
00000330: e6b3 0bbe 9a7f 61bd 4467 1fbb c3a1 de3d
00000340: ecc6 6abe a55a 763e d457 c23d 338c 68bd
00000350: 08fd 1e3e 56ba 9c3d 5f72 d83d ff81 b3bd
00000360: fb55 93be 5cf9 2c3d d38b 833c e86d 92be
00000370: 40e5 12be 562f edbd bc39 dcbc 1019 873d
00000380: 541b 1b3e 1b12 173e b5dc 153e 1c5f 31be
00000390: 5af0 1a3b 6501 e83d fea5 333d 768b 623e
000003a0: 3af5 f03e aa3b 803d 8c8b e83d 8779 42be
000003b0: 6c35 6a3c c7bd dbbd 1ed8 a43c a7af 8dbf
000003c0: 49e4 37be a936 823d 422b e93d df41 613e
000003d0: b09e a8be 96a2 cd3e 698f c13e edef 833e
000003e0: 389b dd3d 131e 16bf 8380 6ebe bc01 c83e
000003f0: 6950 323f ada3 f13d 4bda 77be 7ef7 993d

actor.0.bias f4 [512]
0.06409895 0.07960275 -0.21105693 0.15833473 -0.14179687 0.033995427 -0.101201445 -0.1843668
-0.32393625 -0.14610514 -0.06926194 0.19042937 -0.019325789 -0.111925185 -0.05886444 -0.008464396
0.014007306 0.09374592 -0.024372363 0.102041274 -0.15807709 0.3248366 -0.29945216 -0.019474482
-0.045094106 0.09346929 -0.124063656 0.037718687 0.05703158 -0.16794363 -0.17586093 -0.17948875
-0.09218301 0.20467924 -0.12883808 -0.46979 -0.1306413 -0.31982404 -0.27602333 0.2552466
-0.09192255 -0.056457322 -0.21840517 -0.0093055265 -0.157676 -0.1225559 -0.18920124 0.114803396
-0.01654265 -0.14867371 -0.07920114 0.049629115 -0.2815144 -0.1555379 0.01626268 -0.038118646
0.12836029 -0.22596228 -0.18547176 -0.3183027 0.10737981 -0.2546405 0.02192363 0.136147
-0.07233861 0.124515146 0.16128455 -0.25614136 0.089741126 0.12865447 -0.19073036 -0.061930463
-0.24432112 -0.21441072 -0.05702909 -0.22164024 -0.07075868 -0.28246182 0.05633974 -0.024853656
-0.10026175 -0.13878451 -0.06536946 -0.17072591 -0.053658053 -0.09632055 -0.2549399 -0.2278845
-0.10750046 0.07539366 -0.17644612 0.037181564 -0.010863904 -0.23918632 -0.068382196 -0.19593096
-0.010998019 -0.39938584 0.09776227 -0.2624363 -0.052006304 0.07800093 -0.009703778 -0.09288924
-0.20375712 -0.19563134 0.09661898 -0.03770911 -0.051212486 -0.21370268 -0.13311027 0.077159055
-0.017246848 -0.1485712 -0.030065935 -0.25474298 0.07404828 -0.09271497 0.1303398 -0.19441682
-0.2761768 0.13192037 -0.2017988 -0.07747899 -0.08689685 -0.17686267 0.14650312 -0.105330475
-0.26351848 -0.07727562 -0.18956293 0.020552736 -0.20033218 -0.12029485 0.01736482 -0.013509875
-0.013797764 -0.2257105 -0.13504557 -0.16372086 0.16379507 -0.0008595181 0.010774993 0.13550368
0.037114244 0.07317484 0.09734548 -0.054092962 -0.20652036 0.014912119 0.074684426 0.040332273
-0.12824538 0.06261498 0.007470014 -0.09401928 -0.027740087 0.04731094 -0.09203896 -0.0802949
-0.13418654 -0.16477773 0.242774 0.08157631 0.11351101 -0.012034208 0.013933002 0.028013237
0.004840327 -0.02250641 -0.038214628 -0.065673955 -0.16843502 0.10778396 -0.014706714 0.069242895
-0.12009716 0.054848474 0.028022317 0.015412358 0.1420177 -0.017058348 -0.08943872 -0.26453623
-0.095957346 -0.11892226 0.02902023 -0.16847873 0.25281277 0.0021827528 0.04177324 -0.0066726822
0.029150678 0.017578846 -0.03103841 -0.19182718 -0.022972504 0.116128206 -0.08826943 0.070388645
-0.07438742 -0.39966094 -0.13920538 0.109884895 -0.30046913 -0.1705109 0.123649485 -0.074328296
-0.20097192 -0.10482889 -0.19823225 -0.16630207 -0.17864357 0.022751944 0.038505152 0.06010695
-0.248405 -0.017547226 0.15974505 -0.14725205 0.20272918 -0.11368262 -0.0813649 -0.2624193
-0.11260979 0.022700204 0.015881574 -0.0983969 -0.08477556 0.21662025 -0.14420344 0.007650369
-0.07571453 0.004256958 0.19109893 -0.0076729674 -0.24116017 -0.06175001 -0.2781746 -0.2296912
-0.15631385 0.014912713 -0.3354382 0.13838638 0.14193447 0.2346506 0.08453255 0.14514078
-0.055770233 -0.3051082 -0.09847298 -0.10771476 -0.061731823 0.11145906 0.23363334 -0.06511697
00000000: 4f46 833d c406 a33d 4f1f 58be 8022 223e
00000010: 3333 11be ca3e 0b3d b442 cfbd a7ca 3cbe
00000020: f9da a5be 969c 15be 34d9 8dbd ebff 423e
00000030: 1e51 9ebc 0839 e5bd d71b 71bd 40ae 0abc
00000040: e67e 653c dcfd bf3d 8da8 c7bc 04fb d03d
00000050: f6de 21be fc50 a63e cb51 99be f388 9fbc
00000060: 99b4 38bd d46c bf3d 1615 febd e97e 1a3d
00000070: f299 693d 6af9 2bbe e314 34be e6cb 37be
00000080: 72ca bcbd 6f97 513e 21ee 03be 5188 f0be
00000090: d5c6 05be fabf a3be ee52 8dbe afaf 823e
000000a0: e441 bcbd cb3f 67bd 9ba5 5fbe 3576 18bc
000000b0: d175 21be 96fe fabd f8bd 41be 0b1e eb3d
000000c0: 7484 87bc ec3d 18be 3534 a2bd e647 4b3d
000000d0: a822 90be 5445 1fbe 5039 853c 4c22 1cbd
000000e0: e170 033e a862 67be 4fec 3dbe 92f8 a2be
000000f0: f2e9 db3d 3d60 82be 2f99 b33c 1f6a 0b3e
00000100: 4426 94bd cc01 ff3d c727 253e f624 83be
00000110: 32ca b73d ffbd 033e d24e 43be ccaa 7dbd
00000120: 512f 7abe 7c8e 5bbe 5697 69bd a9f5 62be
00000130: ede9 90bd d69e 90be 80c4 663d e599 cbbc
00000140: 0856 cdbd 871d 0ebe 6ce0 85bd c6d2 2ebe
00000150: 8cc8 5bbd b543 c5bd 7c87 82be 8e5a 69be
00000160: 3429 dcbd fe67 9a3d 4bae 34be b24b 183d
00000170: 84fe 31bc 42ed 74be f70b 8cbd 20a2 48be
00000180: 0931 34bc 4d7c ccbe 9637 c83d 0d5e 86be
00000190: 9004 55bd f4be 9f3d 98fc 1ebc b73c bebd
000001a0: b5a5 50be 9553 48be 2ce0 c53d de74 1abd
000001b0: 2fc4 51bd e0d4 5abe 0f4e 08be 9105 9e3d
000001c0: 4349 8dbc 0c23 18be d64c f6bc ac6d 82be
000001d0: a0a6 973d 59e1 bdbd cc77 053e 3415 47be
000001e0: 0c67 8dbe 2216 073e 58a4 4ebe 4ead 9ebd
000001f0: faf6 b1bd 7d1b 35be ea04 163e 81b7 d7bd
00000200: e5eb 86be ae42 9ebd c91c 42be 365e a83c
00000210: e123 4dbe 255d f6bd ab40 8e3c 8658 5dbc
00000220: 0410 62bc a720 67be 6349 0abe 71a6 27be
00000230: e5b9 273e 4951 61ba 9989 303c 7ac1 0a3e
00000240: 1b05 183d b1dc 953d 115d c73d 9590 5dbd
00000250: 137a 53be f651 743c 26f4 983d 7433 253d
00000260: c252 03be 483c 803d 05c7 f43b 2e8d c0bd
00000270: 2e3f e3bc 1ec9 413d ec7e bcbd a771 a4bd
00000280: 3268 09be 7ebb 28be bf99 783e 7b11 a73d
00000290: 7678 e83d 202b 45bc 3f47 643c 047c e53c
000002a0: 9b9b 9e3b 5d5f b8bc f186 1cbd 1180 86bd
000002b0: 3b7a 2cbe d6bd dc3d 6ef4 70bc 38cf 8d3d
000002c0: 80f5 f5bd cba8 603d 0f8f e53c 1d84 7c3c
000002d0: 176d 113e f3bd 8bbc a62b b7bd 4b71 87be
000002e0: 4985 c4bd 848d f3bd d5bb ed3c b085 2cbe
000002f0: ad70 813e 840c 0f3b 6b1a 2b3d 84a6 dabb
00000300: 67cd ee3c 8301 903c 4344 febc 586e 44be
00000310: d530 bcbc a0d4 ed3d 9ac6 b4bd ec27 903d
00000320: 6f58 98bd 5ca0 ccbe db8b 0ebe 550b e13d
00000330: 17d7 99be 699a 2ebe f13b fd3d 6f39 98bd
00000340: 95cb 4dbe 87b0 d6bd 65fd 4abe 174b 2abe
00000350: 57ee 36be 4962 ba3c 94b7 1d3d b532 763d
00000360: e15d 7ebe 33bf 8fbc 3594 233e 3ec9 16be
00000370: 3d98 4f3e 6fd2 e8bd a4a2 a6bd d35b 86be
00000380: f69f e6bd c7f5 b93c 131a 823c 5084 c9bd
00000390: cf9e adbd b3d1 5d3e 11aa 13be f2af fa3b
000003a0: 3810 9bbd f47d 8b3b 70af 433e 846d fbbb
000003b0: b1f2 76be 94ed 7cbd e76c 8ebe 2c34 6bbe
000003c0: bd10 20be 7454 743c 8ebe abbe 29b5 0d3e
000003d0: 4557 113e 3f48 703e 671f ad3d c99f 143e
000003e0: 546f 64bd 2437 9cbe 34ac c9bd 8e99 dcbd
000003f0: 82da 7cbd a644 e43d 943d 6f3e 0c5c 85bd

actor.2.weight f4 [256, 512]
-0.0014182635 -0.219747 0.16224411 0.054705285 0.12771732 -0.01875707 0.059255026 -0.061125737
0.09053875 0.053803325 0.36368442 -0.11979594 -0.3974813 -0.0073944028 -0.39563867 -0.041147154
0.006236932 -0.041963313 0.13480131 -0.18715157 0.17616771 -0.3324792 0.3921001 0.25796655
-0.112007566 -0.3740729 0.24973378 -0.20655353 -0.24788941 -0.17035623 0.017566085 -0.11853273
0.03364273 -0.2595923 0.29110602 -0.022005018 0.45933956 0.38035467 0.10237773 -0.55837554
-0.29136813 0.0035131525 0.2149565 -0.4374245 0.1560722 0.26516616 -0.0670361 -0.3448228
-0.11584478 0.18183303 0.18207149 -0.29724067 0.19664185 -0.11569389 0.29657754 -0.3948983
-0.10827777 0.29730138 -0.071692325 0.051022846 -0.3844846 0.2899313 0.08304676 0.10458824
-0.14916505 -0.23965485 -0.18898587 0.15883891 0.006119722 -0.5045479 0.32287166 -0.2647709
0.032259196 0.054468457 0.05325311 0.35055724 -0.3462408 0.090860724 0.00021164096 -0.09401539
-0.042356346 0.15253077 0.12669903 0.14000557 -0.16158228 0.15535921 0.20535606 0.045271166
0.038213324 -0.096306816 0.123891 -0.08358083 0.1294777 -0.15226237 -0.1257648 0.27286342
0.062417928 0.41912624 0.011042868 0.1234231 -0.1369019 -0.020332018 0.039414227 -0.16095673
0.23089617 0.23878127 -0.049301237 0.16224179 0.2911399 -0.12584268 0.13457352 0.029847473
-0.044344906 0.01565353 -0.096910775 0.08821695 -0.028484086 0.28776532 -0.17282784 0.1586487
0.09633812 -0.510298 0.24765095 -0.048184596 0.051777165 -0.08679101 -0.09268655 -0.26948252
-0.10971297 -0.096119575 0.15335473 -0.0936444 0.16251057 -0.23389016 0.0954158 0.36202514
-0.20783943 0.17190368 -0.112967804 -0.17821923 -0.08452476 0.27224278 -0.19041236 -0.13343067
-0.066363685 -0.21540044 -0.3303876 -0.12920028 -0.2619373 -0.29503837 -0.22456294 0.049150072
0.24440674 0.29203224 0.19507915 0.111910574 0.043061443 -0.016491028 0.2201281 0.18689618
-0.019396927 0.13056412 -0.3358804 0.044600774 -0.09059983 -0.27378407 -0.097327664 0.23575172
0.014041086 0.27678096 0.08586379 -0.3191959 0.33296797 -0.3909589 -0.14989744 0.18543348
0.03968693 0.09573132 -0.3246639 -0.3603498 -0.37513453 -0.019695502 0.39126605 0.07334274
-0.15628332 -0.25300157 0.025660498 0.13496311 -0.15350217 0.19686916 -0.052557465 0.014690828
0.023711508 0.20486045 -0.15425053 -0.06804849 -0.18411896 0.058513645 -0.17473306 -0.3830507
-0.3019075 0.17264381 0.17477193 -0.022754466 0.16741544 0.04786659 -0.44890392 0.04619748
-0.15956104 -0.0020442386 0.118107066 0.22766659 0.1206351 -0.0019396358 0.17025307 0.25123218
0.28258917 0.22123632 0.029414631 0.08124801 -0.5724845 0.32025465 -0.2514326 0.0879686
-0.019217785 -0.07807152 -0.021896422 0.047701567 -0.16185462 -0.13823202 0.021849144 -0.11518198
0.27910823 -0.19236208 -0.29644513 -0.16603623 0.06916411 0.0013574536 0.19460057 0.11296771
0.011271406 -0.026367089 0.30999944 -0.006993548 -0.118788145 -0.38102102 -0.0982415 -0.44853723
0.24521302 0.21953037 0.26902795 0.045203704 0.030728983 0.19883938 -0.12018205 -0.07828188
00000000: 07e5 b9ba 5c05 61be 5223 263e a612 603d
00000010: 54c8 023e 6da8 99bc 66b5 723d fb5e 7abd
00000020: 616c b93d e060 5c3d d834 ba3e 9357 f5bd
00000030: ab82 cbbe bf4c f2bb 2791 cabe eb89 28bd
00000040: 2d5f cc3b b9e1 2bbd 5b09 0a3e a9a4 3fbe
00000050: 4f65 343e b73a aabe 58c1 c83e 3114 843e
00000060: 3964 e5bd 7c86 bfbe 36ba 7f3e c582 53be
00000070: b9d6 7dbe dd71 2ebe c0e6 8f3c 4ac1 f2bd
00000080: f6cc 093d 48e9 84be d90b 953e de43 b4bc
00000090: 8e2e eb3e d9bd c23e 6aab d13d b3f1 0ebf
000000a0: 342e 95be eb3c 663b 8f1d 5c3e 1bf6 dfbe
000000b0: 64d1 1f3e dcc3 873e 394a 89bd 9d8c b0be
000000c0: 0740 edbd 7032 3a3e f370 3a3e ee2f 98be
000000d0: 7b5c 493e ebf0 ecbd 03d9 973e 1c30 cabe
000000e0: bcc0 ddbd e337 983e 6dd3 92bd 55fd 503d
000000f0: 2adb c4be e071 943e 6b14 aa3d 5c32 d63d
00000100: b9be 18be 1568 75be 8385 41be aba6 223e
00000110: f387 c83b 0d2a 01bf 6f4f a53e 0d90 87be
00000120: 3822 043d 511a 5f3d ef1f 5a3d 3d7c b33e
00000130: 7946 b1be 3015 ba3d f0eb 5d39 248b c0bd
00000140: d97d 2dbd 0731 1c3e 64bd 013e 9f5d 0f3e
00000150: d375 25be 7c16 1f3e dc48 523e 426e 393d
00000160: 9385 1c3d 823c c5bd 91ba fd3d 6d2c abbd
00000170: cd95 043e abea 1bbe 7dc8 00be c1b4 8b3e
00000180: f1a9 7f3d b797 d63e 25ed 343c 40c5 fc3d
00000190: 0330 0cbe 558f a6bc d070 213d d7d1 24be
000001a0: 0c70 6c3e 1483 743e 18f0 49bd b622 263e
000001b0: 4a10 953e e7dc 00be a4cd 093e b082 f43c
000001c0: 01a3 35bd d53b 803c 2879 c6bd 17ab b43d
000001d0: 7557 e9bc fa55 933e c8f9 30be ce74 223e
000001e0: ec4c c53d e4a2 02bf 3698 7d3e 365d 45bd
000001f0: 4b14 543d 7cbf b1bd 72d2 bdbd 9df9 89be
00000200: 32b1 e0bd 57da c4bd 0609 1d3e a3c8 bfbd
00000210: 2c69 263e e780 6fbe 5c69 c33d 5c5b b93e
00000220: dcd3 54be 8507 303e aa5b e7bd 1a7f 36be
00000230: 511b adbd 6863 8b3e 75fb 42be 0da2 08be
00000240: afe9 87bd ef91 5cbe 9028 a9be 144d 04be
00000250: a51c 86be 450f 97be d4f3 65be 9651 493d
00000260: c345 7a3e 4085 953e d4c2 473e 5f31 e53d
00000270: 3261 303d 3118 87bc 4369 613e b661 3f3e
00000280: 4ee6 9ebc 9ab2 053e 84f8 abbe 4daf 363d
00000290: 678c b9bd 6d2d 8cbe ba53 c7bd e668 713e
000002a0: 950c 663c 3cb6 8d3e 5bd9 af3d a56d a3be
000002b0: c77a aa3e c42b c8be b77e 19be 46e2 3d3e
000002c0: c38e 223d c80e c43d 593a a6be c57f b8be
000002d0: a211 c0be 7658 a1bc 0654 c83e b834 963d
000002e0: bc08 20be 6c89 81be f735 d23c c533 0a3e
000002f0: ac2f 1dbe 1298 493e 7f46 57bd ccb1 703c
00000300: a33e c23c f0c6 513e daf3 1dbe 025d 8bbd
00000310: ae89 3cbe 01ac 6f3d 39ed 32be 391f c4be
00000320: 9f93 9abe 8ac9 303e 6af7 323e 9367 babc
00000330: f46e 2b3e c20f 443d bcd6 e5be 9239 3d3d
00000340: f863 23be a2f8 05bb 1ee2 f13d 6e21 693e
00000350: 890f f73d 613b feba d256 2e3e 81a1 803e
00000360: 87af 903e c68b 623e f4f6 f03c 5b65 a63d
00000370: 588e 12bf 6bf8 a33e c6bb 80be e228 b43d
00000380: 9e6e 9dbc f6e3 9fbd 2060 b3bc b862 433d
00000390: 38bd 25be b28c 0dbe fafc b23c 88e4 ebbd
000003a0: 46e7 8e3e 91fa 44be a8c7 97be 6705 2abe
000003b0: eaa5 8d3d 96ec b13a 5f45 473e 9d5b e73d
000003c0: b4ab 383c cbff d7bc 3fb8 9e3e 222a e5bb
000003d0: 3347 f3bd 3015 c3be d732 c9bd aca6 e5be
000003e0: 1f19 7b3e 92cc 603e 08be 893e 8527 393d
000003f0: 59bb fb3c 8d9c 4b3e 0222 f6bd 4052 a0bd

actor.2.bias f4 [256]
-0.19476847 -0.1673501 -0.092608154 -0.24164857 0.040539548 -0.18622914 -0.4792422 0.052328326
-0.17066897 -0.05585766 -0.07402 -0.19067362 -0.052049365 -0.2774119 -0.46899986 -0.1995401
-0.2798756 0.008388844 -0.31447148 -0.2159613 0.017539036 0.095070295 -0.16050105 -0.16722122
0.036493532 -0.27237892 -0.11055533 -0.15296489 -0.16429527 0.027969152 0.1178477 -0.055346906
-0.1830711 -0.25995708 -0.18541652 -0.05707763 -0.113256514 0.011045982 -0.22054335 -0.3035401
-0.23187412 -0.29048163 -0.18466398 -0.01303651 -0.027401539 -0.14267227 -0.45570126 -0.049652368
-0.1389137 -0.17805435 0.04510965 -0.34009317 -0.4876061 -0.15058526 -0.017640991 -0.42463982
-0.30128196 -0.14965434 -0.23196897 -0.2450856 -0.070493124 -0.23128484 -0.27703908 -0.3721532
-0.19337733 -0.2494207 -0.23358026 -0.11874557 -0.08291543 -0.07351065 -0.22893009 -0.13481243
0.0963352 -0.3931668 -0.15612309 -0.088816255 -0.23037206 -0.19780007 -0.03059315 -0.044900704
-0.49252364 0.06299435 -0.15569827 0.016961796 -0.12064726 -0.18242754 -0.399793 -0.22521268
-0.0857675 -0.008497321 -0.13129123 -0.2716466 -0.048296772 -0.047306206 0.043606192 -0.2859667
-0.21473138 -0.46874952 -0.026794145 -0.09987016 0.037925664 0.013959361 -0.18186787 -0.26571903
-0.0606974 -0.08743125 -0.17188884 -0.34705207 -0.3818407 -0.19062813 -0.2705974 -0.27195522
-0.07990383 -0.09403247 -0.030336328 -0.008562764 -0.16291834 -0.3775363 -0.25526896 -0.14841855
-0.012812124 -0.06639684 -0.3829285 -0.2648915 -0.23388398 -0.3655331 -0.41129524 -0.19900684
-0.19996019 -0.29396185 -0.37449422 0.04035547 -0.40633988 -0.18431404 -0.10164996 -0.587319
-0.11029063 -0.24871081 -0.49202147 -0.12439233 -0.23252656 -0.114237264 -0.13286878 -0.11040931
-0.16495381 -0.26972726 -0.14847107 -0.32368132 -0.16816364 -0.346035 -0.11024979 -0.1486858
0.016503057 -0.073248215 0.055909723 -0.1211028 -0.15160573 0.11027587 0.0066177063 -0.17423211
-0.16898598 0.06460663 -0.21253867 -0.06801168 -0.1916272 -0.22769684 -0.31784973 -0.2828791
-0.31567073 -0.2887676 -0.4277098 -0.18309745 -0.09351215 -0.21379884 -0.28134108 -0.010110786
-0.11927169 -0.21344027 0.012520831 0.07888599 -0.32972616 -0.014258957 0.17637435 -0.19027275
-0.24974366 0.007171997 0.09106695 -0.13752028 -0.17655675 -0.0399574 -0.1751254 0.037422545
-0.1972669 -0.049521346 -0.20266874 0.08088644 -0.04734951 -0.056967616 -0.10516461 -0.10475938
0.022790331 0.005997553 -0.018588778 -0.2133743 -0.20457233 -0.37657765 -0.13880461 -0.01743884
-0.21582346 -0.18365365 -0.27723157 -0.42822224 -0.23496935 0.04025019 -0.38499188 -0.19717678
-0.19391449 -0.19702789 -0.16389968 -0.17430335 -0.16841649 0.003881589 -0.22118732 -0.15692297
0.045711502 -0.13625836 -0.18933368 -0.37940022 -0.21934079 -0.084610075 -0.3396788 -0.16898309
-0.3262676 -0.1843069 -0.45061335 -0.090484105 -0.098668665 0.019874934 -0.13517703 -0.24611887
-0.3163036 -0.1697386 -0.33829364 -0.34287852 0.0004188512 -0.3531509 -0.24342427 0.051628146
-0.23532301 -0.02048573 -0.05866357 -0.14537029 -0.15797722 -0.09029458 -0.21503729 -0.0030417454
00000000: 6371 47be d35d 2bbe 58a9 bdbd b972 77be
00000010: cc0c 263d dab2 3ebe 3c5f f5be 3a56 563d
00000020: d9c3 2ebe 00cb 64bd cc97 97bd f23f 43be
00000030: b731 55bd ef08 8ebe c020 f0be 3d54 4cbe
00000040: db4b 8fbe 5d71 093c 6802 a1be f624 5dbe
00000050: 06ae 8f3c 37b4 c23d 635a 24be 0a3c 2bbe
00000060: 3e7a 153d 4075 8bbe d56a e2bd d4a2 1cbe
00000070: 053d 28be 901f e53c 235a f13d 70b3 62bd
00000080: fe76 3bbe 1819 85be d4dd 3dbe 3cca 69bd
00000090: 08f3 e7bd 35fa 343c 1ed6 61be 9c69 9bbe
000000a0: 6970 6dbe 02ba 94be 8e18 3dbe 1697 55bc
000000b0: 3179 e0bc ae18 12be ad51 e9be 4860 4bbd
000000c0: 653f 0ebe e153 36be e5c4 383d b120 aebe
000000d0: 82a7 f9be 0633 1abe d783 90bc 646a d9be
000000e0: a141 9abe fd3e 19be 4689 6dbe b8f7 7abe
000000f0: b35e 90bd efd5 6cbe 11d8 8dbe dd8a bebe
00000100: b504 46be 2468 7fbe aa2f 6fbe e130 f3bd
00000110: 91cf a9bd c08c 96bd a66c 6abe 450c 0abe
00000120: 644b c53d 294d c9be bbde 1fbe 4ce5 b5bd
00000130: a7e6 6bbe 1a8c 4abe 7c9e fabc cde9 37bd
00000140: 0f2c fcbe 2f03 813d 5e6f 1fbe 77f3 8a3c
00000150: e915 f7bd 49ce 3abe abb1 ccbe 279e 66be
00000160: dfa6 afbd 5938 0bbc 3571 06be 4315 8bbe
00000170: d6d2 45bd 27c4 41bd 689c 323d 3a6a 92be
00000180: 8be2 5bbe f0ff efbe 657f dbbc ba88 ccbd
00000190: f157 1b3d ceb5 643c 923b 3abe 530c 88be
000001a0: d69d 78bd 280f b3bd a103 30be cfb0 b1be
000001b0: a080 c3be 0534 43be be8b 8abe b73d 8bbe
000001c0: 9fa4 a3bd 1894 c0bd e483 f8bc d64a 0cbc
000001d0: 11d4 26be 704c c1be 9db2 82be 08fb 17be
000001e0: f1e9 51bc 11fb 87bd 340f c4be dc9f 87be
000001f0: 487f 6fbe 2827 bbbe 4a95 d2be 73c8 4bbe
00000200: 5dc2 4cbe 2b82 96be b5bd bfbe c74b 253d
00000210: c80b d0be d2bc 3cbe db2d d0bd 8a5a 16bf
00000220: 0ee0 e1bd 0cae 7ebe 3dea fbbe 68c1 febd
00000230: 711b 6ebe 3af5 e9bd c10e 08be 471e e2bd
00000240: a7e9 28be b119 8abe cd08 18be 8fb9 a5be
00000250: 1733 2cbe 802b b1be a4ca e1bd 1741 18be
00000260: 6b31 873c 2903 96bd 9801 653d bf04 f8bd
00000270: 883e 1bbe 51d8 e13d 58d9 d83b e769 32be
00000280: a90a 2dbe 7b50 843d bda3 59be b549 8bbd
00000290: ec39 44be 5c29 69be 33bd a2be 88d5 90be
000002a0: 989f a1be 59d9 93be c7fc dabe e67d 3bbe
000002b0: 4c83 bfbd 15ee 5abe f00b 90be b6a7 25bc
000002c0: b744 f4bd 1690 5abe 2c24 4d3c fa8e a13d
000002d0: ded1 a8be 669e 69bc 7a9b 343e dcd6 42be
000002e0: cdbc 7fbe 1203 eb3b 4f81 ba3d 1ed2 0cbe
000002f0: 4bcb 34be 5faa 23bd 1354 33be 6248 193d
00000300: 5600 4abe e5d6 4abd 6588 4fbe caa7 a53d
00000310: 8ff1 41bd e056 69bd 8b60 d7bd 168c d6bd
00000320: cab2 ba3c 1f87 c43b 7e47 98bc cb7e 5abe
00000330: 697b 51be c9ce c0be cc22 0ebe e6db 8ebc
00000340: d300 5dbe b40f 3cbe 4cf1 8dbe f23f dbbe
00000350: ce9b 70be 62dd 243d a81d c5be b6e8 49be
00000360: 8591 46be aec1 49be 51d5 27be 947c 32be
00000370: 5f75 2cbe 4262 7e3b ee7e 62be 6ab0 20be
00000380: fc3b 3b3d 5087 0bbe b0e0 41be bf40 c2be
00000390: df9a 60be 0c48 adbd 61ea adbe e709 2dbe
000003a0: 8c0c a7be f3ba 3cbe cbb6 e6be bb4f b9bd
000003b0: cc12 cabd c2d0 a23c d96b 0abe 9606 7cbe
000003c0: 8cf2 a1be f5cf 2dbe d334 adbe c68d afbe
000003d0: 4299 db39 32d0 b4be 3644 79be 0978 533d
000003e0: 84f8 70be b1d1 a7bc 3649 70bd f3db 14be
000003f0: c8c4 21be 5dec b8bd bc32 5cbe 0558 47bb

actor.4.weight f4 [128, 256]
0.016004056 0.148253 -0.14462262 0.1555721 -0.1244124 -0.12076703 -0.024212917 0.1761988
-0.045614444 -0.052498985 0.047365785 0.17140903 -0.05811584 0.016558427 -0.0012343515 -0.026317623
-0.14532392 -0.15945268 0.106013194 -0.3081798 0.075898245 0.14819524 0.105127595 0.08656282
0.07365163 -0.040938716 0.14402783 -0.09129375 -0.040270235 0.16216868 -0.17990905 0.19027497
-0.19976795 -0.014817229 0.238323 0.12614308 -0.25168818 -0.24028528 0.05401646 -0.10857184
-0.18945129 0.04368196 0.22404921 -0.12736471 -0.039056342 0.058843024 0.20897886 -0.015799033
-0.013922537 -0.14957194 0.027488526 0.22781794 0.07114509 0.032543737 -0.018353907 -0.021387914
0.11917608 0.15420103 -0.021011295 -0.057549447 -0.03933226 -0.17635375 0.11638123 -0.0023961659
0.05873159 -0.16791405 0.043959983 -0.08050461 -0.36069158 -0.04713658 0.055652227 -0.11703915
0.03612031 0.25738493 -0.144517 0.045309715 0.0340112 -0.061821785 0.0027785965 0.18910573
0.06707007 -0.07541387 -0.07639554 0.07419365 -0.061177842 -0.15058243 0.07425655 -0.40833
0.013399381 -0.04659613 -0.045230128 -0.05532584 -0.14055443 -0.037298374 0.07232678 -0.14928618
0.15299901 -0.12150571 -0.21033771 0.21699524 -0.14291644 0.06895844 0.07429564 -0.047433272
-0.015886206 -0.029264085 0.014258784 0.04394294 0.05491937 -0.05777934 -0.5714864 0.21478175
-0.24556053 0.030513946 -0.07376237 0.09807346 -0.09561712 0.06359014 -0.2006679 -0.15464498
0.02682972 -0.14606614 -0.057161305 0.016807191 0.039066806 0.0005337233 0.2349017 -0.073575795
-0.22456446 0.19477265 0.17053209 -0.05763174 0.032757696 -0.22035015 -0.21507041 0.2402948
0.06403261 -0.09776769 0.21160538 -0.02070187 -0.06309249 -0.05120763 -0.2940027 -0.0999198
0.09959239 -0.05011801 -0.033667892 0.053564478 0.11983045 -0.1232014 0.05625277 -0.12951703
-0.061281957 -0.06001917 0.003248562 -0.0152006 -0.124508545 0.1801004 0.08226719 0.19674252
0.2108322 -0.06531548 -0.19870082 0.096102156 0.11650336 0.05181005 0.08369752 0.22880474
0.017240519 0.18772979 -0.14692223 0.17344116 -0.16968028 0.0042796005 -0.21603492 0.009768464
-0.3040892 0.07357965 -0.022963498 -0.1292739 0.13614777 -0.100332774 -0.08614568 0.051026903
0.19020268 -0.1689029 -0.19479066 -0.03301152 0.13247167 -0.20253153 -0.37465397 0.034023203
0.1933611 0.07087324 0.022384066 0.07079638 -0.19014604 -0.11898189 0.023183446 -0.10406815
-0.12665547 -0.08674953 -0.10599719 0.053177048 0.22584923 0.10315639 0.014426031 -0.15089102
0.072388366 0.03415206 0.06223081 0.15972143 0.039633937 -0.09084748 -0.0721425 -0.08960878
-0.09663683 -0.106268704 0.01306439 -0.3121559 0.13660103 -0.2412081 0.1816129 -0.05063325
0.13005838 -0.053987723 -0.1486639 -0.030881377 0.026927242 -0.0667525 0.0437535 -0.008719634
0.015258338 0.08159342 -0.10609517 -0.16635957 -0.03508298 -0.25502 0.020948574 0.034129664
0.13458669 -0.03187589 -0.047947563 0.23016047 -0.04244529 0.0030246342 0.020596396 0.13924271
0.23085524 0.021218214 0.20622621 0.06996359 -0.078265674 -0.07836202 0.062493335 -0.21336268
00000000: f01a 833c a2cf 173e f417 14be 4b4e 1f3e
00000010: eecb febd b454 f7bd 2b5a c6bc 756d 343e
00000020: 36d6 3abd 2d09 57bd a002 423d d985 2f3e
00000030: e00a 6ebd 8aa5 873c f7c9 a1ba 0e98 d7bc
00000040: cbcf 14be 9047 23be 721d d93d bec9 9dbe
00000050: 8a70 9b3d 7ec0 173e 234d d73d d947 b13d
00000060: aad6 963d 5baf 27bd 087c 133e 38f8 babd
00000070: 67f2 24bd 8c0f 263e 143a 38be 71d7 423e
00000080: f88f 4cbe f6c3 72bc f20a 743e a72b 013e
00000090: 46dd 80be 580d 76be 5d40 5d3d ea5a debd
000000a0: 85ff 41be dbeb 323d 286d 653e e56b 02be
000000b0: 8bf9 1fbd 6205 713d 8efe 553e f96c 81bc
000000c0: 5a1b 64bc 6329 19be 9e2f e13c 1b49 693e
000000d0: 84b4 913d 954c 053d ef5a 96bc b535 afbc
000000e0: 9712 f43d e0e6 1d3e e11f acbc f8b8 6bbd
000000f0: dd1a 21bd 1496 34be 4859 ee3d fe08 1dbb
00000100: 8990 703d a9f1 2bbe 620f 343d 9adf a4bd
00000110: 91ac b8be 4912 41bd 97f3 633d 39b2 efbd
00000120: e4f2 133d f5c7 833e 44fc 13be ae96 393d
00000130: 544f 0b3d d738 7dbd 1d19 363b efa4 413e
00000140: 085c 893d 9672 9abd 4475 9cbd d7f2 973d
00000150: 9e95 7abd 4832 1abe d113 983d a110 d1be
00000160: 1489 5b3c 95db 3ebd 3a43 39bd 599d 62bd
00000170: 80ed 0fbe 2ec6 18bd 1020 943d 7ade 18be
00000180: c6ab 1c3e fcd7 f8bd c562 57be 0034 5e3e
00000190: b058 12be 153a 8d3d 5028 983d 6449 42bd
000001a0: ca23 82bc 3cbb efbc ad9d 693c 83fd 333d
000001b0: 22f3 603d 07aa 6cbd ef4c 12bf bfef 5b3e
000001c0: 3874 7bbe 62f8 f93c ba10 97bd bdda c83d
000001d0: e9d2 c3bd 8c3b 823d e37b 4dbe 415b 1ebe
000001e0: 00ca db3c 5d92 15be f921 6abd 3caf 893c
000001f0: 8404 203d 90e9 0b3a 128a 703e e8ae 96bd
00000200: 3af4 65be 7b72 473e f79f 2e3e 420f 6cbd
00000210: ef2c 063d 78a3 61be 6b3b 5cbe d70f 763e
00000220: 8723 833d 6d3a c8bd 15af 583e f896 a9bc
00000230: a336 81bd 18bf 51bd 8687 96be c1a2 ccbd
00000240: 18f7 cb3d 8b48 4dbd 58e7 09bd 6d66 5b3d
00000250: ab69 f53d 0451 fcbd 4e69 663d 1da0 04be
00000260: ca02 7bbd a9d6 75bd d4e5 543b f00b 79bc
00000270: 56fe febd 3d6c 383e b37b a83d df76 493e
00000280: 65e4 573e 1fc4 85bd 3a78 4bbe 35d1 c43d
00000290: 5099 ee3d c636 543d 9b69 ab3d ca4b 6a3e
000002a0: fd3b 8d3c 3d3c 403e c872 16be 8f9a 313e
000002b0: abc0 2dbe e43b 8c3b 4238 5dbe e80b 203c
000002c0: 94b1 9bbe edb0 963d f21d bcbc 6160 04be
000002d0: 526a 0b3e 457b cdbd 256d b0bd 9601 513d
000002e0: 7ec4 423e e2f4 2cbe 3477 47be 1637 07bd
000002f0: a7a6 073e 6d64 4fbe a5d2 bfbe ea5b 0b3d
00000300: 7400 463e fd25 913d ca5e b73c b1fd 903d
00000310: a5b5 42be c7ac f3bd 36eb bd3c af21 d5bd
00000320: f9b1 01be bda9 b1bd 0e15 d9bd 2dd0 593d
00000330: 0545 673e a843 d33d 295b 6c3c 2d83 1abe
00000340: 5a40 943d 08e3 0b3d bce5 7e3d 048e 233e
00000350: 3257 223d 3e0e babd 72bf 93bd cf84 b7bd
00000360: 88e9 c5bd 68a3 d9bd 060c 563c e6d2 9fbe
00000370: 24e1 0b3e 42ff 76be bbf8 393e d064 4fbd
00000380: 062e 053e 3b22 5dbd 593b 18be f1fa fcbc
00000390: 8596 dc3c 89b5 88bd df36 333d ccdc 0ebc
000003a0: 1cfe 793c 731a a73d 6d48 d9bd 2a5a 2abe
000003b0: 2cb3 0fbd fb91 82be 589c ab3c 8ccb 0b3d
000003c0: 18d1 093e 4b90 02bd aa64 44bd 30af 6b3e
000003d0: 1ddb 2dbd f138 463b c6b9 a83c a495 0e3e
000003e0: 5165 6c3e d2d1 ad3c f72c 533e 1249 8f3d
000003f0: c149 a0bd 447c a0bd 03f9 7f3d bf7b 5abe

actor.4.bias f4 [128]
-0.18103273 -0.16043268 -0.25960258 -0.12193535 -0.38883594 -0.21896195 -0.31616786 -0.51425254
-0.16611211 -0.36983362 -0.2209155 -0.33908796 -0.13821596 -0.31261405 0.07568097 -0.27205732
-0.08211285 -0.016429404 -0.84047884 -0.11971651 0.123108 -0.48251566 -0.058369864 -0.055453938
0.06751812 -0.16024826 -0.1996946 -0.1803384 -0.13475436 -0.102483965 -0.1302441 0.038730636
-0.109789744 -0.22347336 -0.19324361 -0.20391017 -0.18560931 -0.2751499 -0.3650065 -0.13636976
-0.22982867 0.0126438895 -0.29191536 0.1545663 -0.07431933 -0.23859547 -0.26186025 -0.17033644
-0.3674899 0.023635427 -0.5589619 -0.08618331 -0.25868282 -0.51635176 -0.4226849 -0.29443017
0.011640111 -0.119750865 -0.037683073 -0.043637868 -0.23323143 -0.13351057 -0.11672725 -0.08627112
-0.04188196 -0.3178669 -0.2688684 -0.14034243 -0.26194233 -0.24023691 -0.20075352 -0.7915947
-0.42787823 -0.005657484 0.06677817 -0.4359747 -0.44724545 -0.33335686 -0.42344144 -0.17818706
-0.045152962 -0.16312332 -0.3093174 -0.1985397 -0.06605922 -0.12357855 -0.07585986 -0.29275662
-0.043648124 -0.19972387 -0.21758832 -0.20908888 -0.15372185 -0.2899872 -0.07156775 -0.41528407
-0.10874443 -0.21886772 -0.123488866 0.002616059 -0.24997896 -0.088604145 -0.35839915 -0.07857708
-0.09459987 -0.047050685 -0.23958698 -0.26279026 -0.121755034 -0.2011478 -0.046366435 0.057771042
-0.08441917 -0.26566195 -0.22677852 -0.119872965 -0.4420562 0.027041057 -0.07044301 -0.10546022
-0.08640102 -0.1238931 -0.17151648 -0.26503998 -0.48824918 0.009513035 -0.17853703 -0.18735482
00000000: a560 39be 7748 24be a1ea 84be 3eb9 f9bd
00000010: 8115 c7be 9037 60be c1e0 a1be 0ea6 03bf
00000020: 4b19 2abe d55a bdbe ac37 62be f09c adbe
00000030: 7c88 0dbe f30e a0be a0fe 9a3d 194b 8bbe
00000040: c82a a8bd f596 86bc 9f29 57bf ee2d f5bd
00000050: 0c20 fc3d 4b0c f7be 3d15 6fbd ab23 63bd
00000060: f146 8a3d 1f18 24be be7c 4cbe a1aa 38be
00000070: 0cfd 09be 1de3 d1bd b65e 05be 04a4 1e3d
00000080: 72d9 e0bd 33d6 64be a7e1 45be d4cd 50be
00000090: 5e10 3ebe 73e0 8cbe 22e2 babe 84a4 0bbe
000000a0: 3558 6bbe 5128 4f3c ee75 95be a146 1e3e
000000b0: bc34 98bd 5f52 74be 8c12 86be ad6c 2ebe
000000c0: a327 bcbe 159f c13c 2118 0fbf e080 b0bd
000000d0: 1372 84be a12f 04bf 286a d8be 8dbf 96be
000000e0: 2ab6 3e3c f13f f5bd 9159 1abd 9fbd 32bd
000000f0: 38d4 6ebe ffb6 08be b20e efbd eaae b0bd
00000100: 6b8c 2bbd 73bf a2be 1ea9 89be edb5 0fbe
00000110: 4e1d 86be aa00 76be 5592 4dbe f3a5 4abf
00000120: db12 dbbe 6a62 b9bb fec2 883d 1338 dfbe
00000130: 5bfd e4be c0ad aabe 51cd d8be ab76 36be
00000140: 50f2 38bd cd09 27be da5e 9ebe fe4d 4bbe
00000150: 0e4a 87bd c016 fdbd 6a5c 9bbd 32e4 95be
00000160: 60c8 32bd 6a84 4cbe 79cf 5ebe 651b 56be
00000170: 4369 1dbe 3479 94be 1d92 92bd 1da0 d4be
00000180: 66b5 debd dc1e 60be bbe7 fcbd 3072 2b3b
00000190: 7cfa 7fbe 1776 b5bd 1880 b7be 05ed a0bd
000001a0: 94bd c1bd 38b8 40bd 4a56 75be 728c 86be
000001b0: b45a f9bd b0f9 4dbe bbea 3dbd 54a1 6c3d
000001c0: f5e3 acbd d804 88be a138 68be f57f f5bd
000001d0: 3155 e2be 3585 dd3c 6d44 90bd 87fb d7bd
000001e0: 05f3 b0bd aabb fdbd 04a2 2fbe 52b3 87be
000001f0: ccfb f9be 90dc 1b3c 69d2 36be f1d9 3fbe

actor.6.weight f4 [12, 128]
0.0027325877 0.024170429 0.032312404 -0.006137654 0.010009666 0.00064965634 -0.062552616 -0.0035476328
-0.00403094 0.008128014 -0.017817425 0.08267887 0.06513333 0.034175307 0.07223105 -0.006562926
0.016349006 0.00579763 0.12464846 -0.013267221 -0.060076356 0.01661541 0.01621275 -0.0019437929
-0.0011714884 0.016163781 -0.009375301 -0.00074215553 -0.0003685961 0.04273207 0.056522395 -0.027130421
0.00845654 -0.01886305 0.025483865 0.018140247 -0.0023218174 0.0019357777 -0.006931944 -0.027268058
-0.07075377 -0.035160888 0.0022988243 -0.113040484 -0.022122514 0.022285415 0.015588492 0.005798626
-0.0786785 -0.11336896 -0.019061899 -0.03701254 -0.04038936 0.026197435 0.025665347 0.013470937
-0.011708811 -0.0051685837 0.022105772 0.0065439935 0.017369509 0.0026723118 -0.009535499 0.046764772
0.032372188 0.043151643 -0.045555096 0.08825478 -0.0014717807 0.035500042 0.014666663 0.04706995
-0.05136906 0.0046980074 0.021447577 0.01610606 -0.042190053 -0.010136394 0.037501 0.004725127
0.0014424609 -0.035077877 0.015188985 -0.034168795 0.019836228 0.013307874 -0.009538862 -0.0034564566
0.015140822 0.014394926 0.039385546 0.006252922 -0.012030508 -0.018538406 0.0040093367 0.038457345
0.019072825 -0.0021336367 -0.006456204 0.018725507 -0.034394827 -0.013534958 -0.021429978 0.007049702
-0.001825019 0.018738281 0.0006434363 0.02472024 -0.027340962 0.031044133 -0.020473517 0.010259785
-0.02240219 -0.045421354 0.020771706 -0.034735583 -0.0026909024 -0.0045416136 0.031671807 -0.022110522
-0.021575559 -0.041343074 -0.033894792 0.02741307 0.15581344 -0.0628641 -0.0058399267 0.020231146
-0.00878041 0.0028407627 0.012656382 -0.06342281 0.023907028 -0.010806866 0.23877819 -0.011702831
0.029359885 -0.07280372 -0.030580448 -0.03828369 0.011889128 0.01071403 0.024568224 0.014153209
0.009169307 0.023796812 -0.002553126 -0.083988376 0.006446794 -0.012523872 -0.003788119 0.035451006
0.018972902 -0.030052455 -0.0056570335 -0.016393492 0.041556094 -0.11312458 -0.01612448 -0.0106977215
-0.0076966383 -0.0073606996 0.0013341994 0.007870375 -0.07524097 0.0019530489 0.022340462 -0.00155497
-0.024255745 0.025426319 0.042036086 -0.07536046 -0.004503903 0.04834168 0.03063538 0.006448099
-0.003611132 0.039196916 -0.0299205 -0.0058226376 0.021122964 -0.036788337 0.021624781 0.012869719
0.061485503 -0.108225845 0.019408945 0.0023481422 0.009868705 -0.03930605 -0.009632356 0.07466714
0.004831578 0.11672214 -0.008072636 -0.04498844 -0.005515589 -0.010895216 0.014989997 -0.046604585
-0.00066650234 -0.04264517 -0.03933238 -0.0026977465 -0.008403771 -0.021268578 -0.11041703 -0.0008746792
-0.007396179 0.008794868 -0.031772535 0.02155362 0.02033179 0.037466325 -0.012985628 -0.0016400026
-0.0068567675 -0.014751529 0.020832343 0.008355433 0.0062933518 0.034292124 -0.0070978636 -0.019349607
0.003822894 0.0021038393 0.021966327 -0.023381619 0.08931269 0.053929497 0.016426565 0.01394893
0.02428501 -0.094516106 0.03126481 0.025081258 0.016410993 -0.018235525 -0.032179173 0.027140694
-0.00079371803 -0.062273268 0.022273172 -0.04566246 0.019531716 -0.03160247 -0.020565122 0.0026397742
-0.008310448 -0.07425489 0.105524465 0.0045718444 0.035269234 -0.009686096 0.035911955 0.01658191
00000000: 3715 333b 1001 c63c 035a 043d 601e c9bb
00000010: 95ff 233c b34d 2a3a 961b 80bd 677f 68bb
00000020: fa15 84bb 5d2b 053c d9f5 91bc 8a53 a93d
00000030: a064 853d 68fb 0b3d dfed 933d d00d d7bb
00000040: 5aee 853c 0cfa bd3b b147 ff3d c25e 59bc
00000050: a012 76bd 0a1d 883c 9ad0 843c dec6 feba
00000060: a18c 99ba e869 843c dd9a 19bc 378d 42ba
00000070: 2240 c1b9 d307 2f3d 0784 673d 9e40 debc
00000080: 4d8d 0a3c af86 9abc 8ac3 d03c db9a 943c
00000090: a229 18bb ecb9 fd3a 5c25 e3bb 4361 dfbc
000000a0: 5ae7 90bd dd04 10bd dfa7 163b c581 e7bd
000000b0: 463a b5bc e78f b63c e066 7f3c 6702 be3b
000000c0: 3222 a1bd fc2d e8bd b327 9cbc 769a 17bd
000000d0: 506f 25bd 019c d63c 2240 d23c 34b5 5c3c
000000e0: 50d6 3fbc 395d a9bb 2a17 b53c ff6e d63b
000000f0: 804a 8e3c f421 2f3b c83a 1cbc 6b8c 3f3d
00000100: b398 043d c7bf 303d fb97 3abd ecbe b43d
00000110: c4e8 c0ba 7e68 113d 714c 703c 6bcc 403d
00000120: 5d68 52bd bef1 993b d4b2 af3c dbf0 833c
00000130: 7acf 2cbd 1e13 26bc a69a 193d 3dd5 9a3b
00000140: f510 bd3a d2ad 0fbd 38db 783c 94f4 0bbd
00000150: 967f a23c 4509 5a3c e348 1cbc b885 62bb
00000160: 3611 783c b2d8 6b3c bd52 213d 50e5 cc3b
00000170: 9c1b 45bc dbdd 97bc c160 833b 7385 1d3d
00000180: 9d3e 9c3c 7cd4 0bbb 918e d3bb 3c66 993c
00000190: 97e1 0cbd bac1 5dbc ec8d afbc 3001 e73b
000001a0: 7a35 efba 0681 993c 47ac 283a 1a82 ca3c
000001b0: 27fa dfbc 4450 fe3c 14b8 a7bc a818 283c
000001c0: cc84 b7bc be0b 3abd 6d29 aa3c e646 0ebd
000001d0: da59 30bb d1d1 94bb 4cba 013d 2021 b5bc
000001e0: 3abf b0bc 5b57 29bd 44d5 0abd 6091 e03c
000001f0: 8f8d 1f3e e5be 80bd db5c bfbb cabb a53c
00000200: b5db 0fbc 172c 3a3b b75c 4f3c d1e3 81bd
00000210: acd8 c33c 480f 31bc 4582 743e 3bbd 3fbc
00000220: 2484 f03c 1e1a 95bd d983 fabc 5ccf 1cbd
00000230: 9eca 423c e689 2f3c 4d43 c93c dce2 673c
00000240: dc3a 163c 88f1 c23c 5952 27bb 1902 acbd
00000250: a13f d33b ed30 4dbc 1742 78bb 1335 113d
00000260: 0f6d 9b3c 9130 f6bc a35e b9bb a54b 86bc
00000270: b936 2a3d dcad e7bd 7c17 84bc 7f45 2fbc
00000280: 1534 fcbb 0632 f1bb 4ee0 ae3a bff2 003c
00000290: f017 9abd 72fd ff3a 5803 b73c 23d0 cbba
000002a0: fcb3 c6bc db4a d03c 082e 2c3d 9656 9abd
000002b0: 7a95 93bb ed01 463d 0cf7 fa3c 934a d33b
000002c0: bea8 6cbb f28c 203d d61b f5bc d3cb bebb
000002d0: 110a ad3c 5eaf 16bd 7426 b13c 84db 523c
000002e0: 39d8 7b3d 83a5 ddbd 82ff 9e3c 4ae3 193b
000002f0: 59b0 213c 61ff 20bd 08d1 1dbc 16eb 983d
00000300: 3752 9e3b 040c ef3d 1743 04bc cc45 38bd
00000310: 1dbc b4bb d981 32bc 9b98 753c 73e4 3ebd
00000320: 37b8 2eba b4ac 2ebd fd1a 21bd adcc 30bb
00000330: f8af 09bc 713b aebc 5322 e2bd ba4a 65ba
00000340: a55b f2bb 5a18 103c eb23 02bd 3891 b03c
00000350: db8e a63c 4a76 193d acc1 54bc 5bf5 d6ba
00000360: bcae e0bb 66b0 71bc 97a8 aa3c 3ae5 083c
00000370: 7638 ce3b e675 0c3d 3295 e8bb 1183 9ebc
00000380: 8589 7a3b 91e0 093b baf2 b33c cf8a bfbc
00000390: 92e9 b63d 2de5 5c3d 0191 863c 0e8a 643c
000003a0: 5bf1 c63c a991 c1bd 880f 003d 3677 cd3c
000003b0: 5970 863c ab62 95bc 4fce 03bd 2956 de3c
000003c0: 8411 50ba 4112 7fbd 3a76 b63c 8f08 3bbd
000003d0: fa00 a03c 9771 01bd 3078 a8bc 1000 2d3b
000003e0: 8c28 08bc f312 98bd 361d d83d 69cf 953b
000003f0: 7976 103d 6eb2 1ebc 6a18 133d c9d6 873c

actor.6.bias f4 [12]
-0.26726758 0.013150146 0.21879195 0.3105065 -0.012240824 0.26777527 -0.26992202 0.07557326
0.12998429 0.3984243 0.060449336 0.1414427
00000000: 4cd7 88be b673 573c ff0a 603e b5fa 9e3e
00000010: bd8d 48bc d719 893e 3833 8abe 27c6 9a3d
00000020: 9a1a 053e 45fe cb3e b999 773d 5bd6 103e
