mujoco_test/model/blind_locomotion/actor/actor_baseline.pth (torch, 826132 bytes, 8 tensors)

actor.0.weight f4 [512, 77]
-0.2823162 0.04590801 0.23699424 -0.19601057 0.5218359 0.17427324 -0.08215048 -0.2771521
0.15986568 0.27819946 -0.09137978 -0.37924096 -0.2875059 -0.16918169 -0.10098817 0.071962245
0.02140171 0.14843826 -0.06701644 -0.15072493 0.02805054 0.057424903 0.4616841 -0.30926117
-0.7078506 0.34219953 -0.04927097 -0.70746243 0.09965015 0.3250158 0.050319027 0.07296191
-0.23674572 0.020801006 -0.041891016 0.01918225 -0.09647248 -0.04631666 0.05830716 0.01549034
-0.01745143 -0.0016629471 -0.042483225 0.019514117 0.02435001 -0.031710517 0.035992816 0.10323155
0.016966013 0.26878545 -0.12828907 -0.001945234 0.0655419 -0.0109247 0.014747366 0.05500783
0.054205906 0.20463072 0.033293504 0.047187958 0.08888123 0.08124489 0.06998739 0.11787465
0.20151275 -0.10582459 -0.1791272 -0.13201421 0.03780284 -0.23610537 0.13665883 0.028248278
-0.007251714 0.06488219 -0.016562851 0.0878947 0.12803005 -0.11207846 0.26629415 -0.052137606
-0.45004323 -0.09603482 -0.003516006 0.11644289 0.08230242 0.20581035 0.12494943 -0.001633693
-0.045796778 -0.23336472 -0.07840883 0.18291198 -0.002890419 0.15717079 0.21425208 -0.10846521
0.31354085 -0.4075092 0.10873336 -0.37028992 -0.098740496 -0.019688748 -0.02157959 0.21510907
-0.07079056 -0.06010544 0.050486986 -0.078162566 -0.02411669 -0.91515124 0.035897333 -0.06478511
-0.0050350213 0.10373505 0.04424178 -0.032931857 0.024644399 -0.037381362 -0.049455922 -0.0035793267
-0.01600634 0.029760048 -0.022622405 0.15709972 0.088796355 0.12874655 -0.008534076 -0.29356128
0.102627195 -0.07939407 -0.036213648 0.06270434 0.08282727 -0.12143403 -0.071100235 -0.12341693
-0.0027999927 -0.0029857468 -0.103709556 0.23520869 0.1536826 0.09148343 0.059026606 -0.031104298
-0.052890033 0.014301665 -0.13788721 -0.006760768 -0.016968934 -0.043534745 -0.05825014 -0.21089122
-0.11110254 -0.2031904 -0.22068347 0.1428401 0.90753335 0.030829532 1.075779 -0.066387564
-0.12151853 -0.035554104 0.03243024 -0.19200043 -0.022353819 0.11645439 -0.020363545 0.39694583
0.16424906 -0.63814 -0.14295287 0.09686678 0.31212947 -0.01594637 -0.13978156 0.14527056
-0.3140204 0.26149336 -0.23745078 0.16471764 -0.025045639 -0.5893399 -0.44561222 -0.13989419
-0.31705448 0.15364869 -0.17579675 -0.035783708 -0.023347674 -0.050973672 0.006329378 -0.0032550571
-0.008299374 -0.011369585 -0.003010387 -0.04773393 -0.041122574 -0.012860285 0.026638998 0.112780005
-0.04316832 0.0047409884 -0.08982174 -0.01263301 0.09092781 -0.046508495 -0.14400509 0.20847236
-0.2762731 -0.13564013 0.09583079 -0.01359885 0.017666249 -0.1345069 -0.048720084 -0.03577634
-0.014133028 -0.081752 -0.07784676 -0.14122409 -0.08220284 -0.18752208 -0.108041994 0.14221483
-0.01891596 0.22561176 -0.13569857 -0.1657767 0.20565832 0.041197952 0.27196935 0.20148543
0.11373506 0.10078358 -0.57296586 0.48444355 0.12774636 0.16394877 0.102624886 -0.80106264
0.08485377 -0.28189242 0.061089907 -0.30389416 -0.33589455 0.3297642 0.48481315 0.76484257
0.31648067 -0.5114807 0.008299254 0.21887946 0.3545273 -0.018824397 -0.15007536 -0.022617366
00000000: c08b 90be 0a0a 3c3d 9eae 723e ffb6 48be
00000010: 0a97 053f af74 323e 833e a8bd e1e6 8dbe
00000020: d4b3 233e 2970 8e3e 5225 bbbd df2b c2be
00000030: f933 93be f73d 2dbe e3d2 cebd f160 933d
00000040: a452 af3c 3300 183e ea3f 89bd a357 1abe
00000050: 3fca e53c 6036 6b3d dc61 ec3e 7b57 9ebe
00000060: b235 35bf c734 af3e 5bd0 49bd 421c 35bf
00000070: 6115 cc3d 7968 a63e 531b 4e3d 0e6d 953d
00000080: 786d 72be df66 aa3c ea95 2bbd 1824 9d3c
00000090: 5d93 c5bd 8ab6 3dbd 7dd3 6e3d 32cb 7d3c
000000a0: 4df6 8ebc 3ff7 d9ba e402 2ebd 12dc 9f3c
000000b0: ac79 c73c e3e2 01bd 346d 133d 106b d33d
000000c0: 4ffc 8a3c 3f9e 893e 365e 03be 39f7 feba
000000d0: d53a 863d 83fd 32bc f09e 713c e44f 613d
000000e0: 0307 5e3d b78a 513e c55e 083d 2948 413d
000000f0: 5d07 b63d b963 a63d 8c55 8f3d 4468 f13d
00000100: 5c59 4e3e 90ba d8bd 1f6d 37be bc2e 07be
00000110: 27d7 1a3d 9bc5 71be 4bf0 0b3e ef68 e73c
00000120: c99f edbb f4e0 843d d1ae 87bc 2302 b43d
00000130: 4f1a 033e 6489 e5bd b557 883e 3e8e 55bd
00000140: 116c e6be e7ad c4bd cb6c 66bb 9c79 ee3d
00000150: 2c8e a83d f3bf 523e 7de5 ff3d a421 d6ba
00000160: 6795 3bbd 29f7 6ebe cf94 a0bd 474d 3b3e
00000170: 2f6d 3dbb 61f1 203e e664 5b3e 0223 debd
00000180: 6d88 a03e 0ca5 d0be 99af de3d a496 bdbe
00000190: 7538 cabd 4c4a a1bc aec7 b0bc 8d45 5c3e
000001a0: a4fa 90bd 1f31 76bd 71cb 4e3d b213 a0bd
000001b0: 5d90 c5bc 5a47 6abf 1509 133d 0eae 84bd
000001c0: d2fc a4bb 0b73 d43d de36 353d 8ee3 06bd
000001d0: 0de3 c93c 331d 19bd 4b92 4abd 2393 6abb
000001e0: ba1f 83bc 58cb f33c 9f52 b9bc c0de 203e
000001f0: ddda b53d 23d6 033e 82d2 0bbc aa4d 96be
00000200: 352e d23d 5c99 a2bd c354 14bd 226b 803d
00000210: 58a1 a93d 68b2 f8bd 009d 91bd 04c2 fcbd
00000220: 1580 37bb 85ac 43bb ad65 d4bd 8cda 703e
00000230: f95e 1d3e aa5b bb3d e2c5 713d 71ce febc
00000240: 38a3 58bd 8851 6a3c 4e32 0dbe 6f89 ddbb
00000250: 6f02 8bbc 7d51 32bd b397 6ebd def3 57be
00000260: ba89 e3bd 2511 50be d9fa 61be ad44 123e
00000270: 1b54 683f 378e fc3c 20b3 893f 34f6 87bd
00000280: b5de f8bd 2ea1 11bd 92d5 043d c39b 44be
00000290: 5b1f b7bc a47f ee3d 73d1 a6bc 7c3c cb3e
000002a0: e830 283e 255d 23bf 3d62 12be 1762 c63d
000002b0: 6fcf 9f3e f6a1 82bc e622 0fbe cec1 143e
000002c0: 48c7 a0be 75e2 853e 4c26 73be beab 283e
000002d0: 832c cdbc fbde 16bf 4927 e4be 6c40 0fbe
000002e0: f754 a2be 1556 1d3e 1004 34be f091 12bd
000002f0: 9f43 bfbc c5c9 50bd ac66 cf3b cc52 55bb
00000300: 19fa 07bc 7f47 3abc ea49 45bb a784 43bd
00000310: 2570 28bd f2b3 52bc 073a da3c 34f9 e63d
00000320: 44d1 30bd 4b5a 9b3b 76f4 b7bd affa 4ebc
00000330: 5c38 ba3d b17f 3ebd 1276 13be c779 553e
00000340: ab73 8dbe 3fe5 0abe ef42 c43d b6cd 5ebc
00000350: cfb8 903c 2dbc 09be b68e 47bd 368a 12bd
00000360: 378e 67bc 986d a7bd 1f6e 9fbd 0c9d 10be
00000370: f659 a8bd ca05 40be 1f45 ddbd c4a0 113e
00000380: a5f5 9abc c506 673e 91f4 0abe 5ec1 29be
00000390: 1898 523e 2fbf 283d 913f 8b3e 3252 4e3e
000003a0: eded e83d 9f67 ce3d e4ad 12bf fc08 f83e
000003b0: f1cf 023e 30e2 273e ff2c d23d 7112 4dbf
000003c0: d0c7 ad3d 3454 90be 6939 7a3d 0498 9bbe
000003d0: 5ffa abbe dad6 a83e 6e39 f83e b9cc 433f
000003e0: c109 a23e 66f0 02bf 98f9 073c f021 603e
000003f0: 9a84 b53e 9f35 9abc 5bad 19be 0e48 b9bc

actor.0.bias f4 [512]
0.15103614 -0.14609443 -0.105612166 -0.0013330213 -0.09790309 0.076466024 -0.23605296 -0.19628294
0.08390343 0.004638526 -0.049698018 -0.12918708 -0.075133726 -0.15209821 0.20165183 -0.038528748
-0.06789271 -0.041759316 0.0064943517 -0.12914103 -0.104296006 0.3789087 -0.24939407 -0.108703844
0.0040337886 -0.07087332 -0.15484042 0.14766242 0.09238979 -0.034062 -0.35804144 -0.33384085
-0.039890338 0.16045897 0.025234396 -0.18825859 -0.119048126 -0.159612 -0.03313857 -0.077992395
-0.088072374 -0.21773195 -0.36367944 0.011596635 -0.1583657 -0.23401277 -0.16905522 0.028080383
-0.112802215 0.07884271 0.058203213 -0.092739254 -0.34258807 -0.14129993 0.11073239 -0.047128357
0.17827968 -0.1325641 -0.28737146 -0.21629016 -0.19127564 -0.081135936 -0.017676773 -0.039398298
0.04389398 0.0039149355 0.21389331 -0.2575122 0.21541628 0.11967584 -0.13128288 -0.14506453
-0.37411627 -0.36767003 0.031623136 -0.15832643 -0.1172958 -0.1785721 -0.057874806 -0.086577885
-0.12069381 -0.03948103 0.03188071 -0.06197406 -0.09131839 -0.10104767 -0.33978888 -0.36023453
-0.2102586 -0.034688253 -0.06251228 -0.02394655 0.22055255 -0.20123576 -0.23648019 -0.064182505
-0.26849464 -0.109992065 0.10853112 -0.37578422 -0.39662376 0.13284561 0.2837604 -0.17036603
-0.31304735 -0.14991917 0.1327064 0.11777809 0.17590219 -0.23502304 -0.2806571 -0.050337844
-0.22810332 -0.124277785 0.010711175 -0.2545521 -0.121484146 -0.16646643 0.0016123418 -0.09007159
-0.19679847 -0.15601976 -0.21232712 -0.02333017 -0.040850677 -0.29885295 0.10094972 -0.17684852
-0.23903522 -0.18005373 -0.152512 -0.21452923 -0.067885764 -0.20557982 0.08178167 0.20676292
-0.009367711 0.07641646 0.037575517 -0.17740701 0.073367685 0.17527859 -0.2628508 -0.15990494
-0.003781866 0.04075003 -0.16673584 -0.24846135 -0.29580244 0.1795516 -0.05178506 -0.029249553
-0.1954539 0.2057811 0.21261327 -0.115770645 -0.139465 -0.11271694 -0.2656296 0.027918398
-0.12143209 0.079778284 0.022738064 0.07956505 0.10599244 -0.037757624 -0.099620536 0.07428329
-0.10408339 -0.34932956 -0.23033242 0.04376087 0.010547914 0.15303898 -0.14741127 -0.076691724
-0.09841551 -0.03689641 -0.17769207 -0.14101076 -0.113062665 -0.04864393 -0.03391446 -0.27015558
-0.03686786 -0.32517466 -0.076306485 0.019932648 0.104472876 0.052986436 -0.06882694 -0.10016075
0.0012236335 0.08755893 0.077012494 -0.36010575 0.09230203 -0.2515789 -0.16396715 0.08977338
-0.18487062 -0.2504611 -0.05661949 -0.057326764 -0.3799883 -0.10768373 0.07352818 0.14029372
-0.34757912 -0.12263301 -0.2804797 -0.4338036 -0.3244832 0.10268171 -0.18991007 0.0013169034
-0.15431145 0.11052608 0.19032788 -0.040888544 0.106089436 -0.19723359 -0.030687012 -0.0814645
0.045040432 -0.13488887 -0.121133864 -0.06354976 -0.28745607 0.12721187 -0.19302687 0.09892758
-0.00788559 0.13845345 0.20191604 -0.040439676 -0.15901537 0.07905023 -0.1652787 -0.24963231
-0.23690733 -0.036829073 -0.24381761 -0.042187497 0.1574339 -0.063433245 0.1285002 -0.10197867
0.009145051 -0.10993947 -0.21371545 -0.16566303 -0.1294967 0.097344674 0.12714013 -0.23642446
00000000: 38a9 1a3e c799 15be 314b d8bd c6b8 aeba
00000010: 6a81 c8bd 389a 9c3d deb7 71be 65fe 48be
00000020: 90d5 ab3d c7fe 973b 2690 4bbd 9e49 04be
00000030: b6df 99bd a2bf 1bbe d17d 4e3e 52d0 1dbd
00000040: 550b 8bbd d10b 2bbd 92ce d43b 8c3d 04be
00000050: 2599 d5bd 5200 c23e 2961 7fbe 1fa0 debd
00000060: df2d 843b 0826 91bd 7d8e 1ebe d134 173e
00000070: dc36 bd3d 9984 0bbd 3551 b7be 30ed aabe
00000080: 0d64 23bd 5b4f 243e 5db8 ce3c dcc6 40be
00000090: 81cf f3bd 5471 23be 4fbc 07bd 7aba 9fbd
000000a0: 4a5f b4bd 20f5 5ebe 3134 babe d0ff 3d3c
000000b0: 9e2a 22be 0ba1 6fbe d01c 2dbe d508 e63c
000000c0: d904 e7bd 4978 a13d 7e66 6e3d 14ee bdbd
000000d0: b467 afbe eeb0 10be aac7 e23d aa09 41bd
000000e0: f38e 363e e2be 07be 5a22 93be 2b7b 5dbe
000000f0: c3dd 43be 992a a6bd e1ce 90bc 1c60 21bd
00000100: 2dca 333d dc48 803b d906 5b3e a4d8 83be
00000110: 1696 5c3e 9b18 f53d 056f 06be cc8b 14be
00000120: 2b8c bfbe 3f3f bcbe 4387 013d 5320 22be
00000130: c838 f0bd 9bdb 36be 220e 6dbd bf4f b1bd
00000140: 512e f7bd dcb6 21bd 5995 023d 83d8 7dbd
00000150: 2305 bbbd 15f2 cebd cff8 adbe a970 b8be
00000160: 084e 57be 4515 0ebd 7006 80bd 8e2b c4bc
00000170: 87d8 613e bf10 4ebe dd27 72be 1e72 83bd
00000180: 2178 89be 8543 e1bd 9045 de3d ca66 c0be
00000190: 4512 cbbe ae08 083e 0b49 913e 6f74 2ebe
000001a0: be47 a0be 6984 19be 30e4 073e a435 f13d
000001b0: b41f 343e e1a9 70be 4ab2 8fbe 0e2f 4ebd
000001c0: eb93 69be 5a85 febd ed7d 2f3c a754 82be
000001d0: aecc f8bd 2d76 2abe 3755 d33a 7477 b8bd
000001e0: 8a85 49be a5c3 1fbe 486c 59be ea1e bfbc
000001f0: 0a53 27bd 4103 99be babe ce3d c717 35be
00000200: a6c5 74be 0160 38be 1b2c 1cbe 8dad 5bbe
00000210: b107 8bbd 8483 52be 267d a73d a9b9 533e
00000220: 077b 19bc 3c80 9c3d c9e8 193d 2faa 35be
00000230: cc41 963d 3b7c 333e 6194 86be 1fbe 23be
00000240: 2fd9 77bb 81e9 263d cdbc 2abe a76c 7ebe
00000250: 6b73 97be 60dc 373e 921c 54bd c29c efbc
00000260: 1125 48be 48b8 523e 4bb7 593e 2919 edbd
00000270: eacf 0ebe 24d8 e6bd 9a00 88be 20b5 e43c
00000280: 63b1 f8bd cc62 a33d 2d45 ba3c 00f3 a23d
00000290: 9012 d93d bda7 1abd da05 ccbd d621 983d
000002a0: ac29 d5bd 53db b2be 43dc 6bbe 993e 333d
000002b0: 28d1 2c3c 40b6 1c3e fbf2 16be 8d10 9dbd
000002c0: 128e c9bd b120 17bd e9f4 35be 2065 10be
000002d0: 668d e7bd dc3e 47bd e4e9 0abd d551 8abe
000002e0: c102 17bd 4b7d a6be 9346 9cbd cb49 a33c
000002f0: e0f5 d53d 4e08 593d 24f5 8cbd 1421 cdbd
00000300: 5462 a03a 1952 b33d bab8 9d3d c85f b8be
00000310: d908 bd3d f3ce 80be 01e7 27be 1bdb b73d
00000320: b94e 3dbe 703c 80be d7e9 67bd 78cf 6abd
00000330: d48d c2be 4a89 dcbd f195 963d 28a9 0f3e
00000340: e4f5 b1be 0427 fbbd 099b 8fbe 811b debe
00000350: a922 a6be ca4a d23d c977 42be f29b ac3a
00000360: d203 1ebe 7f5b e23d 50e5 423e bf7a 27bd
00000370: 6b45 d93d 9af7 49be 5463 fbbc dcd6 a6bd
00000380: 517c 383d 4f20 0abe 0815 f8bd 6026 82bd
00000390: 712d 93be d443 023e d6a8 45be 8b9a ca3d
000003a0: 9032 01bc bec6 0d3e 14c3 4e3e 13a4 25bd
000003b0: edd4 22be 16e5 a13d d23e 29be 9d9f 7fbe
000003c0: d697 72be 15da 16bd 53ab 79be cccc 2cbd
000003d0: 5a36 213e 4ae9 81bd 8e95 033e 31da d0bd
000003e0: 20d5 153c f227 e1bd 39d8 5abe 92a3 29be
000003f0: c89a 04be a55c c73d 0631 023e 4119 72be

actor.2.weight f4 [256, 512]
0.13282217 0.19662002 0.042122588 0.20664907 0.00031080874 0.27050537 -0.1275303 0.22126126
-0.043922033 0.0073642083 -0.2838407 -0.15830146 0.029207192 0.042043075 0.09274863 0.034188505
0.15486464 -0.08543229 -0.023560671 -0.14862758 -0.02611615 0.15615876 -0.08355519 0.17125978
-0.034821507 0.21657406 -0.052043997 0.044674993 0.15094055 0.3411808 -0.023323353 0.010167278
-0.19967993 0.06178194 0.06726027 -0.20430046 0.03822158 -0.026435398 -0.26289454 0.25024232
0.12620884 0.12214857 0.12367869 -0.17376116 -0.23510851 0.14510344 -0.0038775224 0.13106917
0.046465013 0.25228 -0.40123326 -0.3730593 -0.04766236 -0.095349066 0.027142175 0.31082132
-0.053317845 0.052054398 -0.12504695 0.030323628 -0.028803082 -0.08004229 0.033565056 -0.16539055
-0.124595225 0.28440854 0.021300383 -0.024023965 0.09295525 0.08756547 0.06443768 -0.016689608
-0.17689848 -0.13001 -0.19689147 0.09662697 0.15548053 -0.116608426 -0.200868 -0.24108577
0.0024723064 0.029894529 0.26664028 0.29558122 0.16351451 -0.09143184 0.2677771 0.024572836
-0.04997707 0.2281438 0.21880858 0.032263055 0.2619322 0.11004811 -0.010149023 -0.010569899
-0.14963777 -0.2744654 -0.053313073 -0.09249678 0.00045942861 -0.01645572 -0.09004966 -0.0741163
0.16605362 0.028130129 -0.08692138 -0.28361857 0.14797974 -0.10532042 -0.033239506 0.053975023
0.041057087 -0.18323553 -0.23924871 -0.35548636 0.0060641184 0.1677122 0.12374144 -0.29105088
-0.18695903 0.38382444 0.130778 0.23989208 0.021550097 0.11504449 0.056448273 -0.12170776
-0.17290097 0.15104832 0.044352517 -0.11742754 -0.011593786 0.13229075 -0.11100024 0.21293515
0.25061765 0.42141557 -0.12173606 0.06752065 0.037034858 -0.10548326 0.18491802 -0.049589507
-0.098585404 0.32827803 -0.36195564 0.19715261 -0.123932034 0.012434243 -0.018102359 0.074573755
-0.053492807 -0.10089026 0.26241225 0.22777426 -0.1416726 0.14272113 0.02060173 0.41172478
0.041864198 -0.02352563 0.10510047 0.052733608 0.105092056 -0.14297047 -0.056692287 -0.16931404
0.25023866 0.0736173 0.029980293 0.04448234 0.00028032335 0.03335928 -0.19898097 -0.21776818
0.21275535 0.09766744 0.079293154 -0.16602562 -0.09381319 0.14850384 -0.109812215 -0.14789991
0.24705103 -0.23990338 0.1354654 -0.08299255 0.11276114 0.3068211 0.095456764 -0.2101914
-0.20435841 -0.093099855 -0.121944785 -0.06996421 0.1653542 -0.017776534 0.10109312 -0.4136479
-0.046757437 -0.048605837 -0.07697906 -0.123947434 0.07665632 -0.10183518 -0.0034446972 0.081605196
0.0031279132 -0.09258506 -0.017782994 0.057368398 -0.028959235 0.04135302 0.17307034 -0.086208634
-0.03977923 -0.012556776 0.24415277 -0.1580848 -0.32877597 0.025304765 0.17725013 -0.2930839
-0.28646648 -0.049269997 -0.09476197 0.029505549 -0.032576337 0.012245616 -0.024718512 -0.18436609
0.033407867 -0.00077711954 0.089340076 0.17223701 -0.09215332 0.12651518 -0.012502632 -0.22770241
-0.17630272 -0.12165683 -0.23794113 0.08097948 -0.18291938 0.39757493 0.019006105 0.06511242
0.12716155 -0.047715254 0.008586653 -0.099125296 -0.39583048 -0.22147188 -0.30948463 -0.20828365
00000000: 8902 083e c256 493e bc88 2c3d d09b 533e
00000010: 0bf4 a239 ae7f 8a3e 4e97 02be 5092 623e
00000020: 97e7 33bd 754f f13b 9153 91be c719 22be
00000030: ec43 ef3c 5c35 2c3d fef2 bd3d 3f09 0c3d
00000040: d694 1e3e 20f7 aebd 4f02 c1bc d431 18be
00000050: 89f1 d5bc 15e8 1f3e fc1e abbd b95e 2f3e
00000060: ffa0 0ebd 97c5 5d3e 162c 55bd 20fd 363d
00000070: 2990 1a3e 40af ae3e 9e10 bfbc a894 263c
00000080: e578 4cbe 0f0f 7d3d c1bf 893d 2434 51be
00000090: 3b8e 1c3d 0c8f d8bc 1d9a 86be c31f 803e
000000a0: e43c 013e 0829 fa3d 414b fd3d 72ee 31be
000000b0: 49c0 70be ff95 143e 081e 7ebb ff36 063e
000000c0: 1952 3e3d d82a 813e 726e cdbe a101 bfbe
000000d0: 9b39 43bd 5f46 c3bd 4459 de3c f923 9f3e
000000e0: d063 5abd fe36 553d 4f0c 00be 4269 f83c
000000f0: 71f4 ebbc 36ed a3bd 837b 093d 245c 29be
00000100: c82b ffbd ff9d 913e 247e ae3c e8cd c4bc
00000110: 525f be3d 8655 b33d e7f7 833d a5b8 88bc
00000120: e024 35be 5721 05be eb9d 49be 5ce4 c53d
00000130: 4a36 1f3e 66d0 eebd 57b0 4dbe 30df 76be
00000140: 6b06 223b 5fe5 f43c 1385 883e 6c56 973e
00000150: 5970 273e 9e40 bbbd 141a 893e f94c c93c
00000160: c2b4 4cbd 879e 693e 5b0f 603e 4426 043d
00000170: fa1b 863e e760 e13d 1648 26bc 5f2d 2dbc
00000180: a53a 19be bb86 8cbe cf5e 5abd f46e bdbd
00000190: 77df f039 25ce 86bc f56b b8bd 49ca 97bd
000001a0: f609 2a3e 2871 e63c d603 b2bd 7436 91be
000001b0: 0088 173e 3bb2 d7bd 2626 08bd ea14 5d3d
000001c0: 7a2b 283d 18a2 3bbe 9dfd 74be 4f02 b6be
000001d0: 83b5 c63b bfbc 2b3e 276c fd3d 9f04 95be
000001e0: 3072 3fbe a384 c43e abea 053e 45a6 753e
000001f0: d489 b03c 729c eb3d 4e36 673d eb41 f9bd
00000200: f40c 31be 69ac 1a3e fcaa 353d da7d f0bd
00000210: ddf3 3dbc 3a77 073e 1854 e3bd ac0b 5a3e
00000220: f550 803e c8c3 d73e c150 f9bd 4448 8a3d
00000230: ddb1 173d 9b07 d8bd 265b 3d3e 5e1e 4bbd
00000240: 25e7 c9bd 0f14 a83e 4052 b9be 60e2 493e
00000250: 14d0 fdbd ffb8 4b3c 664b 94bc 20ba 983d
00000260: 461b 5bbd 8d9f cebd e65a 863e a83d 693e
00000270: 9f12 11be 7d25 123e f6c4 a83c 97cd d23e
00000280: cb79 2b3d d2b8 c0bc ea3e d73d 32ff 573d
00000290: 813a d73d da66 12be 2c36 68bd a960 2dbe
000002a0: 481f 803e abc4 963d 3b99 f53c 1d33 363d
000002b0: 5df8 9239 bea3 083d abc1 4bbe 9ffe 5ebe
000002c0: 8adc 593e de05 c83d 7364 a23d 9f02 2abe
000002d0: 2121 c0bd 6411 183e 3ae5 e0bd 1373 17be
000002e0: f2fa 7c3e 3ba9 75be 71b7 0a3e 00f8 a9bd
000002f0: 50ef e63d a817 9d3e d67e c33d 6a3c 57be
00000300: 5543 51be 23ab bebd 30be f9bd 6549 8fbd
00000310: 9d52 293e 18a0 91bc e909 cf3d a8c9 d3be
00000320: ba84 3fbd ea16 47bd 33a7 9dbd 27d8 fdbd
00000330: fdfd 9c3d f68e d0bd 6ec0 61bb a020 a73d
00000340: adfd 4c3b 3c9d bdbd a4ad 91bc 20fb 6a3d
00000350: eb3b edbc c961 293d 5a39 313e 278e b0bd
00000360: 8cef 22bd f0ba 4dbc 2f03 7a3e fbe0 21be
00000370: 5355 a8be f04b cf3c 0f81 353e 180f 96be
00000380: bcab 92be 56cf 49bd 9012 c2bd 9fb5 f13c
00000390: c46e 05bd d6a1 483c 7a7e cabc 77ca 3cbe
000003a0: b0d6 083d 9cb7 4bba eef7 b63d e65e 303e
000003b0: e1ba bcbd 328d 013e d7d7 4cbc d22a 69be
000003c0: b388 34be 3727 f9bd d7a6 73be 92d8 a53d
000003d0: 384f 3bbe f18e cb3e b1b2 9b3c a959 853d
000003e0: a336 023e 1271 43bd 08af 0c3c 3402 cbbd
000003f0: 4baa cabe 86c9 62be c574 9ebe 4f48 55be

actor.2.bias f4 [256]
-8.358204e-05 -0.08540325 -0.22753309 -0.290667 -0.18074967 -0.016944079 -0.42669788 -0.14747965
-0.070314795 -0.078508995 0.014303428 -0.19634862 -0.11842275 -0.24810766 -0.109308474 -0.11705302
-0.26312643 -0.3137574 -0.18997107 -0.11700242 -0.18835998 -0.024985185 -0.15172255 -0.13080406
-0.049336836 -0.09197791 -0.12928244 -0.091546625 -0.31594807 -0.0986632 -0.09737644 0.07124498
-0.28861958 0.084052004 -0.2028379 -0.17556712 -0.080901556 0.107801676 -0.22902013 -0.18941002
-0.3263808 -0.05621108 -0.20835446 -0.034378786 -0.14083426 -0.06248595 -0.106708236 -0.18822013
-0.1712666 -0.2961318 -0.11891032 -0.28388608 -0.124551296 -0.14239879 -0.35121834 -0.24504428
-0.08581368 -0.12959252 -0.09987388 -0.25679752 -0.16537681 0.059351407 -0.15381369 -0.037199523
-0.14855216 -0.09622228 0.019535856 -0.09040015 -0.08942439 -0.12911466 -0.23460552 -0.16170251
-0.052408606 -0.11951777 -0.19085844 -0.101215504 -0.08331 -0.22911157 0.009261639 -0.1013694
-0.19540429 -0.1631166 -0.13339074 -0.1209125 -0.16514277 -0.098159574 -0.29969704 -0.015766202
0.026829442 -0.37304083 -0.13728572 -0.24660367 -0.20615517 -0.22566275 0.045257363 -0.08552265
-0.22222398 -0.13819197 -0.4569396 0.14068094 -0.23736063 -0.12788816 -0.17091529 -0.11618883
-0.06814068 -0.19304478 -0.056904517 -0.18082756 -0.08539193 -0.09838784 -0.10129287 -0.0957659
-0.05030057 -0.15818132 -0.22265604 -0.08308489 -0.23843965 -0.07928877 -0.18826634 -0.18110687
-0.1238087 -0.075822644 -0.23195389 -0.027810311 0.02474501 -0.033340603 -0.08814887 -0.21856204
-0.14951882 -0.304121 -0.069649406 -0.17321584 -0.22362213 -0.01865396 -0.24696268 -0.084819175
-0.069991946 -0.10501227 -0.118149534 0.13324808 -0.012963481 -0.24209286 -0.0006208405 -0.10002113
0.020498682 -0.16401744 -0.15041134 0.0038615686 -0.20319858 -0.22525036 -0.105485275 -0.3968027
-0.36093146 -0.06650642 -0.2727203 -0.050433196 -0.11393642 -0.07420939 -0.19061823 -0.09837992
-0.10328196 0.009347114 -0.074456766 -0.1740997 -0.15573889 0.06572532 -0.2564086 -0.21003783
-0.039955348 -0.19892329 0.06702352 -0.18733728 0.08279843 -0.2646269 -0.14051282 -0.07966107
-0.2165723 -0.030478068 0.0046536154 0.0030754202 -0.2352815 -0.22488883 -0.04437895 -0.021786343
-0.07233032 -0.22875474 -0.28428134 -0.2752178 -0.1460576 -0.35321504 -0.19505802 -0.14402652
-0.1639148 -0.13801806 -0.13601054 -0.101372465 -0.085018665 -0.11402169 -0.30344743 -0.10886422
0.018316502 -0.11110928 -0.20827387 -0.12359546 -0.20742744 -0.12470951 -0.17463702 -0.06992454
-0.12154153 -0.030058768 -0.20784144 -0.09275313 -0.08939369 -0.19499366 -0.16349451 -0.059519768
-0.05730585 -0.14432536 -0.27631986 -0.08836403 -0.24697667 -0.20186076 -0.14743152 0.0033131163
-0.16963926 -0.26249427 -0.16576113 0.07496803 -0.3292598 -0.32321924 -0.13824598 -0.12709123
-0.15931036 -0.30278257 -0.2107342 0.03450178 0.017660882 -0.23194091 -0.2980443 -0.24783193
-0.0504222 -0.20169966 -0.13203959 -0.09283149 -0.08821839 -0.171882 -0.13292098 -0.042446442
-0.1127643 -0.11358039 -0.29678228 -0.104031816 -0.20318674 -0.03555358 -0.34317678 -0.33993837
00000000: c448 afb8 e6e7 aebd 6ffe 68be 4ed2 94be
00000010: 7116 39be 4fce 8abc 2578 dabe e804 17be
00000020: 3401 90bd 53c9 a0bd ed58 6a3c 9d0f 49be
00000030: a087 f2bd ef0f 7ebe 1fdd dfbd 7eb9 efbd
00000040: 82b8 86be cfa4 a0be c787 42be f79e efbd
00000050: 70e1 40be bbad ccbc 285d 1bbe 80f1 05be
00000060: 6c15 4abd ea5e bcbd 9e62 04be cc7c bbbd
00000070: f2c3 a1be ef0f cabd 4d6d c7bd e3e8 913d
00000080: f2c5 93be 7523 ac3d bdb4 4fbe dec7 33be
00000090: b7af a5bd 20c7 dc3d 4184 6abe b3f4 41be
000000a0: 621b a7be 973d 66bd df5a 55be c5d0 0cbd
000000b0: db36 10be 44f1 7fbd d989 dabd c7bc 40be
000000c0: 8360 2fbe 969e 97be 4187 f3bd 8459 91be
000000d0: c014 ffbd fdd0 11be e4d2 b3be e3ec 7abe
000000e0: 15bf afbd e7b3 04be ad8a ccbd f77a 83be
000000f0: 8a58 29be 761a 733d 5681 1dbe 875e 18bd
00000100: 0f1e 18be 3010 c5bd a909 a03c b723 b9bd
00000110: 2224 b7bd a236 04be 6e3c 70be 5895 25be
00000120: 68aa 56bd bcc5 f4bd 6570 43be 134a cfbd
00000130: 6f9e aabd 399c 6abe 21be 173c c39a cfbd
00000140: 1018 48be 0a08 27be 9597 08be f9a0 f7bd
00000150: 301b 29be e307 c9bd e471 99be 1f28 81bc
00000160: 6bc9 db3c 35ff bebe a194 0cbe ac85 7cbe
00000170: 571a 53be 2314 67be c95f 393d 8026 afbd
00000180: af8e 63be 3282 0dbe fdf3 e9be aa0e 103e
00000190: aa0e 73be 1df5 02be 6b04 2fbe 69f4 edbd
000001a0: 578d 8bbd 88ad 45be b614 69bd dc2a 39be
000001b0: f7e1 aebd 907f c9bd a372 cfbd ea20 c4bd
000001c0: f807 4ebd 49fa 21be f2ff 63be 6928 aabd
000001d0: 8629 74be 2762 a2bd e4c8 40be 1474 39be
000001e0: 6a8f fdbd e748 9bbd 5285 6dbe 73d2 e3bc
000001f0: 0cb6 ca3c 2890 08bd 6587 b4bd bace 5fbe
00000200: 761b 19be bfb5 9bbe 59a4 8ebd 7e5f 31be
00000210: 33fd 64be 31d0 98bc c9e3 7cbe adb5 adbd
00000220: f057 8fbd ac10 d7bd 62f8 f1bd 2f72 083e
00000230: c864 54bc 31e7 77be e7bf 22ba e1d7 ccbd
00000240: daec a73c 30f4 27be 6e05 1abe 5f12 7d3b
00000250: 4a13 50be 08a8 66be aa08 d8bd b929 cbbe
00000260: 02cc b8be 8534 88bd ffa1 8bbe 0a93 4ebd
00000270: 7f57 e9bd 18fb 97bd 6d31 43be 697b c9bd
00000280: 7e85 d3bd a324 193c ca7c 98bd 3147 32be
00000290: 047a 1fbe ff9a 863d fd47 83be 2814 57be
000002a0: 38a8 23bd 8cb2 4bbe a143 893d 58d5 3fbe
000002b0: 3992 a93d 2d7d 87be 98e2 0fbe 5825 a3bd
000002c0: 21c5 5dbe 24ad f9bc 5b7d 983b fd8c 493b
000002d0: a2ed 70be 4249 66be b4c6 35bd 4679 b2bc
000002e0: eb21 94bd af3e 6abe 538d 91be 59e9 8cbe
000002f0: 2090 15be 9ad8 b4be 4abd 47be b07b 13be
00000300: 48d9 27be 9b54 0dbe 5946 0bbe 5e9c cfbd
00000310: 441e aebd 3484 e9bd 765d 9bbe 34f4 debd
00000320: 7d0c 963c 438d e3bd bf45 55be 9e1f fdbd
00000330: dc67 54be b367 ffbd 0cd4 32be 9934 8fbd
00000340: c4ea f8bd ce3d f6bc 63d4 54be 5af5 bdbd
00000350: 0a14 b7bd 6bac 47be 1b6b 27be 00cb 73bd
00000360: 8ab9 6abd 07ca 13be cc79 8dbe 33f8 b4bd
00000370: 74e7 7cbe 96b4 4ebe 4af8 16be de20 593b
00000380: eab5 2dbe a665 86be 49bd 29be d788 993d
00000390: be94 a8be fe7c a5be 5b90 0dbe 3424 02be
000003a0: 4122 23be 5106 9bbe b5ca 57be bd51 0d3d
000003b0: 8ead 903c eb81 6dbe 4399 98be a7c7 7dbe
000003c0: 8287 4ebd 5b8a 4ebe 6335 07be 701e bebd
000003d0: d8ab b4bd d601 30be 701c 08be 52dc 2dbd
000003e0: f8f0 e6bd d69c e8bd d9f3 97be a20e d5bd
000003f0: 2f10 50be a1a0 11bd deb4 afbe 670c aebe

actor.4.weight f4 [128, 256]
-0.0853227 0.12588932 0.0010975659 0.10906569 -0.07633683 -0.09739381 0.06893256 0.15445204
0.06289517 -0.018461768 -0.047533672 -0.08916535 -0.240051 -0.044204563 -0.05734387 0.11873569
-0.064762 0.009850292 0.112979986 0.009268029 -0.089651674 0.020568639 -0.030135904 0.06664481
0.034034725 -0.09854245 0.00519229 -0.017637806 0.1612151 -0.05266057 0.03712745 -0.013556253
-0.06294957 -0.11314167 0.06955936 0.03441161 0.029327746 -0.039670013 0.00648766 -0.06560486
0.070875816 0.03198234 0.015775643 0.019683868 0.1780878 0.0668459 0.07010194 -0.010720426
0.055994175 0.037405852 -0.016583147 -0.028532106 -0.17564647 -0.09259362 -0.030330077 0.20077582
-0.11351219 0.026249556 -0.023748433 -0.03187149 0.11287929 0.008750329 -0.024946077 0.032089267
0.07405072 0.00041582005 -0.030278848 -0.020669788 0.06483533 -0.08112301 -0.016679185 0.11532662
0.08086968 -0.038291726 -0.05622744 -0.06848975 -0.0064787376 0.00622649 0.044994526 0.08799205
-0.03872822 -0.10033668 -0.13117096 -0.14399914 0.17218073 -0.046942808 0.16425219 0.2980724
-0.015966667 0.27911574 -0.0065514315 0.07513292 0.053469907 0.0073596667 0.03610283 -0.522325
0.04122806 -0.023111362 0.23659262 -0.018048031 -0.028493557 -0.046968468 0.182791 -0.057012085
0.03366398 -0.11889709 0.02237466 0.0011333593 -0.11039639 -0.027116282 -0.01671759 0.03418205
-0.11344312 0.09844256 -0.0673447 -0.028714683 0.03338217 0.031888817 0.09792886 0.022257358
0.11060587 -0.08156377 -0.0776686 -0.06891441 -0.014429897 0.045630753 -0.16657934 0.16650996
0.13303274 -0.07492368 0.10776647 0.18485847 -0.07895995 -0.034346126 0.27599755 -0.124232724
0.12778124 0.020612303 -0.5001786 -0.059123814 0.06335016 0.09500493 -0.04825162 -0.069315426
-1.0756985 -0.02816746 -0.19084185 0.15484835 0.015881017 0.009205403 0.013589743 0.0553821
-0.08922442 0.021474026 -0.01473293 0.040296905 -0.043191057 -0.05569402 0.062395416 -0.06158888
0.2331587 -0.12993726 0.10625415 -0.05883225 0.0790179 0.14108324 -0.19795273 0.02275094
0.060894404 -0.18217574 0.11779568 -0.026998034 -0.2015483 0.09470175 0.019164167 -0.07021421
-0.23459035 -0.17667775 -0.06322515 -0.05986 -0.07365205 0.04302836 0.05666054 0.12172338
-0.049120806 0.14444716 0.07794695 0.07834241 -0.13956529 0.0012211552 -0.07025618 -0.3461491
-0.0070847683 0.049888518 0.023529643 0.008896341 0.056653805 0.1015319 -0.102161095 0.14887996
0.075371236 -0.11737093 -0.058244888 -0.01434976 0.04445963 -0.0832514 -0.0960928 -0.09500437
0.04092105 -0.05916328 0.05168627 -0.018804062 -0.14486025 -0.086378574 -0.11623691 -0.026683638
-0.080581345 0.1905845 0.040627334 0.05827713 0.07207139 0.12135782 -0.061932243 0.036085963
-0.07777572 -0.13501963 -0.13144939 -0.060145 -0.15308079 0.03588461 -0.0757685 0.078000434
-0.07498106 0.4428984 0.0038914152 0.09067768 -0.22328325 0.13231543 0.21685429 0.13230099
0.11946466 -0.0105210915 0.20539603 -0.03075023 -0.0776408 0.42627165 0.08183975 0.18441714
0.10405167 0.041119825 -0.03263941 0.11654559 -0.0206857 0.04106421 0.1710848 0.053241137
00000000: abbd aebd 21e9 003e 33dc 8f3a d55d df3d
00000010: 7c56 9cbd 6876 c7bd 842c 8d3d ad28 1e3e
00000020: 2fcf 803d 223d 97bc abb2 42bd 539c b6bd
00000030: eecf 75be d80f 35bd 68e1 6abd b32b f33d
00000040: f1a1 84bd 1e63 213c 0d62 e73d eed8 173c
00000050: 4c9b b7bd 907f a83c 92df f6bc 137d 883d
00000060: ff67 0b3d a0d0 c9bd 1624 aa3b 297d 90bc
00000070: 9215 253e 9cb2 57bd f412 183d 0c1b 5ebc
00000080: b4eb 80bd d2b6 e7bd 2375 8e3d 30f3 0c3d
00000090: be40 f03c 067d 22bd 7096 d43b d75b 86bd
000000a0: 5727 913d eaff 023d ec3b 813c 1040 a13c
000000b0: a65c 363e 81e6 883d 9b91 8f3d baa4 2fbc
000000c0: 265a 653d e136 193d 61d9 87bc 2abc e9bc
000000d0: abdc 33be b9a1 bdbd c876 f8bc 2d98 4d3e
000000e0: 1479 e8bd 4f09 d73c 138c c2bc ae8b 02bd
000000f0: 422d e73d 8a5d 0f3c b75b ccbc 0970 033d
00000100: e7a7 973d 6c02 da39 590b f8bc b053 a9bc
00000110: 63c8 843d d223 a6bd c9a2 88bc 5d30 ec3d
00000120: 019f a53d c9d7 1cbd be4e 66bd 5b44 8cbd
00000130: 974b d4bb 9507 cc3b 2e4c 383d 2d35 b43d
00000140: 7ba1 1ebd 517d cdbd ae51 06be 8374 13be
00000150: 2550 303e 1a47 40bd ba31 283e f29c 983e
00000160: 87cc 82bc 42e8 8e3e 64ad d6bb 4adf 993d
00000170: 4303 5b3d 5c29 f13b 90e0 133d 17b7 05bf
00000180: c1de 283d 0a54 bdbc 5645 723e 77d9 93bc
00000190: 526b e9bc 0262 40bd 902d 3b3e 8185 69bd
000001a0: 3ee3 093d 5180 f3bd 104b b73c 3a8d 943a
000001b0: 8117 e2bd f722 debc 54f3 88bc 7a02 0c3d
000001c0: de54 e8bd 419c c93d 05ec 89bd 0e3b ebbc
000001d0: bebb 083d d99d 023d ed8e c83d 1055 b63c
000001e0: 5585 e23d e80a a7bd b710 9fbd 0023 8dbd
000001f0: 606b 6cbc 50e7 3a3d c693 2abe 9681 2a3e
00000200: bc39 083e 9671 99bd abb4 dc3d 8a4b 3d3e
00000210: c1b5 a1bd 86ae 0cbd 8d4f 8d3e ba6d febd
00000220: 16d9 023e 22db a83c b40b 00bf d02b 72bd
00000230: bbbd 813d f291 c23d 7ea3 45bd 3ff5 8dbd
00000240: 7db0 89bf 72bf e6bc 0c6c 43be 9190 1e3e
00000250: e818 823c 42d2 163c 83a7 5e3c 57d8 623d
00000260: 4bbb b6bd 4cea af3c 6362 71bc 5e0e 253d
00000270: 1be9 30bd 6a1f 64bd 5692 7f3d 9f44 7cbd
00000280: 27c1 6e3e 460e 05be c79b d93d 16fa 70bd
00000290: 23d4 a13d 2078 103e 1fb4 4abe 2e60 ba3c
000002a0: 696c 793d 478c 3abe dd3e f13d fb2a ddbc
000002b0: ad62 4ebe fef2 c13d 2cfe 9c3c 78cc 8fbd
000002c0: 7438 70be 03eb 34be 307c 81bd c22f 75bd
000002d0: e3d6 96bd 813e 303d e214 683d 1c4a f93d
000002e0: e632 49bd f5e9 133e a7a2 9f3d fc71 a03d
000002f0: 34ea 0ebe 2b0f a03a 79e2 8fbd 743a b1be
00000300: 5827 e8bb e757 4c3d 3dc1 c03c f5c1 113c
00000310: d20d 683d f5ef cf3d d639 d1bd fd73 183e
00000320: 3c5c 9a3d 2c60 f0bd 3192 6ebd 411b 6bbc
00000330: 4d1b 363d b67f aabd 4dcc c4bd a791 c2bd
00000340: d59c 273d 3255 72bd fbb4 533d fa0a 9abc
00000350: 3f56 14be 40e7 b0bd 9e0d eebd a597 dabc
00000360: d507 a5bd 9528 433e d968 263d 00b4 6e3d
00000370: 2a9a 933d 738a f83d aaac 7dbd e0ce 133d
00000380: e048 9fbd 9642 0abe ab9a 06be 9b5a 76bd
00000390: 36c1 1cbe befb 123d 842c 9bbd b1be 9f3d
000003a0: ac8f 99bd 94c3 e23e 1d07 7f3b 38b5 b93d
000003b0: 5da4 64be b27d 073e 0d0f 5e3e e979 073e
000003c0: e3a9 f43d a860 2cbc 5653 523e e8e7 fbbc
000003d0: 2402 9fbd 4740 da3e 999b a73d d9d7 3c3e
000003e0: 0b19 d53d 436d 283d e7b0 05bd 74af ee3d
000003f0: 0f75 a9bc f232 283d db30 2f3e 6113 5a3d

actor.4.bias f4 [128]
-0.13462299 -0.20625858 -0.27455482 -0.14614019 -0.17492156 -0.030482275 -0.111916326 -0.12651311
-0.20053412 -0.19474038 -0.04559238 -0.09986067 -0.1748829 -0.17337951 -0.108891726 -0.12296012
-0.060571678 0.07873693 -0.13724516 -0.13998133 -0.14539751 -0.267511 -0.119793996 -0.16104387
-0.092287585 -0.065983236 -0.13452458 -0.08158334 -0.34790534 -0.12863486 -0.15152031 -0.00054798205
-0.103446946 -0.064208314 -0.04351837 -0.07575031 -0.20888744 -0.16283979 -0.10200289 -0.3390739
-0.07811399 -0.15705949 -0.12475643 -0.20082508 -0.036910813 -0.19950442 -0.23226704 -0.15035203
-0.069330715 -0.07399564 0.14619038 -0.1340585 -0.18150744 -0.21295634 -0.16869715 -0.08750927
-0.1795875 -0.120194316 -0.07771418 -0.24760538 -0.13408957 -0.17739062 -0.12907222 -0.095924355
-0.03662735 -0.16094494 -0.26789135 -0.12525618 -0.16693881 -0.09659513 -0.07079061 -0.1266231
-0.20002337 -0.06990418 -0.07178837 -0.16336049 -0.120913394 -0.22060418 -0.27616554 -0.10157082
-0.13830033 0.024818908 -0.13448517 -0.3867752 -0.10049389 -0.19427344 -0.24893448 -0.21839377
-0.19758467 -0.19130084 -0.14376156 -0.14436767 -0.24135293 -0.16353409 -0.06656599 -0.38844237
-0.06163006 -0.20444591 0.036768552 -0.085298784 -0.1375487 -0.045216646 -0.06569585 -0.27028567
-0.18640187 -0.3525995 -0.13562545 -0.0996955 -0.14161368 -0.17741859 -0.013228203 -0.14882247
-0.00043935678 -0.07604291 -0.09447077 -0.29877284 -0.2208063 -0.3351343 -0.057882838 -0.09655986
-0.058624197 -0.1233654 -0.04036166 -0.092032805 -0.1464569 -0.19338562 -0.30691227 -0.08306472
00000000: 9cda 09be 7335 53be 7392 8cbe c6a5 15be
00000010: a31e 33be f7b5 f9bc 6334 e5bd a78c 01be
00000020: d158 4dbe 066a 47be 13bf 3abd c083 ccbd
00000030: 8114 33be 668a 31be a002 dfbd 84d2 fbbd
00000040: 021a 78bd d440 a13d ff89 0cbe 4457 0fbe
00000050: 16e3 14be 34f7 88be 8e56 f5bd afe8 24be
00000060: 4601 bdbd 3822 87bd d0c0 09be 2b15 a7bd
00000070: a620 b2be dbb8 03be 2428 1bbe 74a6 0fba
00000080: fedb d3bd a67f 83bd 5140 32bd fb22 9bbd
00000090: 97e6 55be 79bf 26be e4e6 d0bd 189b adbe
000000a0: 3afa 9fbd 34d4 20be 4d80 ffbd 17a5 4dbe
000000b0: cb2f 17bd e34a 4cbe 69d7 6dbe e2f5 19be
000000c0: 43fd 8dbd 078b 97bd eeb2 153e a246 09be
000000d0: 16dd 39be 3a11 5abe f2be 2cbe 0f38 b3bd
000000e0: c9e5 37be 7028 f6bd 9d28 9fbd 448c 7dbe
000000f0: c74e 09be e3a5 35be 822b 04be fd73 c4bd
00000100: 8f06 16bd c0ce 24be 0e29 89be 2843 00be
00000110: 02f2 2abe abd3 c5bd abfa 90bd 7ca9 01be
00000120: edd2 4cbe ec29 8fbd c805 93bd f947 27be
00000130: 71a1 f7bd 10e6 61be 9265 8dbe 5d04 d0bd
00000140: 9a9e 0dbe 0651 cb3c 7bb6 09be 6607 c6be
00000150: becf cdbd 9eef 46be aee8 7ebe 9ea2 5fbe
00000160: a353 4abe 5ee4 43be 3b36 13be 1ed5 13be
00000170: 3925 77be 7b75 27be c053 88bd ebe1 c6be
00000180: cd6f 7cbd 455a 51be 9f9a 163d 21b1 aebd
00000190: 91d9 0cbe 1735 39bd 8c8b 86bd e262 8abe
000001a0: 22e0 3ebe ec87 b4be 66e1 0abe 282d ccbd
000001b0: 2d03 11be 38ad 35be 1bbb 58bc eb64 18be
000001c0: 7859 e6b9 63bc 9bbd e479 c1bd c1f8 98be
000001d0: 0c1b 62be b996 abbe 8e16 6dbd 2dc1 c5bd
000001e0: ed1f 70bd 00a7 fcbd 4552 25bd b27b bcbd
000001f0: ccf8 15be e106 46be 9b23 9dbe d61d aabd

actor.6.weight f4 [12, 128]
0.041906334 -0.009532821 -0.011588536 0.03653574 0.028507806 -0.005292645 0.023412438 0.06771697
0.038516402 0.05674923 -0.0026697402 0.014514853 0.029978272 0.10179185 0.008213787 -0.030963674
-0.052348208 -0.0044935043 0.027288666 -0.0063836593 -0.063547656 0.02918925 -0.013216355 0.08049368
0.046568118 0.060297642 0.0039198995 -0.01608146 0.01619596 -0.0057111504 0.00076428626 0.04010883
0.024328649 -0.065896794 0.017452713 -0.004892216 0.029626524 -0.05384988 -0.048984468 -0.011731074
0.031577673 -0.0066257305 0.09503696 0.0051989877 -0.03831276 -0.021859514 0.013098371 -0.01417211
-0.013329302 -0.0040895985 -0.07788613 0.015853424 -0.010279796 0.040876433 -0.06737023 -0.0058333767
0.006135483 0.014206929 0.034404077 -0.024507074 -0.04287631 0.031639423 0.02373698 0.0145135345
0.025062159 -0.01522229 -0.024239836 -0.07968491 -0.027734848 -0.03179892 0.009641674 -0.0030873865
-0.06004989 -0.0053875665 -0.011050007 0.06609648 0.011735699 0.08424569 -0.08847614 -0.06428267
-0.009442471 -0.0193852 0.021359358 0.04267159 -0.0567439 0.020622756 0.013314449 -0.030827746
-0.08070962 -0.010229818 0.008826693 -0.029979818 -0.07298728 0.0024811267 -0.055794105 0.017982107
0.0023271132 -0.0028775737 -0.026489792 -0.011584455 -0.01831437 0.053435072 -0.0060572214 0.012544302
-0.020178067 0.038797263 -0.013036856 0.02847655 -0.045135148 -0.023334619 0.007039583 -0.025765633
0.010471604 0.020292053 -0.013097067 0.039068177 -0.0034015996 0.17231683 0.014484824 0.04172985
0.0075406344 0.00013802563 -0.045276027 0.002552983 -0.054404274 0.013251792 0.0047823163 0.010522826
0.071791336 0.018386753 0.007274093 -0.053541448 0.019599132 -0.029468944 0.02877219 -0.09906253
-0.08794479 -0.12715949 -0.026952118 -0.021623913 0.047446202 0.060759787 0.006488332 0.0012785255
0.08504757 0.02226614 -0.015280589 0.041266695 -0.017099874 0.00027416658 0.0206973 0.037561227
-0.11018121 -0.033450063 -0.04345674 0.020043818 -0.0072269957 -0.002216714 -0.010520672 0.02843919
-0.015723385 0.026645934 -0.013999177 0.028493753 0.010455146 0.0070800823 0.122287616 -0.03128832
0.068664454 0.04309117 0.013159416 -0.007466174 -0.021319784 0.0009125692 -0.011337866 0.059446674
-0.0076432414 0.009253137 -0.029851345 0.01621759 0.0147949895 0.052956555 -0.0008848621 0.0030714874
-0.017736332 -0.02625347 0.022595333 0.024935849 0.009942581 0.01705324 0.038881443 -0.024537994
-0.060017236 -0.0019415066 -0.044200968 -0.03591119 -0.020937022 -0.013948834 0.00068680197 0.03632504
-0.106382795 0.0014944356 0.011302236 0.013259454 -0.004699062 0.006593373 -0.08925679 -0.0064850375
-0.040903233 -0.07896121 0.0009147814 0.17580453 -0.06309351 0.022963326 -0.029491775 -0.00028274624
0.036122028 -1.5335597e-06 -0.016860366 -0.007475827 0.0008231986 0.013229846 0.06782295 -0.06823865
-0.045897137 0.001102331 0.004521971 -0.032231033 0.010184417 0.054595053 -0.061832946 0.024391044
0.019596405 0.033691213 0.018322004 0.03341954 -0.052824832 -0.01314872 0.054557048 0.046765886
0.06301261 0.02788745 0.028912826 -0.042195264 -0.01721415 -0.04824558 -0.008928075 -0.025497293
0.024913007 0.22527236 0.0073623057 -0.0222053 -0.04910516 -0.014312959 0.014723672 0.008685007
00000000: faa5 2b3d 8d2f 1cbc d8dd 3dbc 80a6 153d
00000010: 3489 e93c ed6d adbb 71cb bf3c 32af 8a3d
00000020: 60c3 1d3d e171 683d cff6 2ebb b5cf 6d3c
00000030: fe94 f53c 3f78 d03d 1f93 063c 88a7 fdbc
00000040: 136b 56bd 3f3e 93bb 7b8c df3c 042e d1bb
00000050: 4625 82bd 4b1e ef3c 6989 58bc dfd9 a43d
00000060: 36be 3e3d a9fa 763d 8072 803b 44bd 83bc
00000070: 64ad 843c 9a24 bbbb 625a 483a 2849 243d
00000080: e04c c73c e6f4 86bd fef8 8e3c e24e a0bb
00000090: 53b3 f23c b191 5cbd f0a3 48bd b133 40bc
000000a0: 9757 013d a81c d9bb bda2 c23d 455c aa3b
000000b0: d7ed 1cbd b912 b3bc 8d9a 563c 2332 68bc
000000c0: 2563 5abc 0a02 86bb c382 9fbd 0adf 813c
000000d0: 976c 28bc 0c6e 273d 67f9 89bd e925 bfbb
000000e0: 290c c93b 2ec4 683c 4aeb 0c3d 0fc3 c8bc
000000f0: 129f 2fbd 5798 013d 0e74 c23c 2dca 6d3c
00000100: 284f cd3c e966 79bc 9f92 c6bc d831 a3bd
00000110: 3134 e3bc 963f 02bd 1df8 1d3c c055 4abb
00000120: e0f6 75bd 2f8a b0bb 170b 35bc 975d 873d
00000130: 1747 403c 0189 ac3d fa32 b5bd a2a6 83bd
00000140: 98b4 1abc b6cd 9ebc d2f9 ae3c 68c8 2e3d
00000150: 4b6c 68bd 0ef1 a83c d924 5a3c 788a fcbc
00000160: 164b a5bd f79a 27bc d59d 103c 3c98 f5bc
00000170: 5b7a 95bd 669a 223b 5c88 64bd 364f 933c
00000180: 7b82 183b ad95 3cbb 1f01 d9bc bacc 3dbc
00000190: 0508 96bc bcde 5a3d a87b c6bb 9e86 4d3c
000001a0: 794c a5bc e1e9 1e3d 8a98 55bc a747 e93c
000001b0: a2df 38bd 3e28 bfbc 4dac e63b 7312 d3bc
000001c0: 1791 2b3c 853b a63c 1595 56bc f405 203d
000001d0: 5fed 5ebb d373 303e c151 6d3c ebec 2a3d
000001e0: 6d17 f73b f9ba 1039 5b73 39bd f24f 273b
000001f0: 04d7 5ebd 0b1e 593c fab4 9c3b ee67 2c3c
00000200: 5607 933d d19f 963c 845b ee3b 474e 5bbd
00000210: 5c8e a03c db68 f1bc a8b3 eb3c 4ce1 cabd
00000220: 661c b4bd 1936 02be b0ca dcbc a224 b1bc
00000230: f356 423d 41df 783d 139c d43b 3294 a73a
00000240: 6c2d ae3d 7b67 b63c 705b 7abc 4407 293d
00000250: 0915 8cbc 04be 8f39 628d a93c cdd9 193d
00000260: b0a6 e1bd ef02 09bd b2ff 31bd ef32 a43c
00000270: 6fd0 ecbb 4a46 11bb e65e 2cbc 4ef9 e83c
00000280: 54ce 80bc 9348 da3c ce5c 65bc bb6b e93c
00000290: 104c 2b3c 0900 e83b ee71 fa3d 2e28 00bd
000002a0: f39f 8c3d 5e80 303d 979a 573c cfa6 f4bb
000002b0: d4a6 aebc 7b39 6f3a 75c2 39bc 5b7e 733d
000002c0: 2874 fabb 789a 173c cf8a f4bc c0da 843c
000002d0: af66 723c f9e8 583d 17f6 67ba 024b 493b
000002e0: c94b 91bc 8411 d7bc d919 b93c 4446 cc3c
000002f0: 35e6 223c 3db3 8b3c 2642 1f3d e703 c9bc
00000300: a2d4 75bd 277a feba 130c 35bd 9d17 13bd
00000310: 1e84 abbc a689 64bc 800a 343a 91c9 143d
00000320: 39df d9bd f0e0 c33a 032d 393c 2e3e 593c
00000330: 97fa 99bb 390d d83b 44cc b6bd 7080 d4bb
00000340: 268a 27bd 6ab6 a1bd f1cd 6f3a 1a06 343e
00000350: 2c37 81bd 961d bc3c bc98 f1bc 8f3d 94b9
00000360: b1f4 133d b6d4 cdb5 c01e 8abc c8f7 f4bb
00000370: eccb 573a ffc1 583c c2e6 8a3d b5c0 8bbd
00000380: a3fe 3bbd 177c 903a 0b2d 943b b004 04bd
00000390: 8adc 263c 109f 5f3d 8b44 7dbd bacf c73c
000003a0: a488 a03c ccff 093d 0718 963c ede2 083d
000003b0: da5e 58bd bb6d 57bc 3677 5f3d 968d 3f3d
000003c0: c10c 813d 3974 e43c 97da ec3c f1d4 2cbd
000003d0: b004 8dbc 289d 45bd 1047 12bc b3df d0bc
000003e0: 5d16 cc3c ccad 663e 7f3f f13b e4e7 b5bc
000003f0: 7e22 49bd e780 6abc 8e3b 713c 8f4b 0e3c

actor.6.bias f4 [12]
-0.16261663 -0.01193874 -0.15791823 0.10597569 -0.085584454 -0.2568373 -0.1731924 0.057104453
0.008404534 0.022552503 -0.015702883 0.07310448
00000000: f984 26be b49a 43bc 51b5 21be c809 d93d
00000010: e746 afbd 2e80 83be 5959 31be 5ce6 693d
00000020: 2cb3 093c 07c0 b83c 55a3 80bc cdb7 953d
