onnx/legged_5.1.onnx (onnx, 823765 bytes, 8 tensors)

0.weight f4 [512, 77]
-0.25181887 0.5478455 0.42067334 0.14020643 -0.5114947 0.19733952 0.06264544 -0.12246039
-0.45556876 -0.029195331 -0.22197047 -0.2803628 -0.09457676 0.060075976 -0.04487983 0.04767193
0.17279167 0.15440448 0.51217145 -0.07866498 -0.04596815 -0.0673111 0.264548 0.038393185
-0.16404808 0.08491148 0.16773602 -0.090567894 0.035847567 0.24087766 -0.107384466 0.36084026
0.52446914 0.049857497 0.028447023 -0.03862418 -0.07344007 -0.031476554 0.0048448094 0.114726596
0.0006022963 -0.14202575 0.024801077 -0.09071378 0.01307761 -0.21877275 0.24802347 -0.0073669883
0.106581464 0.023351947 -0.18727879 -0.019924374 0.034695696 0.14322682 0.02109848 0.15270269
-0.046876833 -0.15029848 -0.15040831 -0.0027371596 0.24427679 -0.19482595 -0.068732746 -0.3090256
0.14289366 -0.07531958 -0.024379691 -0.052889924 -0.122950256 0.12660679 -0.08873256 0.044344503
-0.057270244 0.06874778 0.11461898 0.064586975 0.28569862 0.2758182 0.20051381 -0.22491823
-0.35654587 -0.23752867 -0.13147724 0.0017447517 0.04577685 0.14450312 -0.2445025 -0.029722182
0.23479407 -0.35163546 0.3662076 0.25697517 -0.0029934102 -0.28878772 -0.08670387 0.221275
0.26042706 -0.24440534 0.27605784 -0.02149427 0.10572647 0.21817236 -0.08174919 0.33046296
0.004963821 -0.047303706 -0.048970807 0.3161437 -0.11360245 -0.044673998 0.00010563593 0.014909445
-0.05850136 -0.0054100743 -0.009656178 -0.036473528 0.019263484 0.0589277 -0.017274158 -0.11123967
-0.025401682 0.019738516 0.13263187 0.107099235 0.10742597 0.02915678 0.030070303 -0.26416215
0.10770297 0.027305763 0.22907753 -0.1737316 0.15453924 -0.189442 -0.20911716 -0.048848588
-0.21984337 0.10623055 -0.0041843066 -0.1535638 -0.33628735 0.41039816 -0.035245527 0.07573309
0.20186359 0.025808534 -0.02084707 0.0694653 0.17475602 -0.034344714 -0.061604604 0.057847857
-0.026647521 0.0073280865 -0.44983807 0.08257521 0.4052046 -0.007928065 -0.16454463 -0.18231621
0.014543676 0.019773759 -0.6726263 -0.2079153 -0.023070563 -0.3436701 -0.26804167 -0.09895754
-0.044318948 -0.050867293 -0.16582568 0.27716312 0.40653825 0.13449009 -0.29279196 -0.107467405
-0.09879483 0.101563014 -0.17599356 -0.14079544 -0.21519476 0.026841603 -0.05142295 -0.07243614
0.028732935 0.13002264 -0.04481612 -0.003607989 -0.008471585 -0.02306587 -0.014263295 -0.020212552
-0.0022256316 -0.020967534 0.009028698 -0.0917168 -0.07725728 -0.055542238 0.048701704 0.35984775
0.05181284 -0.2458028 -0.06223953 -0.11227961 0.027701387 -0.0280755 -0.0192702 0.18601583
0.015395515 0.15880439 0.009858968 -0.10590428 0.078420624 0.041459065 0.12235083 -0.008009673
-0.18747963 -0.008599419 0.077206366 -0.03864773 0.019394903 -0.030453809 0.07418006 0.12965445
0.0673386 -0.014171187 -0.00050054025 -0.17029078 0.16465302 0.043605685 -0.009927229 1.1036456
0.77678114 0.1981547 0.62862086 0.22483307 0.28482407 -0.06865679 0.16115801 0.06075626
-0.40353072 0.018515876 0.38454193 0.4166208 0.12120103 0.3782729 0.18048358 0.18451603
0.27778774 -0.16670436 -0.15954797 0.4058266 0.0011693584 -0.22669308 -0.14118257 -0.15602419
00000000: 67ee 80be 9a3f 0c3f 7f62 d73e 4692 0f3e
00000010: 51f1 02bf 5f13 4a3e 414c 803d 83cc fabd
00000020: 4f40 e9be 0c2b efbc 3a4c 63be b78b 8fbe
00000030: 76b1 c1bd 3a12 763d ead3 37bd a443 433d
00000040: 4df0 303e 351c 1e3e ab1d 033f 1b1b a1bd
00000050: 1949 3cbd 67da 89bd d672 873e 2c42 1d3d
00000060: 38fc 27be 12e6 ad3d fec2 2b3e a97b b9bd
00000070: e6d4 123d a2a8 763e 63ec dbbd 0ec0 b83e
00000080: 9c43 063f 6037 4c3d bb09 e93c 6334 1ebd
00000090: bf67 96bd 8fed 00bd 35c1 9e3b c7f5 ea3d
000000a0: 6ce3 1d3a 336f 11be a12b cb3c 25c8 b9bd
000000b0: 7943 563c f705 60be ddf9 7d3e c766 f1bb
000000c0: 6247 da3d 954c bf3c 03c6 3fbe 7138 a3bc
000000d0: 131d 0e3d 0daa 123e b8d6 ac3c 185e 1c3e
000000e0: ec01 40bd d8e7 19be a304 1abe eb61 33bb
000000f0: b223 7a3e 7480 47be c1c3 8cbd 9a38 9ebe
00000100: b752 123e 2741 9abd ebb7 c7bc 1ba3 58bd
00000110: 58cd fbbd 36a5 013e 6bb9 b5bd 95a2 353d
00000120: 3494 6abd a3cb 8c3d 5bbd ea3d 2d46 843d
00000130: 1747 923e 0b38 8d3e 7e53 4d3e f750 66be
00000140: 2e8d b6be b73a 73be f8a1 06be 27b0 e43a
00000150: 8280 3b3d a0f8 133e dd5e 7abe ef7b f3bc
00000160: db6d 703e 9009 b4be 907f bb3e 4092 833e
00000170: 172d 44bb fcdb 93be cc91 b1bd ea95 623e
00000180: b256 853e 6545 7abe 7457 8d3e c014 b0bc
00000190: 1f87 d83d 9368 5f3e 1f6c a7bd 7132 a93e
000001a0: 8ca7 a23b 88c1 41bd 9d95 48bd 96dd a13e
000001b0: 67a8 e8bd 15fc 36bd dc88 dd38 bf46 743c
000001c0: 1f9f 6fbd fe46 b1bb f234 1ebc 4465 15bd
000001d0: 74ce 9d3c 2c5e 713d 8982 8dbc a0d1 e3bd
000001e0: 3017 d0bc abb2 a13c a6d0 073e d856 db3d
000001f0: 2602 dc3d 33da ee3c ff55 f63c 4340 87be
00000200: 6093 dc3d 56b0 df3c 4d93 6a3e b2e6 31be
00000210: 893f 1e3e 15fd 41be cf22 56be 7515 48bd
00000220: 9f1e 61be 678f d93d 821c 89bb d43f 1dbe
00000230: db2d acbe b51f d23e 9d5d 10bd f319 9b3d
00000240: 54b5 4e3e 6b6c d33c 79c7 aabc d343 8e3d
00000250: 3ef3 323e 0bad 0cbd 1c55 7cbd e0f1 6c3d
00000260: e74b dabc 7220 f03b 2d51 e6be 311d a93d
00000270: fa76 cf3e b7e4 01bc 637e 28be 1ab1 3abe
00000280: 9948 6e3c 94fc a13c 3d31 2cbf c0e7 54be
00000290: 7afe bcbc 87f5 afbe c23c 89be 40aa cabd
000002a0: c987 35bd 395a 50bd 35ce 29be 53e8 8d3e
000002b0: c825 d03e c5b7 093e d4e8 95be df17 dcbd
000002c0: f254 cabd 4500 d03d a837 34be ae2c 10be
000002d0: 045c 5cbe ece2 db3c dfa0 52bd 6659 94bd
000002e0: 5561 eb3c a824 053e 1c91 37bd 0374 6cbb
000002f0: 67cc 0abc a3f4 bcbc 98b0 69bc cb94 a5bc
00000300: e7db 11bb 1bc4 abbc 1bed 133c 05d6 bbbd
00000310: 1139 9ebd 4280 63bd 707b 473d f73d b83e
00000320: b339 543d bbb3 7bbe e1ee 7ebd daf2 e5bd
00000330: 05ee e23c 97fe e5bc 8adc 9dbc ef7a 3e3e
00000340: 783d 7c3c 9e9d 223e 8287 213c 58e4 d8bd
00000350: fe9a a03d fbd0 293d 1293 fa3d 013b 03bc
00000360: a9fa 3fbe 94e4 0cbc 5f1e 9e3d 154d 1ebd
00000370: 0fe2 9e3c 447a f9bc b7eb 973d 23c4 043e
00000380: d2e8 893d 442e 68bc b036 03ba b560 2ebe
00000390: cd9a 283e e09b 323d d1a5 22bc 4244 8d3f
000003a0: 21db 463f 11e9 4a3e 4ced 203f a43a 663e
000003b0: 76d4 913e ee9b 8cbd 9b06 253e 8edb 783d
000003c0: 949b cebe 9bae 973c aee2 c43e 524f d53e
000003d0: 3f38 f83d fcac c13e b0d0 383e c5f1 3c3e
000003e0: 323a 8e3e 8cb4 2abe 8b60 23be 81c8 cf3e
000003f0: 2845 993a 3b22 68be 2a92 10be cec4 1fbe

0.bias f4 [512]
0.22994195 0.009753854 -0.08003942 -0.037593774 -0.20644182 0.10347082 -0.072890565 -0.14738855
-0.032729894 0.028632306 -0.0024669233 -0.055007722 0.051318265 -0.13551877 0.16844574 0.06276435
0.058881994 0.054908596 -0.0011448632 -0.20886579 -0.22269431 0.18526682 -0.19044079 -0.014185695
-0.019374423 0.1403268 -0.20686209 0.009138361 0.070806675 -0.01689509 -0.18985161 -0.043441836
-0.026512144 -0.010882444 -0.13259844 -0.17206499 -0.057270307 -0.19732091 0.033459533 0.07709958
0.09549046 0.00059374206 -0.15551876 -0.032046482 -0.06881644 0.026789611 -0.02603053 0.06276116
-0.12485684 0.07714342 0.0027456721 -0.016431471 -0.06241192 -0.16786909 0.14633316 0.007077527
0.106498405 -0.056965053 -0.17576988 -0.32078448 0.13065884 -0.13597901 -0.0017947674 -0.16685744
-0.03173905 -0.07773583 -0.020868687 -0.37588212 0.03123457 0.010882071 -0.09645939 -0.21983674
-0.18873522 -0.17602608 0.080318294 -0.20490676 -0.15990336 0.08585217 -0.14366789 -0.015457756
-0.08249827 -0.17471437 0.009839476 -0.14316268 0.01579736 -0.034640905 -0.22972272 -0.20986722
-0.32410005 0.0088632945 -0.06592587 0.068478845 0.068807684 0.008528909 -0.039960805 -0.09998577
0.019715436 -0.04303781 0.26972634 -0.12258916 0.11423476 0.06920656 0.022710947 -0.16453594
-0.24028948 -0.1205854 -0.053980548 -0.054218277 0.16119806 -0.13467568 -0.08365158 0.10364181
-0.11058742 -0.13966593 -0.037171695 -0.26573232 0.0918997 -0.14017357 0.02299971 -0.011933326
-0.27566332 -0.02574639 -0.18362585 0.057917375 0.014252063 -0.25879946 0.14337899 -0.08950758
-0.19007055 -0.21145326 0.0006632723 -0.3003515 -0.18730845 -0.17865649 0.011796778 0.10532314
-0.022319835 -0.020500965 -0.4010514 -0.16893382 0.004965506 -0.10999288 -0.0798769 -0.0239426
0.11736784 0.0940586 -0.223613 -0.04241378 -0.16669005 -0.007155516 0.08164413 0.16098197
-0.09972696 0.08783126 0.07646152 -0.10378366 0.09021923 0.015207149 0.017069975 -0.10124258
-0.24531123 0.007743388 0.2228515 0.15885338 0.10280591 -0.13320829 -0.14609483 0.05148216
0.02966301 -0.006136227 0.10528787 -0.05827217 -0.05940584 0.100960255 -0.1057218 -0.10077082
-0.09487004 0.03290558 0.003918521 -0.10382775 -0.047560632 -0.016158275 -0.08932321 -0.32359898
-0.08165551 -0.19519456 -0.048078995 0.1508131 0.18745953 0.12172722 -0.09497187 -0.20453379
-0.08039662 -0.03927318 0.07607308 -0.23777583 0.08544479 0.10773632 -0.12947917 -0.07715761
-0.20242107 -0.058683895 -0.06684606 0.0689112 -0.053759646 -0.097100385 0.02845936 -0.062906556
-0.20542908 -0.104149066 0.01594876 0.0274817 -0.1825759 0.17702574 0.06287041 0.032643676
0.00091464055 0.15804614 0.07494838 0.18764292 0.14156838 -0.02389365 -0.20570235 -0.06923178
0.09953072 -0.22418411 -0.032378525 -0.060013577 -0.2914955 0.07953727 -0.04557907 0.15654641
-0.005406302 0.09625683 0.25344038 0.005402942 -0.18642597 -0.03796299 -0.089933895 -0.29056987
-0.2307 -0.08293362 -0.3390873 -0.0063118413 0.12770881 -0.08837874 0.17101812 0.0628136
0.08056876 -0.016418427 -0.14139 -0.0945137 -0.30947956 0.10107147 0.18255547 -0.23457032
00000000: e775 6b3e a1ce 1f3c b5eb a3bd eefb 19bd
00000010: 7c65 53be 82e8 d33d a647 95bd 06ed 16be
00000020: c80f 06bd 4c8e ea3c 1bac 21bb c74f 61bd
00000030: 1a33 523d 6fc5 0abe 0a7d 2c3e 988a 803d
00000040: 3f2e 713d d6e7 603d 3c0f 96ba eae0 55be
00000050: fa09 64be 96b6 3d3e e902 43be 1e6b 68bc
00000060: 1cb7 9ebc d4b1 0f3e a8d3 53be 10b9 153c
00000070: 1703 913d 9267 8abc 7668 42be 11f0 31bd
00000080: ff2f d9bc 474c 32bc e3c7 07be ce31 30be
00000090: 4594 6abd 7e0e 4abe dd0c 093d 62e6 9d3d
000000a0: 8190 c33d 5ba5 1b3a 4f40 1fbe 2c43 03bd
000000b0: a2ef 8cbd e375 db3c fa3d d5bc ec88 803d
000000c0: f1b4 ffbd 5ffd 9d3d bcf0 333b 4b9b 86bc
000000d0: a4a3 7fbd e0e5 2bbe 5cd8 153e 9aea e73b
000000e0: d61b da3d 3054 69bd 05fd 33be dd3d a4be
000000f0: 6ecb 053e 153e 0bbe 673e ebba addc 2abe
00000100: ce00 02bd f633 9fbd cff4 aabc 9f73 c0be
00000110: a4df ff3c b74a 323c 808c c5bd e21c 61be
00000120: ce43 41be 2e40 34be eb7d a43d 14d3 51be
00000130: b5bd 23be 43d3 af3d ad1d 13be 8742 7dbc
00000140: daf4 a8bd 53e8 32be c135 213c 3d99 12be
00000150: 7769 813c 9fe3 0dbd 6f3c 6bbe 6fe7 56be
00000160: 71f0 a5be 5a37 113c 2404 87bd a33e 8c3d
00000170: 0beb 8c3d d6bc 0b3c f1ad 23bd 57c5 ccbd
00000180: 4482 a13c 6a48 30bd 9219 8a3e 0710 fbbd
00000190: eaf3 e93d 2bbc 8d3d 4f0c ba3c 1c7c 28be
000001a0: 720e 76be 7af5 f6bd b51a 5dbd fc13 5ebd
000001b0: 1b11 253e 6ce8 09be 8551 abbd 2842 d43d
000001c0: a87b e2bd 9604 0fbe 5941 18bd 110e 88be
000001d0: e935 bc3d a989 0fbe e369 bc3c ff83 43bc
000001e0: be23 8dbe 18ea d2bc 6a08 3cbe c53a 6d3d
000001f0: 7c81 693c 5d81 84be f1d1 123e c04f b7bd
00000200: dba1 42be 3487 58be 73df 2d3a acc7 99be
00000210: c9cd 3fbe baf1 36be 4647 413c a9b3 d73d
00000220: 16d8 b6bc a4f1 a7bc 9c56 cdbe fdfc 2cbe
00000230: afb5 a23b f243 e1bd 8096 a3bd 4523 c4bc
00000240: 8d5e f03d cca1 c03d cefa 64be 12ba 2dbd
00000250: ccb0 2abe d278 eabb 0a35 a73d 75d8 243e
00000260: a63d ccbd e0e0 b33d db97 9c3d 878c d4bd
00000270: dcc4 b83d 6827 793c 55d6 8b3c 4558 cfbd
00000280: de32 7bbe 3fbc fd3b 2f33 643e 76aa 223e
00000290: e88b d23d c167 08be e299 15be f5de 523d
000002a0: d7ff f23c 6712 c9bb 2ba1 d73d cdae 6ebd
000002b0: 8a53 73bd 40c4 ce3d ac84 d8bd ef60 cebd
000002c0: 394b c2bd 00c8 063d f066 803b a5a3 d4bd
000002d0: f0ce 42bd 5c5e 84bc 16ef b6bd c4ae a5be
000002e0: 013b a7bd 15e1 47be 7bee 44bd c06e 1a3e
000002f0: 64f5 3f3e 1f4c f93d 9d80 c2bd 4e71 51be
00000300: fca6 a4bd eadc 20bd 34cc 9b3d 827b 73be
00000310: aefd ae3d dca4 dc3d 3096 04be cf04 9ebd
00000320: 7847 4fbe 865e 70bd 96e6 88bd 5121 8d3d
00000330: 1333 5cbd 91dc c6bd 9b23 e93c 27d5 80bd
00000340: 005c 52be 1b4c d5bd f9a6 823c 4d21 e13c
00000350: 2df5 3abe 3c46 353e 34c2 803d 60b5 053d
00000360: 7dc4 6f3a d9d6 213e 897e 993d 7725 403e
00000370: 4df7 103e 9ebc c3bc a3a3 52be 64c9 8dbd
00000380: c3d6 cb3d 8590 65be 589f 04bd ccd0 75bd
00000390: e63e 95be 70e4 a23d 1eb1 3abd b44d 203e
000003a0: 5927 b1bb 4d22 c53d f0c2 813e 2a0b b13b
000003b0: 73e6 3ebe 157f 1bbd 432f b8bd 93c5 94be
000003c0: 9f3c 6cbe 1ad9 a9bd da9c adbe 90d3 cebb
000003d0: 19c6 023e eaff b4bd 601f 2f3e 6ba4 803d
000003e0: 3c01 a53d f07f 86bc 8ac8 10be 6690 c1bd
000003f0: 1b74 9ebe 8ffe ce3d d2ef 3a3e 3433 70be

2.weight f4 [256, 512]
-0.10745427 0.035606764 -0.01998481 0.038544238 0.17413114 -0.07991779 0.01519008 -0.16666992
-0.03156349 -0.10687753 -0.29263744 0.05793388 -0.1264611 -0.01581144 0.11590335 0.29872844
0.2487775 0.31167516 -0.01412535 -0.020312231 -0.19954532 -0.060825177 -0.011405548 -0.051593024
-0.004502225 0.0130042145 -0.07982162 0.040383123 0.047464732 0.024785863 0.0897009 -0.13065022
0.10186672 -0.11540113 0.00084259926 0.057916176 0.0042301156 0.021617843 0.044611 -0.033198554
0.16473249 -0.032873742 -0.026908258 -0.022000419 0.06989819 0.13001253 -0.24941109 0.004202587
-0.028406473 -0.023886044 0.0132265715 0.26490813 0.23682927 0.040836524 -0.05440191 -0.122393556
-0.03364184 -0.0010564204 0.027448805 0.11662475 -0.04474418 -0.10423931 0.120119885 0.10388123
-0.08456275 -0.26217216 -0.091227084 -0.014792159 -0.016690843 -0.19666354 0.060185783 0.08984337
-0.07707093 -0.06628805 0.0054540862 0.11058548 0.09062115 0.019732447 -0.06497446 0.11214662
0.32838467 0.07524695 -0.3144681 -0.13827793 0.037624728 0.03827807 -0.033363443 0.09770568
-0.079252824 0.32031593 -0.009299732 0.06415234 0.12793358 0.024321299 0.21510969 -0.025223773
0.051269002 -0.07241268 -0.057250433 -0.11951163 -0.024524905 0.09403279 -0.066579245 -0.16004857
-0.031223545 -0.09121518 -0.0637115 0.042576693 -0.15988582 -0.040220547 -0.017922005 0.014409466
0.042607676 0.04281434 0.038871896 -0.050734267 0.04590648 0.12119084 0.15518977 0.08594062
-0.08365907 0.033684663 0.008014318 -0.007267521 0.11743628 -0.06275112 -0.07762016 -0.10177036
-0.016319066 0.052693684 0.11909657 0.111828655 -0.016765926 0.029432252 -0.15111022 0.048192065
-0.059626002 0.028858997 -0.11383956 -0.011782659 0.00825231 0.045246784 -0.101534195 0.17720918
0.11211277 -0.1589673 -0.10816291 0.00027485387 0.0897932 0.012674449 -0.14195658 0.004331745
-0.0058005145 0.46288246 -0.021612903 0.027425613 0.17644988 0.123227164 0.016244927 0.03975053
-0.10727889 -0.031448953 0.072430134 0.017083734 -0.03076885 -0.16879703 -0.20652409 -0.08231536
-0.11966635 -0.12436698 0.07372387 -0.076757066 0.17056921 -0.04476476 0.04885312 -0.027474348
-0.05938677 0.04606262 -0.03899482 0.13062938 0.026564734 0.064952515 0.065675914 0.10980139
-0.18477698 -0.22261868 -0.082190864 -0.10989943 -0.06100947 0.17643836 0.119089976 0.0073671727
-0.00737655 0.02117603 0.07419346 -0.041594148 0.02326637 0.12719014 0.04411974 -0.14788772
-0.09693696 -0.046940945 0.072944105 -0.049839415 -0.08798398 -0.14154018 -0.055612754 -0.18431002
0.037662003 -0.03976302 0.0522142 0.058446936 -0.06889102 -0.014236295 -0.03032499 -0.07984962
0.13956325 -0.0034076364 -0.04815046 0.07809039 0.11533775 0.01656003 -0.080930546 -0.05025434
0.16410783 -0.095148794 -0.001468645 -0.08996813 -0.062264197 -0.090187885 -0.051106893 0.04534104
-0.13361548 0.07030725 0.11840462 0.029112222 -0.049216006 0.07864558 0.23082551 0.011732739
0.043407723 0.0113862045 -0.13769525 -0.05803693 0.065246426 0.07733976 0.10143821 -0.09162773
0.15161254 0.1457333 -0.21182993 0.039384373 -0.14153537 0.041217513 -0.11097606 0.064335935
00000000: fc10 dcbd 66d8 113d 2fb7 a3bc 90e0 1d3d
00000010: 6f4f 323e f0ab a3bd d0df 783c 85ab 2abe
00000020: b848 01bd 9be2 dabd 93d4 95be 134c 6d3d
00000030: 057f 01be fe86 81bc bc5e ed3d eff2 983e
00000040: 87bf 7e3e e393 9f3e 036e 67bc d665 a6bc
00000050: 9c55 4cbe d223 79bd 56de 3abc 3553 53bd
00000060: 6787 93bb a10f 553c 8479 a3bd c668 253d
00000070: 616a 423d b90b cb3c 1bb5 b73d 2cc9 05be
00000080: 809f d03d 6d57 ecbd e1e1 5c3a 8339 6d3d
00000090: c89c 8a3b e717 b13c 06ba 363d 35fb 07bd
000000a0: a2af 283e 9ea6 06bd b56e dcbc 393a b4bc
000000b0: c826 8f3d 0122 053e 9f65 7fbe dbb5 893b
000000c0: b1b4 e8bc aaac c3bc 43b4 583c 0aa2 873e
000000d0: 5f83 723e 3344 273d 8ad4 5ebd 79a9 fabd
000000e0: 07cc 09bd 9677 8aba 51dc e03c f5d8 ee3d
000000f0: ac45 37bd 6b7b d5bd 6a01 f63d afbf d43d
00000100: 3c2f adbd 6e3b 86be 44d5 babd d05a 72bc
00000110: 3cbb 88bc 2b62 49be 5e85 763d cdff b73d
00000120: 5dd7 9dbd 07c2 87bd 31b8 b23b a47a e23d
00000130: 9597 b93d f1a5 a13c 5411 85bd 21ad e53d
00000140: 0922 a83e 131b 9a3d f601 a1be bb98 0dbe
00000150: 631c 1a3d 77c9 1c3d 1ba8 08bd ea19 c83d
00000160: 4e4f a2bd 7300 a43e e75d 18bc 4d62 833d
00000170: 0501 033e 763d c73c b745 5c3e 16a2 cebc
00000180: 72ff 513d 194d 94bd 6e7f 6abd 83c2 f4bd
00000190: 74e8 c8bc 4394 c03d b35a 88bd c6e3 23be
000001a0: 85c8 ffbc 06cf babd 2d7b 82bd e664 2e3d
000001b0: 1cb9 23be 4dbe 24bd 2bd1 92bc ae15 6c3c
000001c0: 6385 2e3d 175e 2f3d 2338 1f3d bcce 4fbd
000001d0: 6f08 3c3d e732 f83d 11ea 1e3e a301 b03d
000001e0: 7255 abbd eef8 093d 7c4e 033c 6324 eebb
000001f0: 6f82 f03d a983 80bd 52f7 9ebd fa6c d0bd
00000200: 90af 85bc 55d5 573d e7e8 f33d 6c06 e53d
00000210: b258 89bc e81b f13c a3bc 1abe 0b65 453d
00000220: 653a 74bd b469 ec3c b724 e9bd 0e0c 41bc
00000230: b234 073c b154 393d 29f1 cfbd 5376 353e
00000240: 619b e53d 53c8 22be 8484 ddbd 431a 9039
00000250: 7fe5 b73d 7ea8 4f3c 115d 11be 50f1 8d3b
00000260: 3e12 bebb eefe ec3e 8b0d b1bc aeab e03c
00000270: 47af 343e 865e fc3d 1514 853c 74d1 223d
00000280: 09b5 dbbd 9ed0 00bd 4056 943d 30f3 8b3c
00000290: f50e fcbc 21d9 2cbe 0d7b 53be f594 a8bd
000002a0: a213 f5bd 1db4 febd 8afc 963d cf32 9dbd
000002b0: b2a9 2e3e 415b 37bd 361a 483d e211 e1bc
000002c0: 8b3f 73bd 28ac 3c3d 08b9 1fbd b5c3 053e
000002d0: 499e d93c d305 853d 1881 863d 8ddf e03d
000002e0: 2d36 3dbe 27f6 63be af53 a8bd f412 e1bd
000002f0: 11e5 79bd 42ac 343e 72e5 f33d 5368 f13b
00000300: fdb6 f1bb 5b79 ad3c bef2 973d a05e 2abd
00000310: 1d99 be3c 223e 023e e7b6 343d e16f 17be
00000320: e386 c6bd 2645 40bd b863 953d 6a24 4cbd
00000330: f230 b4bd e9ef 10be 33ca 63bd c4bb 3cbe
00000340: 7943 1a3d 8cde 22bd 8fde 553d 0e66 6f3d
00000350: bc16 8dbd 593f 69bc 1d6c f8bc 3388 a3bd
00000360: abe9 0e3e a752 5fbb 6b39 45bd dbed 9f3d
00000370: 3336 ec3d e6a8 873c eabe a5bd 7fd7 4dbd
00000380: e20b 283e 5fdd c2bd 8c7f c0ba 3641 b8bd
00000390: be08 7fbd 6db4 b8bd 7655 51bd 87b7 393d
000003a0: 7fd2 08be 3ffd 8f3d 1f7e f23d c17c ee3c
000003b0: b996 49bd ef10 a13d 865d 6c3e ad3a 403c
000003c0: 4ccc 313d 348d 3a3c fcff 0cbe 22b8 6dbd
000003d0: eb9f 853d 4f64 9e3d d6be cf3d 52a7 bbbd
000003e0: 5140 1b3e 1c3b 153e f2e9 58be 8251 213d
000003f0: a6ee 10be b2d3 283d 6b47 e3bd 8fc2 833d

2.bias f4 [256]
0.103664525 -0.43491068 -0.120216645 -0.070328586 -0.13052486 -0.01397441 -0.23782076 0.004978188
-0.15692645 -0.08802321 -0.099856764 -0.1616076 -0.054345325 -0.18497145 -0.2045397 -0.057149887
-0.11092581 -0.11371873 -0.09537369 -0.15883577 -0.09701224 -0.029528052 -0.06181105 -0.2219288
-0.11905172 -0.08672468 -0.08041261 -0.113169074 -0.27113676 0.038224984 -0.17232937 -0.20146
-0.15452674 -0.14365394 -0.050095387 -0.20594455 -0.27016157 -0.26150724 -0.05040393 -0.16110152
-0.17703255 -0.13787636 -0.06640156 -0.031223519 -0.038769968 -0.10269743 -0.08158752 -0.18303268
-0.13234891 0.016380057 -0.12775718 -0.12507787 -0.03146767 -0.2368857 -0.23716012 -0.3810368
-0.19835597 -0.1631802 -0.2763232 -0.14615901 -0.2278893 -0.17661005 -0.22221978 -0.09648085
-0.14983055 -0.14407396 -0.2519903 -0.15855305 -0.17729494 -0.1012755 -0.23778304 -0.18085016
-0.08531101 -0.15738694 -0.15222818 -0.12928224 -0.034009073 -0.22953795 -0.030245546 -0.118984744
-0.13024314 -0.085273825 -0.003005003 -0.015614526 -0.059322163 -0.16612898 -0.20709571 -0.1458669
-0.07936847 -0.08592759 0.0070068217 -0.17642982 -0.18650034 -0.092572466 -0.078173555 -0.02540526
-0.13217032 -0.1837829 -0.1852576 0.04936124 -0.11566206 -0.16156724 -0.09328984 -0.084539056
-0.111852676 -0.08384263 -0.23764214 -0.1283623 -0.14818886 -0.2869226 -0.2631021 0.01085975
-0.1554069 -0.08612418 -0.050067976 0.020111611 -0.007294023 -0.23050842 -0.059794 -0.022148408
-0.024112253 -0.112377465 -0.2528719 -0.15622175 -0.20940013 -0.16546932 -0.18693306 -0.22734264
-0.122247644 -0.037424836 -0.052660137 -0.24697094 -0.2655106 -0.08065322 -0.2567278 -0.078814395
-0.14738767 -0.13660945 -0.14759107 -0.020362116 -0.07339093 -0.20237035 -0.17136757 -0.18738867
-0.26422507 -0.13802949 0.004863075 -0.14991464 -0.1836894 -0.11137258 -0.22489496 -0.05391939
0.0040186043 -0.057545353 -0.07439543 -0.19024728 -0.1472251 -0.10082613 0.01440144 -0.015661178
-0.062180515 -0.15910831 -0.28752804 -0.09340942 -0.07648509 0.09168075 -0.10935662 -0.2006681
-0.18656886 -0.11457874 -0.10932857 -0.07829994 -0.1825836 -0.1598284 -0.051322307 -0.15884484
-0.08290259 0.003524025 -0.11119485 -0.22704694 -0.12926957 0.03556163 -0.06333437 -0.11984609
-0.038696725 -0.16567142 -0.062253498 -0.19898205 -0.11847485 -0.25999272 -0.13887385 -0.1637992
-0.11253282 -0.10702551 -0.12774722 -0.010203067 -0.020899175 -0.08569701 -0.2544916 -0.15815516
-0.25635788 -0.09897406 -0.12848756 -0.13716273 0.024944171 -0.046850268 -0.1468832 -0.026022984
-0.14394261 -0.017208965 -0.21694423 -0.2504413 -0.14938176 -0.07338392 -0.058246166 -0.15082835
0.084015936 -0.11991454 -0.18431607 -0.11502281 -0.07676313 -0.14353262 -0.16112626 -0.21864201
-0.099509686 -0.18554397 -0.26030558 -0.0150760105 -0.29036725 -0.20065883 0.018664295 -0.16650379
-0.16870728 -0.064835384 -0.090939716 -0.15832478 -0.32636592 -0.0048314943 -0.039686948 -0.03929202
-0.13810766 -0.19362393 -0.07256038 -0.08344619 -0.261596 -0.1897539 -0.17482173 -0.14422616
-0.2050392 -0.052539967 -0.050701093 -0.15390882 -0.20576629 -0.121844605 -0.28018513 -0.03170365
00000000: 114e d43d 9dac debe 2534 f6bd 6f08 90bd
00000010: 4fa8 05be ecf4 64bc 4987 73be 1120 a33b
00000020: 54b1 20be 8345 b4bd b481 ccbd 767c 25be
00000030: 3499 5ebd 2869 3dbe db72 51be 0016 6abd
00000040: 122d e3bd 5ee5 e8bd 4853 c3bd d8a5 22be
00000050: 5aae c6bd d0e4 f1bc 952d 7dbd 4e41 63be
00000060: 63d1 f3bd b69c b1bd 5eaf a4bd 30c5 e7bd
00000070: 70d2 8abe cd91 1c3d 1c77 30be 884b 4ebe
00000080: 423c 1ebe 051a 13be d230 4dbd 21e3 52be
00000090: 9e52 8abe 47e4 85be 5a74 4ebd ccf7 24be
000000a0: 0548 35be 762f 0dbe 8bfd 87bd 77c8 ffbc
000000b0: 42cd 1ebd 0853 d2bd 5c17 a7bd eb6c 3bbe
000000c0: 7986 07be 782f 863c c7d2 02be 6a14 00be
000000d0: 3ee4 00bd 2a92 72be 1ada 72be 4117 c3be
000000e0: d41d 4bbe b618 27be 3c7a 8dbe b5aa 15be
000000f0: d05b 69be 44d9 34be 958d 63be c097 c5bd
00000100: 2e6d 19be 2088 13be df04 81be bb5b 22be
00000110: ce8c 35be 8869 cfbd 667d 73be c930 39be
00000120: 8ab7 aebd 0b2a 21be b4e1 1bbe 9062 04be
00000130: 194d 0bbd ff0b 6bbe 82c5 f7bc 46ae f3bd
00000140: 755e 05be 0ba4 aebd 96ef 44bb 12d4 7fbc
00000150: ccfb 72bd b71d 2abe e610 54be 225e 15be
00000160: f08b a2bd cefa afbd 7b99 e53b 05aa 34be
00000170: f2f9 3ebe a296 bdbd 7519 a0bd b11e d0bc
00000180: a857 07be 9631 3cbe 2bb4 3dbe 032f 4a3d
00000190: 3be0 ecbd e271 25be be0e bfbd d022 adbd
000001a0: 0413 e5bd afb5 abbd 7658 73be 6871 03be
000001b0: d2be 17be 85e7 92be 52b5 86be 18ed 313c
000001c0: fd22 1fbe e061 b0bd 1414 4dbd 1bc1 a43c
000001d0: b302 efbb 660a 6cbe 8eea 74bd 9470 b5bc
000001e0: 0f87 c5bc 2826 e6bd 6d78 81be 98f8 1fbe
000001f0: fd6c 56be ca70 29be 616b 3fbe 82cc 68be
00000200: f95c fabd c94a 19bd 28b2 57bd f3e5 7cbe
00000210: 01f1 87be 842d a5bd d471 83be 7169 a1bd
00000220: cbec 16be 59e3 0bbe 1d22 17be 74ce a6bc
00000230: fc4d 96bd 2c3a 4fbe fb7a 2fbe d1e2 3fbe
00000240: 8248 87be 9a57 0dbe 6e5a 9f3b 3983 19be
00000250: 1319 3cbe 4f17 e4bd dd4a 66be 94da 5cbd
00000260: 7fae 833b adb4 6bbd a25c 98bd 2fd0 42be
00000270: 2dc2 16be ee7d cebd 04f4 6b3c df4b 80bc
00000280: ffb0 7ebd 4aed 22be e036 93be 704d bfbd
00000290: 37a4 9cbd 1ec3 bb3d 5df6 dfbd f07b 4dbe
000002a0: e80b 3fbe 42a8 eabd a8e7 dfbd b85b a0bd
000002b0: 32f7 3abe 0eaa 23be 5737 52bd 39a8 22be
000002c0: d5c8 a9bd 54f3 663b 20ba e3bd fe7e 68be
000002d0: 3e5f 04be 12a9 113d 73b5 81bd de71 f5bd
000002e0: 7580 1ebd c5a5 29be 86fd 7ebd f3c1 4bbe
000002f0: f1a2 f2bd c41d 85be f234 0ebe faba 27be
00000300: 9b77 e6bd 3130 dbbd 2bd0 02be c42a 27bc
00000310: bf34 abbc ea81 afbd b94c 82be 6df3 21be
00000320: 5741 83be e9b2 cabd 3e92 03be 6374 0cbe
00000330: b857 cc3c 11e6 3fbd 8d68 16be 272e d5bc
00000340: b165 13be d1f9 8cbc a126 5ebe d839 80be
00000350: 88f7 18be 4f4a 96bd 8893 6ebd bf72 1abe
00000360: 8c10 ac3d c195 f5bd 5abd 3cbe 1491 ebbd
00000370: fd35 9dbd 37fa 12be 48fe 24be b1e3 5fbe
00000380: bccb cbbd 3dff 3dbe c646 85be 5f01 77bc
00000390: 04ab 94be 8279 4dbe dde5 983c f87f 2abe
000003a0: 9ac1 2cbe 6ac8 84bd 9a3e babd e41f 22be
000003b0: 6f19 a7be 8351 9ebb c88e 22bd abf0 20bd
000003c0: 186c 0dbe 5a45 46be 899a 94bd d6e5 aabd
000003d0: e9ef 85be d94e 42be 7804 33be 06b0 13be
000003e0: ccf5 51be 2634 57bd f3ab 4fbd 469a 1dbe
000003f0: 66b4 52be aa89 f9bd 6d74 8fbe b0db 01bd

4.weight f4 [128, 256]
0.0764497 0.30860507 -0.120102294 -0.041218944 -0.17880557 0.00792536 0.09131215 -0.098180786
-0.038015515 -0.09281711 0.028028458 -0.017559424 0.119199164 -0.102380365 -0.020090224 0.025131298
0.037433855 0.16463971 -0.05832145 0.019242285 -0.0791305 0.03717724 -0.016652076 0.008496848
0.024898821 -0.05327327 0.021080269 0.004611571 0.03572701 -0.037075385 -0.0023202496 -0.06534283
-0.026703427 0.116039455 0.079942845 -0.11613347 -0.08845007 0.11126161 -0.07062843 -0.13749202
-0.16199306 0.00069758465 0.018625125 -0.05333832 -0.049126584 0.16566476 0.00063544064 -0.0018735373
-0.00953471 0.060898583 -0.023218103 0.05530707 0.05482298 -0.18683974 -0.28504962 -0.02207316
-0.10142686 -0.005858437 0.15811066 0.037076846 0.11587777 -0.23572992 0.08647397 -0.10710731
0.1347026 -0.06708938 -0.23885636 -0.07653817 -0.013308996 0.21236984 -0.13524763 0.020027969
0.01884291 0.07381145 -0.14996243 0.028728578 -0.031871166 0.12601274 -0.14270963 0.021948656
0.052397106 -0.03383104 -0.10150774 0.01616007 -0.09094886 -0.021587148 0.20249288 -0.030580759
-0.08330271 0.20859924 -0.025082212 -0.023855673 0.014949997 -0.0363324 -0.008887204 -0.018529642
0.16865197 0.02133204 -0.01553222 0.065083966 -0.28131008 -0.016823277 -0.25374836 -0.08476422
0.22341317 0.09516506 -0.019681115 0.03473424 -0.10607189 0.19091296 -0.0068884958 -0.14817858
0.08169183 -0.03693287 0.012795358 -0.031328466 0.10008503 -0.19313496 -0.18647994 -0.0076551493
-0.1337665 0.10757418 0.01838616 -0.100498356 -0.017540582 0.08414016 -0.15494071 0.03792629
-0.23540443 -0.12238861 0.032864705 -0.062267847 -0.17265432 -0.0224946 0.019977292 -0.21913408
-0.20622782 -0.17012386 0.13591753 -0.18718007 -0.003956246 0.06832071 -0.06273245 -0.21113782
-0.0055814036 -0.11660224 -0.08280033 -0.20265995 0.16397995 -0.16532533 -0.026159635 -0.022470303
0.037941493 0.051923547 -0.025325201 -0.07370852 0.1526796 -0.05978905 -0.010538683 -0.028976334
-0.055196237 -0.079061374 -0.105407864 -0.065078005 0.010649116 -0.13207167 -0.005364969 0.024803946
0.08178541 -0.054827582 -0.015732117 0.2158866 0.08009367 0.22431321 -0.054835573 -0.0014553005
-0.093166865 0.040912364 0.08851001 -0.05969506 0.0546381 -0.0009838388 -0.012552189 0.0074279704
-0.043673944 -0.03243921 -0.010962385 -0.07288108 -0.010949198 -0.11810078 0.06710323 -0.077587456
0.019503273 -0.0009916046 -0.12848058 0.003956844 -0.15542209 0.103171445 0.007357037 -0.11236932
0.084976606 0.0806641 -0.087614864 0.0385392 0.089153394 -0.10565052 0.18324429 0.01427867
0.23649432 -0.043632004 -0.23042239 0.041830596 -0.15197502 0.022997165 -0.22912648 -0.12339505
-0.18346676 -0.11631106 0.015856253 -0.025089726 0.079571396 -0.023353025 -0.05093027 0.17822084
-0.076534666 0.13472503 0.016959775 -0.01464276 0.07424439 -0.025437756 -0.1796258 0.16276573
0.05181365 -0.0042306227 0.013896134 -0.014631401 0.08816284 0.01437558 0.05016136 -0.0109964805
0.10666606 -0.08177442 0.06968412 -0.036871552 -0.098477274 -0.06493482 -0.081782766 0.12469272
0.17301811 0.013322851 0.04921971 -0.024348328 0.032581687 0.2531247 0.12556216 -0.07762302
00000000: a991 9c3d 7c01 9e3e 31f8 f5bd 32d5 28bd
00000010: cf18 37be 5fd9 013c dd01 bb3d 0213 c9bd
00000020: 28b6 1bbd e616 bebd f09b e53c c8d8 8fbc
00000030: b11e f43d ccac d1bd 4194 a4bc 27e0 cd3c
00000040: 3e54 193d 5097 283e 79e2 6ebd ffa1 9d3c
00000050: 2c0f a2bd 2947 183d ef69 88bc 5d36 0b3c
00000060: 9df8 cb3c 1335 5abd 87b0 ac3c a91c 973b
00000070: 7c56 123d 5cdc 17bd 540f 18bb 76d2 85bd
00000080: 25c1 dabc 18a6 ed3d 13b9 a33d 62d7 edbd
00000090: 4f25 b5bd 21dd e33d a3a5 90bd b5ca 0cbe
000000a0: 82e1 25be 1dde 363a b893 983c 4879 5abd
000000b0: f538 49bd 06a4 293e b393 263a 7b91 f5ba
000000c0: 7937 1cbc cb70 793d e433 bebc ab89 623d
000000d0: 108e 603d eb52 3fbe 06f2 91be c6d2 b4bc
000000e0: e3b8 cfbd 22f8 bfbb c3e7 213e e4dd 173d
000000f0: 5351 ed3d 2f63 71be 4419 b13d 145b dbbd
00000100: 7aef 093e 2866 89bd c396 74be 0bc0 9cbd
00000110: fa0d 5abc 7b77 593e 5b7e 0abe b211 a43c
00000120: 725c 9a3c 752a 973d c08f 19be 3258 eb3c
00000130: 578b 02bd 7c09 013e 7922 12be abcd b33c
00000140: 599e 563d 6b92 0abd 4ae3 cfbd 2062 843c
00000150: 6543 babd 88d7 b0bc 4b5a 4f3e 8084 fabc
00000160: 9c9a aabd 0a9b 553e 3679 cdbc f96c c3bc
00000170: d5f0 743c 48d1 14bd a39b 11bc 7acb 97bc
00000180: 1ab3 2c3e 88c0 ae3c da7a 7ebc be4a 853d
00000190: e007 90be f8d0 89bc 4eeb 81be dd98 adbd
000001a0: 6cc6 643e e6e5 c23d 4a3a a1bc 7e45 0e3d
000001b0: 383c d9bd b07e 433e e4b8 e1bb 20bc 17be
000001c0: 0c4e a73d ec46 17bd 9fa3 513c 4752 00bd
000001d0: 61f9 cc3d 2cc5 45be 99f4 3ebe 0cd8 fabb
000001e0: 16fa 08be da4f dc3d 929e 963c 15d2 cdbd
000001f0: 44b1 8fbc ad51 ac3d c7a8 1ebe 9958 1b3d
00000200: dc0d 71be e1a6 fabd 249d 063d 920c 7fbd
00000210: 4bcc 30be 9846 b8bc 6ba7 a33c af64 60be
00000220: 632d 53be f334 2ebe f72d 0b3e 22ac 3fbe
00000230: 66a3 81bb baeb 8b3d df79 80bd 8334 58be
00000240: 35e4 b6bb 28cd eebd 3893 a9bd 1786 4fbe
00000250: 5cea 273e 0b4b 29be bb4c d6bc a413 b8bc
00000260: 8a68 1b3d c9ad 543d cc76 cfbc 7ef4 96bd
00000270: 0b58 1c3e 5de5 74bd 71aa 2cbc c75f edbc
00000280: 7315 62bd eeea a1bd 14e0 d7bd 9e47 85bd
00000290: a179 2e3c cc3d 07be 9fcc afbb a531 cb3c
000002a0: 1c7f a73d e392 60bd a4e0 80bc 6011 5d3e
000002b0: 2608 a43d 5db2 653e 449b 60bd c8bf beba
000002c0: 45ce bebd b993 273d bc44 b53d cf82 74bd
000002d0: 33cc 5f3d 27f4 80ba b2a7 4dbc 5566 f33b
000002e0: 73e3 32bd fade 04bd 939b 33bc ad42 95bd
000002f0: 4464 33bc d2de f1bd 6b6d 893d 2ce6 9ebd
00000300: 54c5 9f3c bbf8 81ba 6a90 03be 6aa8 813b
00000310: f826 1fbe 8d4b d33d 4d13 f13b e321 e6bd
00000320: 3708 ae3d 3833 a53d 6c6f b3bd 48db 1d3d
00000330: 0e96 b63d 4d5f d8bd 64a4 3b3e 15f1 693c
00000340: 912b 723e 79b7 32bd d9f3 6bbe 8f56 2b3d
00000350: 579f 1bbe 8d64 bc3c 22a0 6abe 8bb6 fcbd
00000360: b6de 3bbe 7e34 eebd f9e4 813c f888 cdbc
00000370: 54f6 a23d d84e bfbc 429c 50bd 867f 363e
00000380: 35be 9cbd 5cf5 093e 3aef 8a3c 30e8 6fbc
00000390: 710d 983d d762 d0bc d3ef 37be 0fac 263e
000003a0: 8d3a 543d 09a1 8abb 9cac 633c 8bb8 6fbc
000003b0: b88e b43d 8d87 6b3c 0076 4d3d 952a 34bc
000003c0: bc73 da3d 5979 a7bd 8cb6 8e3d a006 17bd
000003d0: 74ae c9bd 8cfc 84bd b97d a7bd e65e ff3d
000003e0: a92b 313e 1648 5a3c 9b9a 493d 2576 c7bc
000003f0: 6074 053d 9099 813e 5e93 003e d1f8 9ebd

4.bias f4 [128]
-0.091289625 -0.17718002 -0.21762642 -0.15771733 -0.1969809 -0.09073782 -0.039078873 -0.19480366
-0.2110626 -0.27898172 -0.21679945 -0.12899521 -0.22712891 -0.2137003 -0.06713636 -0.07372318
-0.12819599 -0.13023543 -0.14842907 -0.107960366 -0.33423412 -0.20020819 -0.1270019 -0.058488283
-0.051609702 -0.16449597 -0.03332247 -0.16699992 -0.05412873 -0.17203629 -0.17643188 -0.19432174
-0.25539944 -0.0685105 -0.095474504 -0.040606357 -0.13810721 -0.06478853 -0.20236716 -0.06284607
0.0149316555 -0.18601413 -0.033543102 -0.0886193 -0.08249377 -0.19942528 -0.11450694 -0.16397887
-0.11588876 -0.12191908 -0.0948682 -0.15356502 -0.20578998 -0.11236426 -0.06430537 -0.06818761
-0.099433355 -0.11403498 -0.0836339 -0.14645624 -0.1431746 -0.16332524 -0.08854499 -0.005452885
-0.04412404 -0.06802686 -0.08115968 -0.14173669 -0.08214292 -0.19201651 -0.10786599 -0.051005844
-0.09325722 -0.11771472 -0.06337465 -0.26924488 -0.1318459 -0.13802572 -0.30817005 -0.23425412
-0.13605554 -0.238687 -0.1381631 -0.08012565 -0.0776498 -0.12972625 0.040123735 -0.2630534
-0.051001437 -0.123416185 -0.09914033 -0.1229432 -0.012092636 -0.14763689 -0.11570012 -0.15309714
-0.08509401 -0.13997914 -0.0887881 -0.118873715 -0.08043903 -0.094908156 -0.1848253 -0.08547234
-0.17123948 -0.11319537 -0.1695068 -0.18295325 -0.049933665 -0.11138365 -0.1211984 0.051563673
-0.050554994 -0.02280651 -0.086358234 -0.1345868 -0.19191624 -0.13290028 -0.14601913 -0.16148198
-0.19346844 -0.14082095 -0.116867356 -0.11255344 -0.074807346 -0.14091985 -0.16335413 -0.12756112
00000000: 0ef6 babd ae6e 35be 76d9 5ebe a780 21be
00000010: 5cb5 49be c0d4 b9bd 2b11 20bd 9c7a 47be
00000020: cb20 58be b1d6 8ebe ad00 5ebe 5217 04be
00000030: 7b94 68be 40d4 5abe ca7e 89bd 2efc 96bd
00000040: cf45 03be 705c 05be cafd 17be 531a ddbd
00000050: bc20 abbe 6003 4dbe c90c 02be 6991 6fbd
00000060: b264 53bd a271 28be 247d 08bd 0702 2bbe
00000070: 16b6 5dbd 482a 30be 8faa 34be 47fc 46be
00000080: b7c3 82be 3c4f 8cbd 2388 c3bd da52 26bd
00000090: fa6b 0dbe d9af 84bd 5639 4fbe 71b5 80bd
000000a0: e7a3 743c 7d7a 3ebe 7e64 09bd 097e b5bd
000000b0: 7ef2 a8bd 2436 4cbe 9d82 eabd 14ea 27be
000000c0: 1657 edbd b6b0 f9bd 424a c2bd 2640 1dbe
000000d0: 9cba 52be 3c1f e6bd 89b2 83bd f2a5 8bbd
000000e0: b7a3 cbbd 2c8b e9bd 4048 abbd a0f8 15be
000000f0: 5d9c 12be bb3e 27be 1357 b5bd 1dae b2bb
00000100: 69bb 34bd ab51 8bbd 0c37 a6bd 6c23 11be
00000110: 8c3a a8bd fa9f 44be d8e8 dcbd 81eb 50bd
00000120: a4fd bebd 6a14 f1bd 92ca 81bd 77da 89be
00000130: 9d02 07be 9d56 0dbe 77c8 9dbe 50e0 6fbe
00000140: 2552 0bbe 5d6a 74be a17a 0dbe eb18 a4bd
00000150: dc06 9fbd f5d6 04be c958 243d efae 86be
00000160: e2e6 50bd a0c1 fcbd 160a cbbd a5c9 fbbd
00000170: 3120 46bc 202e 17be 2ff4 ecbd 7fc5 1cbe
00000180: c545 aebd b156 0fbe 89d6 b5bd 1074 f3bd
00000190: 38bd a4bd 355f c2bd d842 3dbe 1f0c afbd
000001a0: 6759 2fbe f9d2 e7bd 3193 2dbe 1958 3bbe
000001b0: 3e87 4cbd 1c1d e4bd de36 f8bd 6e34 533d
000001c0: c112 4fbd b8d4 babc 96dc b0bd 1fd1 09be
000001d0: b185 44be 0317 08be 0a86 15be 885b 25be
000001e0: 971c 46be 5e33 10be 2758 efbd 6b82 e6bd
000001f0: 9834 99bd 4b4d 10be 4e46 27be 629f 02be

6.weight f4 [12, 128]
0.010158557 0.023953658 0.04793188 -0.021166207 -0.010100576 0.032419533 0.021957275 -0.00097280456
-0.0476449 0.019745069 0.04245876 0.0062596384 0.030101009 -0.03361685 5.4898486e-05 0.01076563
0.007405841 -0.13221157 -0.016830863 -0.050797664 -0.029290823 0.062676266 -0.04693369 -0.01336335
-0.021030877 -0.008213377 0.007659404 -0.000870055 0.025173306 0.0035246923 -0.021603432 0.011253187
-0.021231757 -0.019065347 -0.012858795 0.008532788 0.121062726 0.059210725 0.016475733 -0.024724258
0.010730731 0.0033827515 0.12392283 -0.03190416 0.0061007333 0.023993392 -0.0069800997 -0.01332103
-0.0119329905 0.021097118 0.01924133 0.016409509 -0.052180775 -0.026070755 0.023224827 -0.0128193665
-0.012178483 0.04145817 0.0012182235 0.054888573 0.0064978283 0.029472832 0.014433108 -0.04277142
0.008078002 0.026690848 -0.019551529 -0.011659282 0.016823411 0.010736013 0.016507868 0.033857834
0.0194451 -0.013897813 0.044528287 -0.024298001 -0.05689501 0.010553311 0.033850078 0.016623812
-0.015862191 -0.0019107118 0.1365134 0.019730343 -0.050566453 0.016478207 0.0011079982 -0.011798173
0.013530567 0.01565681 -0.0149409 -0.06497328 -0.15069151 -0.024856033 -0.016789384 0.027154038
-0.00608932 -0.030235626 0.008569777 -0.0031035375 -0.00019049969 0.013461501 -0.047633786 0.027417721
0.024610762 0.01096675 -0.0051418426 -0.04211136 -0.043095447 -0.03878736 -0.019580787 -0.010608877
-0.011957464 -0.012346868 0.010653314 -0.0566197 0.107311614 0.025788788 -0.088875696 -0.0059850444
-0.012074099 -0.065687016 0.027480854 -0.14078437 -0.06452949 -0.047067303 -0.011768456 -0.013513932
0.0071299947 0.030013742 0.035889823 -0.00656023 -0.0071392898 0.021854777 0.039688297 0.010544583
-0.027514232 -0.038971905 -0.0017845415 0.046331145 0.013604702 -0.06235862 -0.013163249 0.021504568
0.07567983 -0.16741337 0.03918001 -0.07051574 -0.046797827 0.029518835 0.0957633 -0.002897195
-0.007852631 -0.013287085 -0.017681286 0.0076608243 -0.01937736 -0.0047085444 0.015926853 0.20724188
-0.021854986 -0.009761105 0.076813065 0.013847346 -0.045637805 0.019650197 -0.0342314 -0.0020195693
0.00945186 0.1619347 -0.01902163 -0.0021352526 -0.025871003 -0.011174194 0.02690367 0.012286297
-0.061898265 -0.1198633 -0.060738105 -0.0012336296 0.01721375 -0.10707115 0.01681298 0.0052416287
0.034777567 0.023293013 0.009589776 0.0018141605 0.042643894 0.05459184 -0.035261944 -0.028832695
-0.0045057265 0.027321525 -0.0062166536 -0.017611666 -0.0125 0.057160992 0.003930936 -0.057859845
-0.07734028 -0.0010250625 -0.06556821 -0.03358719 0.016039962 0.00061045756 0.0007691886 0.039018676
0.00112013 0.0073598777 0.12561928 0.0015244844 0.008318333 0.00448441 0.014440845 -0.05910989
0.03825033 -0.017894449 -0.007807539 0.03703875 0.0034332075 -0.052398268 -0.010823749 -0.0008449578
0.01544322 -0.03574811 0.061555706 -0.023160359 -0.00062623806 0.032630373 -0.20662276 -0.026801728
-0.00072253414 0.02012426 -0.027472667 -0.0019261432 -0.038016103 0.10628845 0.0077798967 0.010704754
-0.07060065 -0.015150475 -0.003819928 0.058694083 0.021235341 0.0040766117 -0.057479806 0.008614084
-0.053458545 -0.0050826045 0.035807673 0.00017947993 0.003515118 -0.12338745 -0.025358872 0.12032312
00000000: 1470 263c 763a c43c 3854 443d c164 adbc
00000010: e37c 25bc 58ca 043d bedf b33c cf03 7fba
00000020: 4c27 43bd 69c0 a13c 3de9 2d3d a71d cd3b
00000030: 6496 f63c d2b1 09bd cd42 6638 5362 303c
00000040: b2ac f23b 7862 07be e1e0 89bc 3611 50bd
00000050: 4ff3 efbc 6a5c 803d 8a3d 40bd f4f1 5abc
00000060: f248 acbc 6691 06bc bdfb fa3b 6714 64ba
00000070: 4038 ce3c 86fe 663b aef9 b0bc 4a5f 383c
00000080: 39ee adbc ee2e 9cbc b2ad 52bc 1bcd 0b3c
00000090: bcef f73d f286 723d 1ef8 863c 878a cabc
000000a0: f3cf 2f3c 27b1 5d3b 41cb fd3d f0ad 02bd
000000b0: a9e8 c73b ca8d c43c 52b9 e4bb 7340 5abc
000000c0: 9782 43bc ddd3 ac3c fe9f 9d3c 3c6d 863c
000000d0: 82bb 55bd 5692 d5bc fe41 be3c 5208 52bc
000000e0: 4388 47bc 0bd0 293d ccac 9f3a d7d2 603d
000000f0: bceb d43b 0271 f13c d878 6c3c 1631 2fbd
00000100: 9959 043c c4a6 da3c 872a a0bc 9306 3fbc
00000110: 40d1 893c 1ae6 2f3c 823b 873c 83ae 0a3d
00000120: 554b 9f3c a7b3 63bc 4b63 363d 9a0c c7bc
00000130: be0a 69bd cbe7 2c3c 61a6 0a3d a92e 883c
00000140: 6df1 81bc d970 faba 2bca 0b3e 87a1 a13c
00000150: c51e 4fbd 4efd 863c 403a 913a 204d 41bc
00000160: 50af 5d3c b642 803c adca 74bc b610 85bd
00000170: e04e 1abe e19e cbbc e489 89bc 2572 de3c
00000180: eb88 c7bb b4b0 f7bc 4068 0c3c b864 4bbb
00000190: dfc0 47b9 a18d 5c3c a51b 43bd 219b e03c
000001a0: 829c c93c e2ad 333c e77c a8bb f67c 2cbd
000001b0: da84 30bd 7fdf 1ebd e367 a0bc dbd0 2dbc
000001c0: 3de9 43bc 854a 4abc 3d8b 2e3c 0fea 67bd
000001d0: 31c6 db3d 0243 d33c 7604 b6bd 311e c4bb
000001e0: 71d2 45bc ea86 86bd 871f e13c c729 10be
000001f0: 0a28 84bd a5c9 40bd 7bd0 40bc 8a69 5dbc
00000200: bba2 e93b 61df f53c 3501 133d 33f7 d6bb
00000210: b4f0 e9bb ca08 b33c 3290 223d 30c3 2c3c
00000220: 8765 e1bc 01a1 1fbd 47e7 e9ba bac5 3d3d
00000230: 42e6 5e3c c16b 7fbd abaa 57bc 592a b03c
00000240: 07fe 9a3d 696e 2bbe 387b 203d 8e6a 90bd
00000250: 14af 3fbd 7cd1 f13c 8d1f c43d dede 3dbb
00000260: 52a8 00bc 13b2 59bc 58d8 90bc a707 fb3b
00000270: 45bd 9ebc 224a 9abb 0879 823c 3737 543e
00000280: 3a09 b3bc 0bed 1fbc 2b50 9d3d fbdf 623c
00000290: b5ee 3abd 73f9 a03c 3936 0cbd c05a 04bb
000002a0: f9db 1a3c 36d2 253e 40d3 9bbc 98ef 0bbb
000002b0: 6def d3bc f713 37bc 1665 dc3c 774c 493c
000002c0: 0989 7dbd e47a f5bd 85c8 78bd beb1 a1ba
000002d0: da03 8d3c 1e48 dbbd 60bb 893c f8c1 ab3b
000002e0: ec72 0e3d fdd0 be3c 701e 1d3c 20c9 ed3a
000002f0: 5dab 2e3d b19b 5f3d d46e 10bd 8b32 ecbc
00000300: c6a4 93bb 64d1 df3c 12b5 cbbb 5746 90bc
00000310: cdcc 4cbc a521 6a3d 15cf 803b 72fe 6cbd
00000320: 9564 9ebd 645b 86ba a048 86bd b992 09bd
00000330: 3d66 833c 1d07 203a 60a3 493a 0cd2 1f3d
00000340: 53d1 923a 212b f13b 57a2 003e 35d1 c73a
00000350: 9e49 083c f5f1 923b 4b99 6c3c 361d 72bd
00000360: 61ac 1c3d 6197 92bc 62d6 ffbb f2b5 173d
00000370: aaff 603b 919f 56bd 1856 31bc 2880 5dba
00000380: 8f05 7d3c 9c6c 12bd d621 7c3d cbba bdbc
00000390: 202a 24ba 6da7 053d eb94 53be 4c8f dbbc
000003a0: 7268 3dba a2db a43c 5c0e e1bc a476 fcba
000003b0: c6b6 1bbd c2ad d93d 81ee fe3b fe62 2f3c
000003c0: 1397 90bd b339 78bc c257 7abb 3569 703d
000003d0: bdf5 ad3c 1995 853b f26f 6bbd 1622 0d3c
000003e0: 59f7 5abd fa8b a6bb 11ab 123d c732 3c39
000003f0: e55d 663b 8fb2 fcbd 69bd cfbc f86b f63d

6.bias f4 [12]
-0.0875556 0.1618539 0.02503422 0.081384115 0.00024563252 0.09722012 -0.20328029 0.14646353
0.27026927 0.19105889 -0.019642897 0.24642907
00000000: 5a50 b3bd 07bd 253e 9114 cd3c b7ac a63d
00000010: 3dc8 8039 581b c73d b528 50be 89fa 153e
00000020: bc60 8a3e f1a4 433e 24ea a0bc e757 7c3e
