onnx/legged.onnx (onnx, 823765 bytes, 8 tensors)

0.weight f4 [512, 77]
000000 60 9d 7f 3e df bd fc 3e b9 e7 97 3e 99 82 47 3f
       0.24962378 0.4936361 0.29668978 0.7793365
000010 57 97 24 3e 8b 47 8f 3d 24 fa 2c 3d 6b 12 76 3d
       0.16073357 0.069960676 0.04223074 0.06007616
000020 11 6e 6e be 19 ad 33 bb 53 2b 52 3e f4 42 51 3e
       -0.23284175 -0.0027416407 0.2052434 0.20435697
000030 51 67 b2 bd c6 ca de 3c d9 f7 3e 3e d9 7f ec 3d
       -0.08711112 0.0271963 0.18649234 0.115478225
000040 d2 66 31 bd 7d c9 2b 3d 82 d8 02 3f 79 49 d6 3d
       -0.043310948 0.0419402 0.51111615 0.104632325
000050 10 d5 68 3e 55 dd 45 3d 51 9c 32 3e d4 fc 44 3e
       0.22737527 0.04830678 0.17442442 0.19237071
000060 c3 b2 2f 3d 48 02 eb 3d 9e 64 00 3e d5 3c e0 bc
       0.04289509 0.114750445 0.12538382 -0.027372757
000070 b1 d4 27 be 16 f3 cc bd b3 93 6c 3e 08 98 cc 3c
       -0.16389729 -0.100073025 0.23103218 0.024974838
000080 e1 67 23 3d 7d 5f 32 bd 11 00 e0 3c 90 20 8c bc
       0.03989399 -0.043548096 0.027343782 -0.01710537
000090 29 ad f7 3c 49 26 8c 3c 31 38 0a 3c e8 d2 48 3d
       0.030233936 0.0171081 0.008436249 0.04902926
0000a0 18 a7 04 3d 58 c3 f0 bc 73 cb ac bc af 7b 17 bd
       0.032385916 -0.029390022 -0.021093106 -0.03698319
0000b0 43 7f c8 3c ec 33 5a bd db f9 ea 3d 19 00 e8 3d
       0.024474746 -0.053272173 0.114734374 0.113281436
0000c0 86 5e a4 3d d2 52 10 be 0c e7 88 3e b0 52 e0 bc
       0.080258414 -0.14094093 0.26738775 -0.027383178
0000d0 05 47 20 be 7c 61 33 3c 9f 29 f3 3d 81 93 04 bd
       -0.15652092 0.010948535 0.11873173 -0.032367233
0000e0 b7 18 76 b9 b1 ff ee bd 19 61 08 be ff dd e7 bd
       -0.00023469595 -0.11669863 -0.1331829 -0.11321639
0000f0 07 a6 5a bc df c7 80 be 58 8d 96 bb 77 b0 d3 bd
       -0.013345248 -0.2515249 -0.004594486 -0.103363924
000100 8c 00 30 3d 9f 5a 02 bd b0 9d 17 be ab fb 8b 3c
       0.04296927 -0.031824704 -0.14806247 0.017087778
000110 ed 36 6d bd 63 72 d7 bc b7 ce 57 3d c3 35 55 3d
       -0.05791371 -0.026299661 0.052687373 0.052053224
000120 47 79 2c 3e 31 44 01 3e fe a7 95 bd 87 ae 03 bd
       0.16843139 0.12623669 -0.073074326 -0.032148864
000130 25 12 0c be 5e 41 b4 be a4 46 a4 be b0 c9 c4 3e
       -0.13678797 -0.3520612 -0.32085145 0.38435125
000140 ad 2e bf 3d 50 ae 17 3f 3e 2e c5 bd c0 6b 48 bd
       0.093350746 0.59250355 -0.096279606 -0.048930883
000150 ca c2 1a bd 6e 4f 62 bf 7f b0 15 be c3 d1 83 3e
       -0.03778342 -0.8840245 -0.14618109 0.25745973
000160 6c 93 33 3e f4 f7 9c be b3 ac 1d 3e b0 65 77 bd
       0.17536706 -0.30657923 0.15397911 -0.06039971
000170 16 7d 9d 3d db 65 35 3e 73 ec 53 3e 19 42 b4 bd
       0.07689874 0.17714636 0.20695667 -0.088016696
000180 c0 3f cb 3d 8a 44 2a 3d 2c 1e cb 3d b6 56 97 3e
       0.09924269 0.04156927 0.09917864 0.29558343
000190 06 a9 0d 3e 64 9d 84 bd bd ab 9e be 0b 0f 8b bc
       0.13834009 -0.064753324 -0.309904 -0.016974946
0001a0 87 f3 01 be 33 e2 44 bd 7a 67 e0 3d 25 20 82 bd
       -0.12690555 -0.048067283 0.109572366 -0.06353787
0001b0 d7 5c 0c 3e 0f c2 21 3e 4e 9b c5 bb a2 28 09 bc
       0.1370729 0.15796684 -0.0060304767 -0.008371504
0001c0 e6 cc 63 bd 45 1a 28 bd b3 2b 9f bc b8 bd c0 3c
       -0.05561533 -0.041040678 -0.019430017 0.023527965
0001d0 e4 df e8 3c 9e 5e a4 3b 31 23 7a bc 35 f6 00 3c
       0.028427072 0.005016162 -0.015267179 0.0078712
0001e0 e8 a9 00 bd 58 5b 99 bd b6 1c f5 3c 6f 19 56 bd
       -0.031412035 -0.074881256 0.029920917 -0.05227035
0001f0 d3 b9 23 3e 34 1e 08 3e 60 15 01 be 58 c5 db 3d
       0.15988855 0.13292772 -0.1260581 0.10731
000200 8c 11 a5 3d 36 9c 57 3e 9d 66 90 bc 2d bb 84 3d
       0.080599874 0.21055683 -0.017627055 0.064810134
000210 d3 57 3b bd 43 48 3d be a5 98 01 3e 7c eb 83 bd
       -0.045738053 -0.18484597 0.12655886 -0.064413995
000220 7e 4b a0 bd 0e fb 6b 3c 72 08 8c 3d 6b 02 02 3e
       -0.07826899 0.014403118 0.06837548 0.12696235
000230 ff 99 95 bd c2 53 95 3e b9 32 60 bd 67 51 1b 3e
       -0.07304763 0.29165465 -0.054735873 0.15167771
000240 17 85 4d bd ed 6e 30 be db 93 78 3d 6a e9 0c be
       -0.050175752 -0.17229815 0.06068788 -0.13760915
000250 7d 8a 83 3e e2 cd 0a be 3e 0d d7 3c 90 29 bc bd
       0.25691596 -0.135551 0.026251432 -0.09187615
000260 0c 09 07 bd 02 9a 52 bd 8d 13 a7 be 02 e2 23 bd
       -0.032967612 -0.051416405 -0.32632104 -0.04001046
000270 0c 09 0b bf 4a f3 ef be 6b 4d 47 3e 75 7b 9b bd
       -0.5431068 -0.46865302 0.19463126 -0.07591907
000280 7e bd 52 3d 8b e6 b2 bd 27 a2 ee 3e 3b b3 a3 bd
       0.051450245 -0.08735379 0.46608087 -0.0799317
000290 59 27 05 be e0 75 db 3d ba 64 be bd 08 c2 91 3e
       -0.13003291 0.10715842 -0.09296556 0.28468347
0002a0 fb 06 1c be f8 b9 e4 bd f8 45 28 be 0d 9b 8e bd
       -0.15237038 -0.11168283 -0.16432941 -0.06963167
0002b0 ee 71 8c 3e 9e ca db 3d ea 89 f0 3c d0 8a af 3e
       0.2743067 0.107320055 0.029362638 0.34285593
0002c0 e1 69 46 be 42 2c a8 bd 4a 46 a1 be 86 51 9f 3d
       -0.19376327 -0.082115665 -0.3149894 0.07779221
0002d0 b2 15 21 3e 84 f3 22 bf fe ab 92 be 98 d8 fe bd
       0.15730932 -0.63652825 -0.28646845 -0.12443656
0002e0 2c 07 dc bd e3 3f 81 3d 0d bb dc bd 68 62 bc 3c
       -0.107435554 0.063110135 -0.107778646 0.022996143
0002f0 b7 f7 e8 bc cd e8 2d bd 0e 91 80 3d e1 78 8b bc
       -0.028438432 -0.042458344 0.06277667 -0.017025413
000300 f0 9b 26 bc f4 6f 5b bc e2 21 37 bc 36 75 5c 3d
       -0.010169014 -0.013393391 -0.011177512 0.05382272
000310 fe 85 7c bd 9d 81 a9 bc 51 b1 80 3c 40 61 5e bc
       -0.061651222 -0.020691687 0.015709551 -0.013572991
000320 53 cb e2 bb dc d5 57 bd f9 21 3c bd 18 7e 9e bd
       -0.006921211 -0.052694187 -0.045930836 -0.07738894
000330 95 c8 ae bd 51 c4 02 3e 19 76 84 3c c5 3e 83 bd
       -0.08534352 0.12770201 0.016169595 -0.06408457
000340 c0 e0 26 3c c8 ee 25 be 40 0c 8c bd 6b 89 ea 3d
       0.0101854205 -0.16204369 -0.06838274 0.11451992
000350 4b 23 21 be 43 b0 1e bd a1 53 d0 3b ad 49 08 3e
       -0.1573612 -0.038742315 0.0063576256 0.13309355
000360 f1 c3 64 bd 72 a6 a7 bb 51 ce b5 3c 74 ed 2f bd
       -0.055850927 -0.0051162774 0.022193106 -0.042951062
000370 7a e6 70 3c ab 57 e4 bb 9a e1 c7 bd a3 12 d9 bd
       0.014703387 -0.0069684586 -0.09759827 -0.10599258
000380 9d dd ef bd 2e aa b8 3d 63 cf 8f 3c f6 cc 71 be
       -0.11712191 0.09016834 0.017554944 -0.23613343
000390 34 ef 43 be 22 8f f1 3d d5 f0 07 3e 9a 99 fc bd
       -0.19134218 0.117948785 0.13275464 -0.12333985
0003a0 03 69 be be c5 38 43 3d f3 eb e4 3e 96 be a7 3e
       -0.37189493 0.04766156 0.44711265 0.32762593
0003b0 14 49 b7 3d 9f 30 4a bd f7 86 c4 bd b1 ef be be
       0.089494854 -0.049362775 -0.09596055 -0.37292245
0003c0 64 46 1c be f4 6e 83 bd 0e 5e 56 3d 17 5b 12 3e
       -0.15261227 -0.06417647 0.05233579 0.1429256
0003d0 9d fd 20 be 44 4d 50 be b9 ff 2c be 5a 67 25 3e
       -0.15721746 -0.20341974 -0.16894425 0.16152707
0003e0 3a 73 5b 3e a7 26 dd bd 12 bb 3a 3e 09 4a 25 3e
       0.21430674 -0.10798388 0.18235424 0.16141523
0003f0 df 43 7e be f5 ef 51 3d 40 f9 26 3d 19 78 09 3e
       -0.24830578 0.05125423 0.040765047 0.1342472

0.bias f4 [512]
000000 3f b5 bf 3d 9b 94 5d 3c 1d 53 e7 bc 8f 21 e8 3d
       0.09360742 0.0135242 -0.028237874 0.11334526
000010 63 ad 1c 3d d3 00 be 3c a1 12 d9 3d 88 34 74 bd
       0.038251292 0.023193752 0.10599256 -0.05962041
000020 3b 91 cd bd 35 7e 18 3e d5 c6 12 3d 27 6f c6 3d
       -0.10037466 0.14891894 0.035834152 0.096891694
000030 1d 76 0c 3d f3 d2 fa bb f2 ed c3 3d 76 25 b8 3d
       0.03429233 -0.0076545416 0.09566869 0.0899152
000040 92 39 63 3d bb b1 8d bc 09 be 9b bd 61 fe 04 bd
       0.055474825 -0.017296663 -0.07604606 -0.032469157
000050 28 97 24 3e 38 fc f4 3d 9a 84 7a 3d 31 b4 8c bc
       0.16073287 0.119621694 0.061161615 -0.017175766
000060 ec ca 81 3d c2 2b a9 3d 27 4d 0c bc 0e 4d 42 be
       0.063375324 0.08260299 -0.008563316 -0.18974707
000070 fd 93 58 bd 8d 84 bc 3d 6c 21 52 3c fe c9 8c bd
       -0.052875508 0.092049696 0.012825351 -0.068744645
000080 1c ef aa 3d fa 00 b0 bd 3f e6 15 bd 15 84 e6 3d
       0.08346388 -0.08593936 -0.036596533 0.112556614
000090 62 9e 34 3d 24 27 57 3d 9e f9 c4 3d 0b c4 d1 bc
       0.044096358 0.05252756 0.09617923 -0.025606176
0000a0 55 84 91 3c c4 78 a1 bd 3c 10 0b 3a 29 ff 20 3d
       0.017763296 -0.07884362 0.00053048483 0.03930584
0000b0 e6 62 d8 bd dd 39 01 be 54 f2 ad bd 80 14 66 bd
       -0.105657384 -0.1261973 -0.08493486 -0.056171894
0000c0 17 07 fc bd b3 0f 17 3e ad 5c 8c bd ed b9 bf 3d
       -0.1230604 0.14752083 -0.06853614 0.093616344
0000d0 23 23 12 3e 99 38 3d 3d 57 60 bf bd 6c 64 87 bd
       0.14271216 0.046196554 -0.09344547 -0.06610951
0000e0 17 81 08 3d 88 4b db 3d 19 5e bc bd ff 76 1a be
       0.033326235 0.10707766 -0.09197635 -0.15084456
0000f0 c2 8a 08 bd d3 c6 2b 3d 3e 5a a5 bc 36 fe 03 3e
       -0.033335455 0.04193766 -0.020184632 0.12889943
000100 d3 5a 5a 3c 16 c9 30 bd 11 46 93 ba 52 61 65 3b
       0.013327318 -0.04316052 -0.0011236091 0.0035000634
000110 dd ca 95 bd 49 8c f8 3d ea 5b a8 3c f4 5e e6 3d
       -0.07314084 0.12136132 0.02055164 0.112485796
000120 70 9a dc 3d c7 13 b4 bd 44 8b 91 bb 3c e9 0d be
       0.10771644 -0.08792835 -0.0044416506 -0.13858503
000130 1d 9e b8 bd bd 0b b8 3c ad 1f 34 bd 1d 57 9e 3d
       -0.09014533 0.022466535 -0.04397552 0.07731459
000140 69 2d ac bd ce db 32 3d 2c 86 ba bc 36 f6 a3 3d
       -0.08407099 0.043666653 -0.022769056 0.080059454
000150 42 0a 11 3e d5 53 40 3d ae 89 97 bd 8e 27 ec bd
       0.1416407 0.04695495 -0.07399307 -0.11530982
000160 18 85 d3 3c bf 44 0a be cf 30 f9 bd 8d 60 ec 3d
       0.0258203 -0.13502787 -0.121675126 0.11541853
000170 80 6d 1d be df 39 01 be 5e 31 d7 bd 28 00 fb bd
       -0.15373802 -0.12619732 -0.10507463 -0.12255889
000180 a2 a0 e9 bd be b9 4c bc 4e a9 ea 39 16 b4 a0 bd
       -0.114075914 -0.012495456 0.000447581 -0.07846849
000190 05 52 c8 3c d0 16 4d bd ae 8c c5 bc 9a 09 d3 bc
       0.024453172 -0.050070584 -0.024114933 -0.025761414
0001a0 af c2 e4 bd a9 3d d4 bd 27 9c 86 3a 1e e7 90 bd
       -0.111699454 -0.10363323 0.0010269926 -0.07075332
0001b0 be 1f 01 be fc c3 67 bd c8 ba f9 3c d1 0b 94 3d
       -0.12609765 -0.05658339 0.030484572 0.07228816
0001c0 bc 0f 8b 3d 2b 8e 79 3d 6a 03 01 be 67 30 28 3c
       0.067901105 0.060926598 -0.12598959 0.010265446
0001d0 e9 1c 0f bc ed bc bf 3c 2b cf ec bd 4a ec fa bd
       -0.00873492 0.023405517 -0.11562952 -0.122521
0001e0 86 59 c3 bd b1 d6 01 3e 81 62 0e bd dc 43 30 3c
       -0.095385596 0.12679555 -0.03476191 0.010758366
0001f0 aa 18 74 bd 9f 02 cf bd 6d b6 18 be 3b 8a 7b bc
       -0.059593834 -0.10107922 -0.1491334 -0.015352781
000200 bb fb 74 3d 8d 07 b0 bd e2 13 25 bd 17 0f bc bc
       0.05981038 -0.0859519 -0.040302165 -0.022956414
000210 f4 84 93 bd 6c f0 65 3d 48 4f a2 bc 1e e8 f4 3d
       -0.07203093 0.056137487 -0.019813195 0.11958335
000220 38 82 be bc 10 63 c6 3d fc 8d 08 3e 8b b6 4e bd
       -0.023255453 0.096868634 0.13335413 -0.050467055
000230 48 65 b1 3c 8c e0 8e 3d 4e cf 9f bd 8f c4 5b 3c
       0.02165474 0.06976423 -0.07803212 0.013413562
000240 6f d7 27 be 91 51 ff 3c d6 36 23 bc 32 4c 3a 3c
       -0.16390775 0.031166824 -0.009961804 0.011370705
000250 fb c2 a8 bd ea 16 ce 3d 46 ca de bd db 3e fe bc
       -0.082403146 0.10062964 -0.10878424 -0.031035831
000260 a0 18 4e 3c e3 d8 e8 3d 9c b6 b1 bd f7 43 17 be
       0.012579113 0.11369493 -0.08677408 -0.1477202
000270 08 62 8c 3b 70 02 d1 bd 84 4d 6c 3d 32 7b 08 bd
       0.004284147 -0.10205543 0.057691112 -0.033320613
000280 05 bc d9 3c e9 f0 25 bd 19 2e 60 bd aa 71 c5 bb
       0.026578913 -0.040512953 -0.054731462 -0.0060255127
000290 50 9b 3c be a0 2d 0c bd 53 ce a5 bd 39 31 93 bd
       -0.18418622 -0.0342232 -0.08095994 -0.07187123
0002a0 60 7c 5b 3c 93 b7 4c bb 90 e8 97 3d 54 75 dc 3c
       0.0133963525 -0.0031237348 0.07417405 0.026911415
0002b0 15 7f f2 bd e2 9e f0 bd 1f 83 f1 bc af 2a 5c bd
       -0.11840645 -0.117490545 -0.029481469 -0.053751644
0002c0 18 42 0a be 90 49 6e bd 66 e4 92 3c 71 b2 51 bd
       -0.13501775 -0.058175623 0.017931174 -0.051195566
0002d0 e3 3d 87 bb ef c3 53 3d ee 38 b5 bd 95 cb 4c 3d
       -0.0041272505 0.05170053 -0.08848749 0.04999884
0002e0 83 a9 b7 3d 28 53 96 3d 9a 8e 55 3d db 7e c9 3d
       0.08967879 0.073400795 0.05213795 0.09838649
0002f0 36 cf f7 bd 50 73 e5 bd 84 33 2d 3e 5c ad c1 3c
       -0.12100069 -0.11203635 0.16914183 0.023642235
000300 45 f2 9b 3c 0b 77 6b bd 12 cb 9a bc ec bd 9d 3d
       0.019036422 -0.057486575 -0.01889566 0.0770224
000310 07 df c8 3d d1 28 e1 bd 7c 80 14 3d 1f 27 eb bd
       0.09808164 -0.10994113 0.036255345 -0.11482071
000320 d1 33 28 3c 3f b4 13 be 63 38 be bd 8f 73 10 3c
       0.01026626 -0.14424227 -0.09288099 0.008816614
000330 3d ee 39 bd 43 d2 05 3b a4 8f 89 3d 48 af f0 bd
       -0.045393217 0.0020419515 0.067168504 -0.11752182
000340 ad 69 8a 3d 71 7e 3e 3c fa c3 16 be 0b 66 fb bd
       0.06758437 0.011626826 -0.14723197 -0.122753225
000350 09 ee ab 3d 60 ad e6 bd 47 47 9d 3d a9 15 b2 bd
       0.08395011 -0.112635374 0.07679611 -0.086955376
000360 e4 6f 8c ba 60 c9 94 3d d5 1a c9 3c fd c6 8f 3d
       -0.0010714498 0.07264972 0.024548927 0.07020376
000370 21 40 95 3c 7e f5 38 bd 99 d1 78 be f2 81 ed bd
       0.018219056 -0.045155995 -0.24298705 -0.11597051
000380 ae 34 29 3e 34 08 31 3d 61 8d 36 bc 49 31 56 3d
       0.16524002 0.043220714 -0.011142106 0.052293096
000390 05 ff ce bd e8 9a 1f 3d fc 18 a0 bd 49 e8 be bd
       -0.10107235 0.03896609 -0.078172654 -0.09321649
0003a0 d3 c3 e2 3d ec 3a cc bc 40 4a 15 3c ee cb 02 be
       0.11072507 -0.02493044 0.009111941 -0.12773106
0003b0 3b 98 6c ba 66 34 83 bd 56 6a 1a be 05 61 ac bd
       -0.00090253697 -0.064064786 -0.15079626 -0.084169425
0003c0 57 ba 11 3d e4 16 99 3d 04 d1 83 3d d3 a9 13 3d
       0.0355781 0.07475069 0.06436351 0.03605063
0003d0 d2 69 fa bd 4d 96 9d bd fa f6 90 bd 5c 51 c9 3d
       -0.12227215 -0.07694683 -0.07078357 0.09829971
0003e0 f8 00 8f 3d bb 94 5d bc 63 95 7f bd 24 10 69 3c
       0.06982607 -0.01352423 -0.062398326 0.01422504
0003f0 78 76 39 bc 64 4a db 3d d0 d8 b7 3c 45 49 0e be
       -0.011319749 0.10707548 0.022442251 -0.13895138

2.weight f4 [256, 512]
000000 f7 f1 e4 bd 38 a3 95 be 81 dd 33 3d d9 8a 9a 3d
       -0.11178964 -0.2922609 0.043912414 0.07546014
000010 f3 de 11 3e 3f 73 86 bc 1c f8 38 bd f2 cf a7 bc
       0.14245205 -0.016412375 -0.04515849 -0.020484898
000020 4d 22 26 bc 00 ab 7a bd ae b7 ea bd d9 32 8b bd
       -0.010140014 -0.061198235 -0.11460815 -0.06796808
000030 db 00 86 3e 8d aa d3 3d 03 fe 26 be 82 09 32 3d
       0.26172528 0.10335264 -0.16307835 0.0434661
000040 a0 3b c2 bd 47 7d 50 be ac 15 3f be 9a ec b3 3d
       -0.09484029 -0.2036029 -0.18660611 0.087853625
000050 fe 72 d4 3d 9e cf 1a be d5 f6 02 3e cb 1b 60 be
       0.103734955 -0.15118262 0.12789471 -0.21885602
000060 ac ae 1d 3d 8f b7 27 be a0 01 71 3d 31 88 d9 3d
       0.03849666 -0.16378616 0.05883944 0.106216796
000070 de f4 84 bb fa da 91 3e c4 a9 c3 bd bf dc 9f bd
       -0.0040575108 0.28487378 -0.095538646 -0.07805776
000080 20 d1 d2 bd 6a 80 1d bd c8 44 22 be 9c 9b 6e bd
       -0.10293794 -0.038452543 -0.1584655 -0.05825387
000090 03 97 65 bb 14 a6 73 bb 49 17 0f 3e 54 a8 e2 3d
       -0.0035032637 -0.0037177848 0.13973726 0.11067262
0000a0 4e 40 17 be de 5c 9e bd b3 62 a4 3d d2 83 d3 be
       -0.14770624 -0.07732557 0.08026638 -0.41311508
0000b0 e5 59 ce 3c c7 7c 21 3d 28 ff ec bb fc 0d f6 3d
       0.02518935 0.039425638 -0.0072325654 0.12014386
0000c0 01 e9 57 3d 11 d9 7a bd a4 c4 04 3e e3 d5 d5 3d
       0.052712444 -0.061242167 0.12965637 0.10441186
0000d0 a6 b5 41 3c 38 79 36 3d e8 80 c1 3d b4 0a af 3d
       0.0118230935 0.044549197 0.09448415 0.08546963
0000e0 aa 9c af bd 8c 3d 8e be bb 45 d8 bb f5 5b 75 bd
       -0.08574803 -0.27781332 -0.0066001094 -0.05990215
0000f0 34 6e 8a bd 49 b3 da bd a3 ba b4 bd 53 48 59 be
       -0.06759301 -0.10678727 -0.08824661 -0.21218996
000100 83 d2 6a bd 5a 13 12 bd 0d b6 02 3e eb c5 22 3d
       -0.057329666 -0.035662986 0.1276476 0.03973953
000110 77 f4 22 3e 72 12 f8 bc e6 48 c1 bd 02 c4 5e bd
       0.15913568 -0.030282233 -0.094377324 -0.054386146
000120 4b 6c 62 bb be 16 7f be 69 93 d0 3d 70 9d 26 3e
       -0.003454941 -0.24911019 0.10184366 0.16270995
000130 92 ae 13 3c 64 92 86 bd c2 87 6e be 2b 5c b7 3b
       0.009013789 -0.065708905 -0.23293975 0.005595704
000140 11 0a da bd b9 5f 26 3e 34 de 1e bd ed cd 61 bd
       -0.10646451 0.16247453 -0.03878613 -0.055128027
000150 9d 61 bc bc 0f d8 bd bc c4 43 7a 3d a4 ca 98 3d
       -0.022995764 -0.023174314 0.061099783 0.07460526
000160 6b d5 6f 3d 79 78 36 bd 50 4e 42 3d 02 99 20 3d
       0.05855314 -0.044548485 0.047437966 0.03920842
000170 e5 58 79 bc 41 1e 04 3e 54 24 a7 3d d1 81 0b be
       -0.015218948 0.12902166 0.08161226 -0.1362374
000180 bf 65 0d bd 1d 57 06 be bf 31 be bc be 1f e2 bc
       -0.03452086 -0.13119169 -0.02321708 -0.027603026
000190 38 4d 66 3e 21 ea 19 bd d2 3c 82 3e 07 c6 05 3d
       0.22490394 -0.0375768 0.25437027 0.032659557
0001a0 cc 38 df bd e5 2e 91 bb de 1e df bb 52 53 b1 3c
       -0.10899505 -0.004430639 -0.0068090996 0.021646176
0001b0 e8 59 87 3c ef b2 d6 3c 4a 81 29 3e 31 50 13 bd
       0.016522363 0.026208369 0.16553226 -0.03596515
0001c0 cf 32 22 bd d8 e1 9e bd 92 98 ad 3d b3 58 8c 3d
       -0.039599236 -0.0775792 0.08476366 0.068528555
0001d0 56 fd 8f bd 85 71 d6 bc b8 cf b3 be e5 ca 09 3d
       -0.07030742 -0.026177177 -0.35119414 0.03364076
0001e0 7d 5d 20 bd 62 ab b7 3d 30 9b 48 be 08 1b 01 bd
       -0.039151657 0.089682356 -0.1959045 -0.03151992
0001f0 cb 48 06 3e be fb a4 bc bd 89 16 3e f6 53 1e be
       0.13113706 -0.020139571 0.1470098 -0.15461716
000200 32 bf 02 3e c8 6b b1 3d 70 52 b5 bd 52 e1 50 3d
       0.12768248 0.08663136 -0.08853614 0.050996132
000210 69 79 16 be 80 80 cf bd c2 cd 8b bc 2d 96 ac bd
       -0.14694752 -0.10131931 -0.017065886 -0.08427081
000220 31 f8 93 bd 84 4e ac 3c fa 1e d1 3d da 68 21 be
       -0.07225073 0.021033533 0.102109864 -0.15762654
000230 60 ff 6f be 2c 8a 5a 3d fe dc 64 3b 40 38 be bc
       -0.23437262 0.053354427 0.003492176 -0.023220181
000240 40 9d a5 3d 92 f7 31 3d 5e b4 50 bd 5d b5 60 3e
       0.08086634 0.043448992 -0.05095326 0.21944185
000250 79 bc 82 3d 9f 43 17 be 68 2f 00 3d 5d dd 23 bb
       0.063836046 -0.14771889 0.03129521 -0.002500377
000260 95 45 0b be ac 8f b9 bd df 1a e9 bb b9 23 d5 3d
       -0.13600762 -0.09060606 -0.007113799 0.10407204
000270 4a 50 e0 bd 9e 8f 9e 3d 53 87 e0 bd cb 2b 90 3e
       -0.10952814 0.077422366 -0.10963311 0.2815841
000280 10 8d cb 3b 69 8f b5 bd a5 aa 29 3e 47 39 cf bd
       0.0062118843 -0.08865244 0.16569002 -0.10118347
000290 7b 81 21 bd 7d 1e df bd fa a5 bc 3d fd 54 d9 3d
       -0.039430123 -0.10894487 0.09211345 0.10611913
0002a0 8a 00 d3 bd 23 65 a5 3b 66 51 03 be 59 c1 e5 3d
       -0.10302837 0.005047457 -0.1282402 0.11218519
0002b0 6c 2d 35 bd 5c b9 cd 3d cf c1 0e bd 04 0c 74 bd
       -0.04423277 0.1004512 -0.0348528 -0.05958177
0002c0 ac f9 6e 3d d9 4f fd bd ca 58 2b 3d b6 c1 6d bc
       0.058343574 -0.12368745 0.041832723 -0.014511516
0002d0 98 6f 25 bd d0 5b 4c bc 0a cc 87 3d 3f 00 0b be
       -0.040389627 -0.012473062 0.06630714 -0.13574313
0002e0 40 38 7f bd d2 b1 ba 3b 40 dd a2 bd 85 c4 b8 bd
       -0.062309504 0.0056974674 -0.07952356 -0.09021858
0002f0 3c fe 04 bc 30 87 e8 3b d4 a7 d2 3c 36 60 f4 bc
       -0.008117255 0.0070961937 0.025714792 -0.029831033
000300 2c 11 69 be 8b 84 6a 3d e6 b5 f4 3c 30 5a 2d 3d
       -0.22760457 0.05725531 0.029871892 0.042322338
000310 3c 85 8f bc 01 0a 40 3d 1e 11 02 3e 24 7d 22 3e
       -0.017519586 0.04688454 0.12701842 0.1586805
000320 42 c1 51 3d 53 5b a2 bd 07 5c 3a 3e 34 ea 55 3d
       0.051209696 -0.07927575 0.18199168 0.052225307
000330 8d 22 a0 3d 11 4e ea 3d c1 4e 32 3e f1 b9 f2 bb
       0.0781909 0.11440671 0.17412855 -0.00740742
000340 98 d7 c1 3d b4 3e b6 ba fe 1b 39 be 71 16 81 bd
       0.09464949 -0.0013904185 -0.18077084 -0.063031085
000350 5e 55 50 3d 5c c9 49 bd 46 7f 19 ba af 59 18 be
       0.050862662 -0.049264297 -0.0005855452 -0.14877962
000360 2f 3f 41 3e 30 f1 e2 3d f9 54 87 bd 78 32 97 be
       0.18871759 0.11081159 -0.06608004 -0.29530692
000370 44 25 f1 3d 2c 62 48 be e4 b2 41 bd 9d 17 9a bd
       0.11774686 -0.195687 -0.047289744 -0.07524035
000380 03 10 cd 3d af 60 26 bd 87 27 87 3d 1a ad a2 3c
       0.100128196 -0.04061955 0.06599336 0.019857932
000390 5e 97 8b 3d 61 91 81 3d ef 8b f4 bb ad aa d6 bd
       0.068159804 0.06326557 -0.0074629704 -0.104817726
0003a0 b2 59 23 3e 66 44 f1 bc a8 d8 3d 3e 80 80 3d be
       0.15952185 -0.02945156 0.18539679 -0.1850605
0003b0 f0 55 84 3c e0 b4 0f 3e d0 38 95 bd 9c 3f 02 3e
       0.01615426 0.14033842 -0.07286227 0.12719578
0003c0 2f 83 03 3e ef f8 56 be af 17 40 bd 06 c6 04 3d
       0.12843011 -0.20993398 -0.046897586 0.032415412
0003d0 5d 38 dc 3d 08 b3 4c be 7d 80 44 3d 61 1f 6c bd
       0.10752938 -0.1999017 0.0479741 -0.057647113
0003e0 8f d8 61 3d ee 1c a5 3c 18 32 74 3d 20 9c 32 bc
       0.055138167 0.020155396 0.059618086 -0.010901481
0003f0 a9 b3 e2 3d 2c 14 09 3d 6e dd 7c bc c1 86 81 bc
       0.11069424 0.033466503 -0.015433652 -0.015811326

2.bias f4 [256]
000000 55 f0 77 bd a3 7e f7 bd 0f 68 95 bd cf a6 14 bc
       -0.060531933 -0.12084701 -0.07295238 -0.009072973
000010 08 0d 66 bd c4 71 d0 bd 05 c6 94 3d d9 b4 21 be
       -0.05616477 -0.10177949 0.07264332 -0.15791644
000020 e7 fe c7 bd 43 33 85 bc 19 f0 8e bd 9f 6b cf bd
       -0.09765416 -0.016259795 -0.06979389 -0.10127949
000030 95 21 db bc 98 ef a1 bd 3a e8 63 3c 56 74 9e bd
       -0.026749412 -0.07907027 0.013910348 -0.07737033
000040 b0 7f ab be c1 6f 7b bd 4f 39 2c be 9f 14 80 bb
       -0.33495855 -0.061385874 -0.16818736 -0.003908708
000050 39 d1 ec bd 5a 33 43 bd 91 8c ad bd 96 d7 d5 3a
       -0.115633436 -0.047656395 -0.084740765 0.001631486
000060 2e 47 81 bd 3c 44 5b 3d f8 ff 27 bd 06 c9 0c 3c
       -0.063124046 0.05353187 -0.041015595 0.00859285
000070 1c 43 42 be 19 8b d8 bd 6e 71 a7 bd 5b 63 1a bd
       -0.18970913 -0.10573406 -0.08175932 -0.03769241
000080 7b 12 8f bd cd 8a 31 bd b5 56 7f bd 70 75 fc 3c
       -0.06985947 -0.04334526 -0.06233855 0.030817717
000090 dd e7 6a 3d b5 31 d3 bc 8c f8 b8 3c a3 9f 2d be
       0.05735003 -0.025780538 0.022579454 -0.16955428
0000a0 f6 5d 23 3d e9 7d a7 bd 60 2f ad bd 06 95 08 be
       0.03988453 -0.08178312 -0.08456302 -0.13338098
0000b0 c4 ef 43 be 81 ba 0a be eb 4e c4 bc 3b 59 f8 bd
       -0.19134432 -0.13547708 -0.023963412 -0.12126394
0000c0 94 06 6d bd 22 0e 16 bd 63 23 9f bd 7b f8 c4 bc
       -0.0578676 -0.03663457 -0.07770421 -0.024044266
0000d0 db 99 8b bd c3 91 d7 bd 60 11 3d bd 92 71 10 be
       -0.06816455 -0.10525849 -0.04615915 -0.14105824
0000e0 59 49 ca bd 86 ab 9b bc 05 e8 07 3c 4f 0f 9d bc
       -0.09877271 -0.019002687 0.008295064 -0.019172339
0000f0 52 79 91 bd 81 33 b3 bd c4 55 4c be 23 10 02 be
       -0.07103218 -0.08750058 -0.19954592 -0.12701468
000100 30 65 9f bd 0d d1 34 be dc c7 c7 bd 13 40 b2 bd
       -0.07782972 -0.17657872 -0.09754917 -0.087036274
000110 76 8f 54 bd c6 55 31 bd 09 e7 46 be 20 34 28 bd
       -0.051894628 -0.04329469 -0.1942407 -0.041065335
000120 99 dc 13 be a4 23 93 bd f3 2c 50 bd 35 5c 9a bd
       -0.1443962 -0.07184532 -0.050824117 -0.07537118
000130 e0 56 bb bd 2c f2 7e bc e3 f1 bb bc 23 0b 51 ba
       -0.091474295 -0.015560668 -0.022942489 -0.0007974377
000140 d4 40 a8 3d cf d4 36 bd 26 9e be bd 64 18 54 bd
       0.0821549 -0.044636544 -0.09307508 -0.051781073
000150 76 13 23 be d7 03 45 3d 11 ad 9d bc dc b3 c5 bd
       -0.15925393 0.048099365 -0.019247564 -0.09653446
000160 51 fc e4 bc 2c ce c7 bd 5a e2 cd bd 55 a1 0b bd
       -0.027952345 -0.09756121 -0.10052939 -0.034089405
000170 fd 9a f5 bd fe bc 3a 3d 75 cb 43 bd 21 72 f2 bd
       -0.11992452 0.045590393 -0.047801454 -0.118381746
000180 2f cb 01 be b0 38 fd bd c5 d1 27 bd a4 dd bc bd
       -0.12675165 -0.12364328 -0.040971536 -0.09221962
000190 3e a6 ac bd 13 94 a4 bd 72 26 3c 3d 5d a1 3d 3c
       -0.08430146 -0.080360554 0.0459351 0.011574117
0001a0 d3 4f fa bd 99 f3 b6 bd 27 66 03 be e7 ae 35 be
       -0.122222565 -0.08933181 -0.12831937 -0.17742501
0001b0 27 c5 73 be 9f 0e 08 be fa 20 b7 bd a3 04 8e bc
       -0.23805676 -0.13286828 -0.08941837 -0.017336195
0001c0 e8 5b c0 bd ed 12 4c bd 65 45 a7 bd 00 fb d2 bd
       -0.0939253 -0.049822737 -0.08167533 -0.10301781
0001d0 3c f2 c0 bd 6b 28 3e be 9a 7e a1 bd 16 b3 1b bc
       -0.094212025 -0.18570106 -0.078854755 -0.009503147
0001e0 9c ce f5 3c 2b 98 27 bd 21 ee 0e be a5 c4 71 be
       0.030005746 -0.040916603 -0.13958026 -0.2361017
0001f0 13 9b 09 3d 51 b3 d8 bd 07 c2 fc bd 54 f9 49 bd
       0.033595156 -0.10581077 -0.12341695 -0.049310043
000200 37 fc b2 bd 32 f4 e5 bd ad b3 7b bd 85 09 87 bd
       -0.087395124 -0.11228217 -0.06145065 -0.065936126
000210 78 ef 18 bd ba cd 41 bd a0 dd 88 bd d8 b0 d8 bd
       -0.03733775 -0.047315337 -0.066828966 -0.10580605
000220 34 5b 14 be 0e 66 24 bd 7f 6c 27 be 79 6f 19 bd
       -0.14487916 -0.04013639 -0.16349982 -0.037459824
000230 d8 9f 61 bd e5 b9 9f bd 64 66 08 be db 5d 14 bd
       -0.05508408 -0.077991284 -0.13320309 -0.03622232
000240 fa 7c b8 3d c5 d8 34 bb 97 a0 4e bd 56 67 04 be
       0.090082124 -0.0027595025 -0.05044612 -0.12930045
000250 8b 18 7d bd 3f 78 b3 bd 01 c3 35 be 3d 44 9c bd
       -0.061790984 -0.087631695 -0.1775017 -0.07630203
000260 a3 7d 23 be ec 22 b8 bd 50 54 b6 bd d1 99 3a bc
       -0.15965895 -0.08991036 -0.089028 -0.011389212
000270 d8 04 c0 bb c2 dd d1 bd 84 b6 3b bd 91 8e dd bd
       -0.0058599524 -0.10247375 -0.045828357 -0.10818208
000280 d7 be 2c bd ee fb 48 bc c1 ef d2 bc 0e 39 c0 bc
       -0.042174187 -0.012267096 -0.02574909 -0.023464706
000290 1a e0 a4 bd 19 4e 81 bd f7 4f ea bd c1 43 3d bd
       -0.080505565 -0.06313724 -0.11441033 -0.046207193
0002a0 bc 7c c0 bd db f8 e3 bd d8 8b a0 bd ab fe 00 be
       -0.09398791 -0.1113145 -0.07839173 -0.12597148
0002b0 39 28 a0 bd 24 46 11 3d 0f bf 12 bc 02 29 d7 3c
       -0.07820172 0.035467282 -0.008956685 0.026264671
0002c0 b7 f1 5d be 5c d6 ef bb a4 9b 7a be 17 e1 ad bd
       -0.21674238 -0.007319255 -0.24473435 -0.08490198
0002d0 73 7d f7 bd 84 a4 1e bd 22 e3 55 3c ef 98 84 bc
       -0.120844744 -0.038731113 0.013054641 -0.016186206
0002e0 4a 85 8a bd 7c 96 c6 3b 6c be dc bd ba b3 02 be
       -0.06763704 0.0060604196 -0.107785076 -0.12763873
0002f0 8d b3 b1 bd 73 f1 ef bc 45 6b 0d be 62 85 b5 bc
       -0.08676825 -0.029289937 -0.13810451 -0.022158328
000300 ae 42 f2 bd f2 27 31 be dd 09 90 3c 43 4c cf bc
       -0.118291244 -0.17300394 0.017582828 -0.02530492
000310 15 5e 53 be 86 ac a7 bd 7f c2 ab bd a2 87 17 be
       -0.20641358 -0.08187203 -0.083867066 -0.14797834
000320 84 f3 da bc 5c e0 47 bd 7b 69 63 bb 8d ee 47 be
       -0.026727445 -0.04879795 -0.0034700322 -0.19524594
000330 dd 85 ce bd d1 51 02 be 95 1d a6 3c fc 1c a9 bd
       -0.10084126 -0.12726523 0.020277778 -0.082574815
000340 5a 25 47 be 06 e9 d2 bd c5 19 c7 bd e2 51 0a be
       -0.19447842 -0.10298352 -0.09721712 -0.13507798
000350 38 9c 2b bd 27 42 4b be e8 cb d6 3c aa 54 35 bd
       -0.04189703 -0.19849454 0.026220277 -0.044270195
000360 c8 77 75 bd 6a 0a b9 3c ef 30 62 bc a8 28 f1 bc
       -0.059928685 0.022587974 -0.013805612 -0.029438332
000370 cf 13 81 bc 0e 28 aa bd 29 be 84 be f9 c6 96 3d
       -0.015756516 -0.08308421 -0.2592633 0.0736217
000380 e7 5a 8e bd b2 db c9 bd bf 89 fd bc bd 9e 80 bb
       -0.06950932 -0.09856357 -0.030949472 -0.003925173
000390 a7 1d 27 be 71 2a fa bd d2 01 f6 3b 2b 94 23 be
       -0.16319905 -0.12215126 0.007507541 -0.1597449
0003a0 7b 01 c7 bd 01 4c 81 bc 3d a4 9a bd 84 97 ca 3d
       -0.09717079 -0.015783312 -0.07550857 0.098921806
0003b0 eb 46 b0 bd 96 28 a2 bd 55 91 47 be c3 52 94 3c
       -0.086072765 -0.079178974 -0.19489034 0.01810587
0003c0 62 08 05 be b8 29 8d bd 09 fb d9 bd 91 51 e1 bd
       -0.12991479 -0.06892723 -0.10643584 -0.11001886
0003d0 39 3f 95 bd 51 c4 04 bd 16 e9 ec bc 9e c7 0d bd
       -0.072874494 -0.032413784 -0.028919738 -0.034614198
0003e0 58 c3 95 bc 59 98 08 be 54 e3 45 bd 58 04 49 bd
       -0.018281624 -0.13339366 -0.0483125 -0.04907641
0003f0 cf a0 1f bd a1 fb 50 3c 6b ef ac bd 3e 92 cf bc
       -0.03897172 0.0127553055 -0.08444103 -0.025338288

4.weight f4 [128, 256]
000000 ca a7 14 be b2 c3 9c bd 9d 9e 26 bd 46 cb 0e be
       -0.14517131 -0.076545134 -0.04067861 -0.1394473
000010 6b ec 6c bd f1 0d 37 bc 9e 8a 8d bc 69 96 8b 3d
       -0.057842653 -0.0111727575 -0.017278012 0.06815798
000020 6e e2 a6 3d e1 c1 27 bc 70 07 25 bd ff 72 82 3d
       0.08148657 -0.010239095 -0.040290296 0.0636959
000030 86 6c 24 3d 23 57 fc 3d fd 9c 9c bd 04 ed 33 3e
       0.04014256 0.123213075 -0.07647131 0.17570883
000040 05 9f 94 3d ae 72 18 3d 9c 36 81 bd 0f 56 0c 3c
       0.07256893 0.037218742 -0.06309244 0.00856544
000050 f4 6c 59 bb ef c6 5b bb 97 d5 0e be 23 cd 18 be
       -0.0033176513 -0.0033535322 -0.13948666 -0.14922003
000060 66 0d eb bb 86 d4 4f bc 49 fb 21 3d fd b0 a5 be
       -0.007173228 -0.012684947 0.039546285 -0.32361594
000070 da f3 24 3e e5 97 0f bd 13 8e 2e 3d 01 78 44 3d
       0.16108647 -0.035056967 0.04261596 0.047966007
000080 ad a5 94 3d 41 45 62 3d 12 e2 39 bd 59 52 a1 3c
       0.07258163 0.055241827 -0.045381613 0.019692587
000090 af ac 23 bc a8 44 e0 bb dd ef 94 bc c3 37 b7 3c
       -0.009989901 -0.006844122 -0.018180782 0.022365456
0000a0 ad eb 24 bd fb c8 9e 3d 00 c8 6b bd 87 39 14 3e
       -0.04026382 0.07753178 -0.05756378 0.1447507
0000b0 18 99 50 3e c7 c7 93 bd 7d de 81 bd f5 0f 5f 3d
       0.203709 -0.07215839 -0.063412644 0.054458577
0000c0 0f 83 53 bc b4 8b 4d be 29 e3 cd 3d f5 dc a3 bd
       -0.012909665 -0.20072824 0.10053093 -0.080011286
0000d0 df ac 1e 3e 1d 58 99 3d a6 f8 df bc 12 79 d2 bd
       0.15495633 0.074875094 -0.027340245 -0.102769986
0000e0 f8 22 5e 3d cd ea bf bd 0c 30 72 3d d8 59 80 3d
       0.054232568 -0.093709566 0.059127852 0.06267136
0000f0 00 27 08 bd 9b 11 9a 3c 48 0a 22 bb 5b 8e e1 bd
       -0.03324032 0.018807223 -0.0024725366 -0.1101348
000100 25 21 f6 bd f7 cf 89 bd ec fa 47 bc bc fd 85 39
       -0.120180406 -0.06729119 -0.0122058205 0.00025556784
000110 1e 7f bb bd 4a 21 b9 3d f5 5f 23 3e 42 a4 a8 bc
       -0.09155105 0.090395525 0.15954573 -0.020586137
000120 97 ab 93 3d bf be a2 bc 56 15 b8 3d 7b c8 09 be
       0.072104625 -0.019866345 0.089884445 -0.13455383
000130 75 90 12 bd 6d 51 7d bd eb 28 29 bd 12 57 51 be
       -0.035782296 -0.06184523 -0.041298788 -0.20443371
000140 7d 1a ed 3c be 1d 5b bd fc 66 32 bc c7 10 ad bd
       0.028943295 -0.05349516 -0.010888811 -0.08450466
000150 81 83 bb bb 66 4c d4 bc 42 c9 38 be 4a 4f 68 be
       -0.0057224636 -0.025915336 -0.18045524 -0.22686496
000160 f0 d3 a9 3d d6 ef 9a 3d 81 0d e1 bd 9e 21 b9 bd
       0.08292377 0.07565276 -0.10988904 -0.09039615
000170 b5 70 8a bd 08 35 69 bd 9f c6 9f 3d 48 ac 19 3d
       -0.067597784 -0.05693534 0.07801556 0.037517816
000180 0b 37 23 be 8c 98 ee bd c3 bf 27 3d 7d 49 7c bd
       -0.15938966 -0.1165019 0.040954363 -0.06159352
000190 2c da 1b 3c f8 34 72 3d c5 f8 3f be 7b 10 e1 bc
       0.009512465 0.059132546 -0.18747242 -0.027473679
0001a0 2e 54 3a be 60 e6 3a 3c fc b8 a6 3d 09 bd 3b 3d
       -0.18196175 0.011407465 0.08140752 0.045834575
0001b0 e2 de 04 3e 64 76 3f bd 34 94 d3 3c 31 b7 9d bd
       0.12975648 -0.046743765 0.025827505 -0.077009566
0001c0 ce 39 43 bd ed 3f e8 ba e8 21 0b 3e ab 65 11 3d
       -0.04766255 -0.0017719247 0.13587153 0.03549735
0001d0 a2 17 21 bd 0a 84 b6 bd 72 36 2c bd f5 f5 c3 bd
       -0.03932918 -0.08911903 -0.04204411 -0.09568397
0001e0 69 7f d1 bd 4c bc d8 3d e1 fe d1 3d 2a 3e b2 3d
       -0.1022938 0.1058279 0.102536924 0.08703263
0001f0 8a 73 58 3c 5c f9 9e be ac 45 4a be 44 5b d7 bd
       0.01321114 -0.3104962 -0.1975314 -0.105154544
000200 94 b8 b3 3d 37 dd 2f bd 5d 56 49 bd 73 36 8f be
       0.0877544 -0.042935576 -0.049154628 -0.2797123
000210 59 0b 00 3c 31 e7 ac bd 7e 04 93 bc a9 bc 8f bd
       0.0078152055 -0.08442534 -0.017946478 -0.07018406
000220 66 85 ae 3d 40 e6 97 bd fc 97 91 3d e9 a0 44 3d
       0.085215375 -0.074169636 0.07109067 0.04800502
000230 e7 49 cb 3d 1d 31 05 3d 9c 42 84 bd 65 cd 73 ba
       0.09926205 0.03251754 -0.06458017 -0.00093003205
000240 95 70 55 ba c7 4e 1b 3c 95 05 40 be 85 34 f1 3c
       -0.0008142081 0.009479231 -0.1875213 0.029443989
000250 ab c1 1b 3d f7 2b 7a bd 67 a3 a1 3c d6 95 1f 3d
       0.038026493 -0.061077084 0.019731237 0.038961254
000260 01 9b 06 3e ee da 11 bd 1c cd 99 bc 71 75 24 be
       0.13145067 -0.03560918 -0.018774562 -0.16060425
000270 66 d0 ee bd a9 15 a6 3d ce 19 b4 bd 58 a2 2e bc
       -0.116608426 0.081096 -0.08793984 -0.010658823
000280 b0 4e 6f 3d a1 cb f8 3d 79 e7 00 3c df 22 2f 3d
       0.05842465 0.12148214 0.007867687 0.042757865
000290 19 55 f7 bc 17 72 5f 3d 71 c7 f9 bb c2 23 d3 bd
       -0.030191945 0.054552164 -0.007622652 -0.10309555
0002a0 a9 60 7d 3d f3 cc 03 be 08 88 2e 3d 9e 7f 00 3e
       0.06185976 -0.1287115 0.0426102 0.12548682
0002b0 9a 98 4a bd e2 e3 01 3d 4f ba a3 3b 70 7f 47 be
       -0.04946194 0.031711467 0.004996575 -0.19482207
0002c0 77 75 0c 3d 86 31 6b bc 73 94 7e 3c cf 24 5e be
       0.03429171 -0.014355069 0.015538323 -0.21693729
0002d0 e4 59 fc bd 47 b9 8d 3d b4 d0 3d be ed 21 95 bc
       -0.12321833 0.069201045 -0.18536645 -0.018204654
0002e0 40 3c 98 3c 31 29 90 bd b2 e2 13 be 25 81 73 3d
       0.018583417 -0.07039107 -0.14441946 0.059449334
0002f0 59 12 bf bc 85 95 03 3d 44 93 ce bc f4 d6 e6 bc
       -0.023324179 0.032125015 -0.025216706 -0.02817867
000300 13 89 07 3e 30 82 e2 3d 36 ed 13 be 49 14 e8 bd
       0.13235883 0.110599875 -0.14445958 -0.11331994
000310 51 f5 74 bd 47 b3 f0 bc fb 44 b1 3d 8f 14 3e bd
       -0.059804264 -0.029382361 0.08655735 -0.046406325
000320 eb 2e 16 3d e5 9a d9 3c 1f 7d d4 3c a4 88 b4 3d
       0.03666584 0.026563117 0.025938569 0.08815125
000330 45 f4 30 3d d6 09 63 bd a4 62 b8 bd 96 2c ca 3d
       0.043201704 -0.055429302 -0.09003189 0.09871785
000340 89 fb 0e 3e 43 72 29 bb 9e 3a 95 bd 98 5e da bd
       0.1396314 -0.0025855459 -0.07286571 -0.106625736
000350 23 f6 5b be ee f3 c4 3d 56 d5 01 3d 8a 29 ce 3b
       -0.21480612 0.096168384 0.031697594 0.006291573
000360 d5 cc 65 3d 58 ac 3a 3d 48 a5 0d be 5c ce ba bc
       0.056103546 0.045574516 -0.13832581 -0.022803478
000370 15 0a 66 bd 10 d3 6f be 08 19 cd bc e9 be 76 bd
       -0.05616196 -0.23420358 -0.02503635 -0.06024066
000380 31 f3 6b bc da ba a3 3b f5 4a cc bd c0 e3 9d 3d
       -0.014401243 0.0049966397 -0.099752344 0.077094555
000390 b8 de 07 3e 53 d3 57 be 00 a5 7b be 87 37 03 3d
       0.13268554 -0.21076708 -0.24574661 0.032035377
0003a0 c6 2a c5 bd be 41 b8 3d 9a e2 cb 3b df ad 86 bd
       -0.09627299 0.08996914 0.0062220814 -0.06576132
0003b0 db c2 ad bd 3b 28 8a bd ab ef 22 3e be f3 08 be
       -0.08484431 -0.067459546 0.15911739 -0.1337423
0003c0 32 ed 3c 3d da 0b df bd 23 8d 21 be 56 83 41 bd
       0.046124645 -0.108909324 -0.15776496 -0.047244392
0003d0 98 3d 9e bd 55 2b 11 bd 24 56 58 bd b9 be 95 bd
       -0.07726592 -0.035441715 -0.052816525 -0.07311768
0003e0 05 04 21 3d 96 9c 0d bd 75 3b ef 3b d2 35 ae bb
       0.039310474 -0.03457316 0.007300789 -0.0053164745
0003f0 80 ae 71 3d 70 b1 ba 3d e0 9f bb 39 73 1a 44 3d
       0.059004307 0.09115875 0.00035786536 0.047876786

4.bias f4 [128]
000000 a1 25 0b be e0 b4 62 bd 9a 11 8e 3d 15 29 1a be
       -0.13588573 -0.055348277 0.06936951 -0.15054734
000010 ff 23 2f 3d 32 06 81 3d cd fd 1d be 21 70 13 be
       0.042758938 0.0630001 -0.15428849 -0.14398243
000020 76 c9 d3 bd 03 c7 a1 bd c6 32 31 3e 30 b0 13 be
       -0.1034116 -0.078992866 0.17304525 -0.14422679
000030 2a f9 19 be 80 5a 62 be 21 03 16 3c 40 0f 0f be
       -0.15036455 -0.22104836 0.009156019 -0.13970661
000040 93 12 43 bd 97 53 65 be ec 0e a8 bd c1 24 2a bd
       -0.047625136 -0.22395168 -0.08205971 -0.041538958
000050 5a b8 9a be cf 0d 23 be 66 6e 4e be 94 fa 1c be
       -0.30218774 -0.15923236 -0.20159301 -0.15329963
000060 66 9c aa bd c8 42 fc bd f3 62 d4 3d 6f 35 46 be
       -0.08330612 -0.12317425 0.103704356 -0.19356321
000070 4e 3a 10 be 96 9f 8c bd 8c c1 a5 bb 78 a5 79 be
       -0.14084741 -0.06866376 -0.005058473 -0.24379528
000080 c7 bf 8a bd da fa 3f be 3a 7c 64 bd c4 98 22 be
       -0.0677486 -0.18748036 -0.055782534 -0.15878588
000090 a6 50 47 be 52 e8 a6 3b 09 a1 94 bd 8d ff 89 3c
       -0.19464359 0.0050936127 -0.072572775 0.016845489
0000a0 c6 f9 d2 be b9 e3 89 3d ea 37 34 be 9f db 04 be
       -0.41206187 0.06732888 -0.17599455 -0.12974404
0000b0 6c 16 81 bc 79 49 75 bd 62 a7 98 bd e6 b2 89 bc
       -0.015757762 -0.059884522 -0.07453801 -0.016808938
0000c0 db 0e db 3d 0e 2d 2c bd 6f 00 d2 bc 4d ce b7 bd
       0.10696193 -0.042035155 -0.025634972 -0.089748956
0000d0 57 0b 6c be 29 ec 25 be f9 7f a3 3d dc f1 a0 be
       -0.23051201 -0.16203369 0.07983393 -0.31434524
0000e0 f6 c4 5a 3d a1 04 32 be e6 5a 67 be 05 d8 af bc
       0.053410493 -0.17384578 -0.22593269 -0.02146531
0000f0 00 e1 ac bd 1e a7 17 be 51 df f5 bc 0c 62 16 be
       -0.08441353 -0.14809844 -0.030013712 -0.1468584
000100 36 dd 2a 3d 5e c2 30 3d 15 a7 b6 bb 81 b3 ac bb
       0.04171487 0.043154113 -0.005574117 -0.005270422
000110 f6 b7 16 be 2c 6e ca bd 9a 15 80 bc 84 5c 80 bd
       -0.14718613 -0.09884295 -0.0156353 -0.06267646
000120 58 b3 b2 bc 01 e1 58 bd 4b 2d 04 be 64 e2 c7 bd
       -0.021814033 -0.052948955 -0.12907903 -0.097599775
000130 4d aa 84 be f1 70 d7 3d 71 13 4c bc 5f 0b 68 3d
       -0.2591118 0.10519589 -0.012455807 0.05665147
000140 dd e4 da bd 88 41 81 bd 63 e9 31 bc f5 6d a9 bd
       -0.106881835 -0.06311327 -0.010858866 -0.08272926
000150 e0 de ad bc 69 52 1d be c1 ab 27 bd 06 1c c2 bd
       -0.02122444 -0.15363468 -0.04093528 -0.09478001
000160 69 fe b2 bd af 5c 13 bc 66 33 7f 3d b9 77 1d bd
       -0.08739931 -0.008994265 0.062304877 -0.038444255
000170 7f 98 37 be e6 04 a2 be ce 3d 8d 3d 3d 55 df bd
       -0.17929266 -0.31644362 0.06896554 -0.1090493
000180 c3 09 0b 3d 3e 6d d3 bd e3 9c 00 3e ac e9 8f be
       0.033944856 -0.10323571 0.12559848 -0.28107965
000190 fd a5 91 bd 0e 9e bc bb 29 4a 92 bd ad 4e 13 be
       -0.07111738 -0.0057561463 -0.07143051 -0.14385481
0001a0 b7 3d 87 bd 32 02 27 be 2c 93 3a bb 9e c1 a2 bb
       -0.06603568 -0.16309431 -0.002846907 -0.0049669286
0001b0 00 0f 2b be f5 1e a8 bd 81 cd fb bd 31 c2 80 be
       -0.16704941 -0.082090296 -0.12295056 -0.25148156
0001c0 0b 18 59 3d c2 a4 b9 3d ca bb bb bc 26 9b d6 bd
       0.053001445 0.09064628 -0.022916693 -0.10478811
0001d0 43 6b 01 3e b3 74 86 bd 7a 7b cb bd da 3b c4 bd
       0.12638573 -0.06565227 -0.09935661 -0.09581728
0001e0 32 93 9f bd c7 e9 df bb 3b e1 4e bd e2 17 34 be
       -0.07791747 -0.0068332884 -0.050507765 -0.17587236
0001f0 ff f9 f1 bd c1 3a 44 be 97 ad 22 bd 1e 98 45 3d
       -0.11815261 -0.19163038 -0.03971633 0.048240773

6.weight f4 [12, 128]
000000 27 b0 6e 3d 1a e1 34 3d 5c ed 36 bd 72 0c 73 bc
       0.05827346 0.044159986 -0.044659957 -0.01483451
000010 1e 83 8d bd e9 c3 30 bd 89 5f b2 3c 6e e2 2c 3e
       -0.06909774 -0.043155584 0.02177407 0.16883251
000020 49 a5 77 bc 69 ea f6 3c 03 c7 f7 bd 8e e3 8d bd
       -0.015115091 0.030141072 -0.12098505 -0.06928168
000030 0b 2e c8 bd 23 42 6f 3d 81 7e 0b be 1b 1b 06 3e
       -0.09774407 0.058412682 -0.13622476 0.13096277
000040 8d a2 29 bd d5 af b9 3d 80 ac 44 3d cf b0 e3 bc
       -0.041414786 0.090667404 0.04801607 -0.02779427
000050 1e 67 37 3d 1f da 0c bb 15 f6 09 bd 6d c2 63 bc
       0.044776075 -0.0021492315 -0.033681948 -0.013901335
000060 c0 71 cc 3d cc a1 61 bb ce e7 f8 bd 12 ee c3 3d
       0.099826336 -0.0034428714 -0.12153588 0.09566893
000070 0a f2 15 bd 2d d2 30 bd da d8 ed bc 3a 1a 76 bd
       -0.03660778 -0.04316919 -0.029034067 -0.060083605
000080 75 54 95 3b d3 7b e4 3d 41 8e 4d 3d e3 57 0b bd
       0.004557187 0.1115643 0.050184492 -0.034019362
000090 dd 73 05 bd 30 30 20 3d d7 e9 78 3d ca d1 b7 3d
       -0.0325812 0.039108455 0.060769882 0.08975561
0000a0 8f 19 00 3e 10 93 0f 3d 82 f7 b5 bd 8d 35 a4 3d
       0.1250975 0.03505236 -0.08885099 0.080180265
0000b0 6c f7 f9 3b 45 53 51 bc c6 85 1d bd 48 a0 24 3c
       0.007628372 -0.012776201 -0.038457654 0.01004798
0000c0 d0 28 7d bd 51 ca 68 bd b3 f7 e5 bd 75 e8 89 bc
       -0.0618065 -0.05683357 -0.112288855 -0.016834477
0000d0 34 e7 60 3d 78 c5 6b bd c4 16 ff bd f1 8e d1 bc
       0.054907992 -0.057561368 -0.12455514 -0.025580855
0000e0 f6 53 cb 3d 85 36 12 3d 20 3e 0c 3e 97 50 15 3d
       0.09928124 0.035696525 0.13695574 0.03645381
0000f0 78 cc 4c bd 18 e2 3f bd a8 1e fc 3c 8d 92 c5 3c
       -0.049999684 -0.04684648 0.030776337 0.024117732
000100 13 3a bd bd b8 7e 23 bd 09 86 62 bd fa 4b 65 bd
       -0.092395924 -0.03991577 -0.055303607 -0.05598066
000110 51 b7 50 bd f8 94 bd bd c8 3b b4 3d f3 29 0f bd
       -0.050956074 -0.09256929 0.08800465 -0.034952115
000120 cf 6f 62 bd 5f f4 2d 3d 23 8c 6b 3d 48 ed 06 bd
       -0.05528241 0.04246938 0.05750669 -0.032941133
000130 b7 c8 e6 bc 43 f9 5b bc 31 df 9f 3d a0 08 38 3d
       -0.02817188 -0.013426128 0.07806242 0.0449301
000140 b4 2e 4e 3d bb 7b 11 3d 91 b6 c1 3c 8e d3 92 bc
       0.05033751 0.03551839 0.023646625 -0.017923143
000150 13 8f 39 3d 40 8b 1b 3b b7 fc 0b bd 23 fc 25 3d
       0.04530246 0.0023734123 -0.034176555 0.04052366
000160 c2 e6 4b 3d 7e 79 c5 3c 82 11 e8 3c c9 5a 83 3c
       0.049780615 0.024105784 0.02832866 0.0160345
000170 d7 7f 4d bd ba 5f 13 3d 0a 63 8c bc 1f aa 08 3d
       -0.050170746 0.035979964 -0.01713707 0.033365365
000180 65 4f 63 3c 12 9a 4c 3d 02 b1 dc b9 f4 c1 9a 3d
       0.01387391 0.04995162 -0.0004209355 0.07556525
000190 7e 79 aa ba 14 5a ee bd 16 58 c1 3d 5a 81 d0 3d
       -0.0013006178 -0.11638275 0.09440629 0.10180922
0001a0 81 e0 dd bd 62 33 e7 bc b2 ae 91 bc a2 68 95 3d
       -0.10833836 -0.028222743 -0.017783497 0.07295348
0001b0 ed 03 e3 3c 17 fe c4 3d a6 02 b0 bc 3f 18 a2 bd
       0.027711833 0.09618776 -0.021485638 -0.07914781
0001c0 f9 ff d4 3c 08 90 9e bd eb 41 0f be 12 e4 95 3d
       0.026000964 -0.077423155 -0.1398999 0.073188916
0001d0 d4 d8 37 3d 58 99 14 bd e8 99 87 3d 31 d2 38 3d
       0.044884518 -0.036279052 0.06621152 0.04512233
0001e0 e4 a7 bb 3c aa 38 94 bc 6d e0 a3 3c 8e 88 56 3d
       0.022907205 -0.018093426 0.020004475 0.052376322
0001f0 50 60 33 3d 6a c4 61 3d cf e8 be 3c f9 ef 9a bd
       0.043793023 0.055118956 0.023304371 -0.075653024
000200 12 56 2d 3d 08 78 85 3d 59 d5 0b bd ea 54 8f 3d
       0.04231841 0.06517035 -0.03413901 0.06998618
000210 c3 b4 4c 3d a7 07 e0 bc 27 94 34 bd 11 1a 8e bd
       0.049977075 -0.027347399 -0.0440866 -0.069385655
000220 4d 85 2d 3d 39 3f 8e 3c dc e6 38 3d 80 6b c0 3c
       0.042363454 0.017364131 0.04514204 0.02348876
000230 12 65 84 bb d0 9d 17 3c 98 8e 71 3c 92 f5 90 3c
       -0.004040369 0.009253934 0.01474347 0.017695222
000240 13 b0 63 bc fd 57 4c bd b6 0b 11 bd 3d e4 49 3c
       -0.01389696 -0.0498886 -0.03541156 0.012322483
000250 08 4d 84 bd 2a 8d 21 3d aa e0 62 bd 24 69 28 3d
       -0.06460005 0.039441265 -0.055390038 0.041115895
000260 56 21 ad 3b da 60 82 bd cb 8c 1e 3d 5a 0a 6c 3b
       0.005283515 -0.06366129 0.03870849 0.0036016912
000270 28 14 a4 3d ab 17 18 3c ef 31 1e 3d b0 24 a8 bc
       0.08011657 0.009282987 0.03862184 -0.020525306
000280 cd 31 ad bc 7b 8a 17 be 83 59 35 3d 84 36 09 bd
       -0.02114191 -0.1479892 0.04427482 -0.033499256
000290 e1 46 bc bb 5e fa 90 3d d7 3d 80 bd 9e 6d 3e 3c
       -0.005745754 0.07079004 -0.06261795 0.011622814
0002a0 35 9c 85 3c 67 aa ac bb 55 be 78 3b 55 82 86 3d
       0.016309837 -0.005269337 0.0037955244 0.065678276
0002b0 f2 d2 3d bc 38 a5 c6 3d 9d fe 46 3d d6 3a 67 bd
       -0.011585938 0.09699482 0.048582662 -0.056452595
0002c0 55 55 7a 3d 51 a3 8f 3c 54 20 2c bc 9b 97 22 bc
       0.061116535 0.01753393 -0.0105057545 -0.009923841
0002d0 9c 2a 0a bd 97 fd de bd 8a 86 fe bc b3 9c bc bd
       -0.03373204 -0.10888212 -0.031070013 -0.092095755
0002e0 31 20 f5 3c 03 26 2f bd 86 00 89 bc 1f cb 02 bb
       0.029922577 -0.04276086 -0.016723882 -0.0019957495
0002f0 7b b6 0e bd 7e 44 ed 3c f8 11 c6 3b 76 af 11 3d
       -0.034841996 0.028963324 0.0060446225 0.035567723
000300 4c 10 8a bd 51 90 89 3a 17 85 61 3d 68 70 13 bd
       -0.0674139 0.001049528 0.055058565 -0.03599587
000310 9f 36 d0 bc 8c f5 89 3c fa 2a 9d 3d 25 7c fa 3a
       -0.02541667 0.016840719 0.07674213 0.0019110484
000320 a1 a8 f7 bd 42 3c 34 bd 2c bd 5b bd 8f da f1 3c
       -0.1209271 -0.04400278 -0.053647205 0.029523162
000330 e7 d6 13 be 15 3f 2c 3d 09 4f 38 3d b0 3d b1 bb
       -0.14437447 0.042052347 0.04499725 -0.005408965
000340 b0 e1 c0 bb d1 46 3d 3d 26 87 83 bc 2d 41 70 3c
       -0.005886279 0.046210114 -0.016055655 0.014663977
000350 71 ff 04 3d 60 9a f7 3c e9 e9 0a 3d ea 3a 55 3d
       0.03247017 0.030224979 0.03391448 0.052058138
000360 c9 4b b9 3d bd ec da 3c 33 f6 a4 3d 89 3e 02 bd
       0.09047658 0.026724214 0.08054771 -0.03179792
000370 0a 32 04 bd d7 c8 f9 3d ec d4 2c 3d 44 9a e5 3c
       -0.032274283 0.1219651 0.042195246 0.028027661
000380 d9 16 05 3d 56 79 23 3d 18 cc e8 3b dd cc 09 bd
       0.032492492 0.039910637 0.007104408 -0.03364264
000390 ef 51 55 3d b7 de 8c bd 69 45 d9 3d 79 8f 5c bd
       0.05208009 -0.06878417 0.10608942 -0.053847764
0003a0 9f 17 d7 bd 61 20 07 bd 76 3a 55 bc c8 61 59 bd
       -0.10502552 -0.032989863 -0.013014426 -0.053071767
0003b0 54 cf 25 bd c2 02 fc 3c da d0 c6 bd 1d 87 35 3c
       -0.040480927 0.030763034 -0.09707804 0.011079577
0003c0 e5 45 41 3d 06 f1 d2 3b eb 86 47 3d 85 10 f4 3b
       0.047185797 0.0064374236 0.048712652 0.0074482583
0003d0 ff 44 e4 3c 74 fa 77 3d a6 3d 1f 3d ee 49 d7 3d
       0.027864931 0.060541585 0.038877152 0.10512148
0003e0 98 d0 e9 3c d2 05 53 bc 8f b7 1d 3e 7b 2f 2c 3c
       0.028541848 -0.012879806 0.15402053 0.010509367
0003f0 d6 cf 6b bc 55 dd 70 bd ba 3b d8 bc 1b 44 78 3d
       -0.014392814 -0.05880483 -0.026395667 0.060611825

6.bias f4 [12]
000000 af ba 88 bd 3a fb 8a 3d cb dd a0 3d 33 77 42 3d
       -0.06676232 0.06786199 0.07854804 0.04747696
000010 60 79 eb 3d 09 1e cc 3d a1 29 89 bd 08 8d b6 3c
       0.1149776 0.09966666 -0.06697393 0.022284046
000020 6f 8a ed bb d1 85 2a 3e b2 5f 37 3b a4 3a 37 3c
       -0.0072491686 0.1665261 0.0027980623 0.011183415
