onnx/legged.onnx (onnx, 823765 bytes, 8 tensors)

0.weight f4 [512, 77]
000000 8c e2 49 3e 57 91 a3 3e db c5 b3 3e 91 ed c8 3e
       0.19715327 0.31946823 0.3511189 0.3924375
000010 4c 86 1f 3e 87 1d 62 3c a5 15 03 bd f2 76 5d b9
       0.15578574 0.013800985 -0.032003064 -0.00021120513
000020 f6 40 f2 bd a1 bf a3 bc 92 7c e0 3d ac fd 3a 3e
       -0.118287966 -0.019988837 0.1096126 0.1826083
000030 9c c2 05 be f5 14 4a be 55 ee 30 3e 15 12 cd 3d
       -0.13062519 -0.19734557 0.17278416 0.100132145
000040 a8 72 02 be 7d b2 e1 3d 56 9f 6b 3e be 19 1a bc
       -0.1273905 0.11020372 0.2301 -0.0094055515
000050 d7 61 16 3e 56 93 8d bc 0b 6b 14 3e ad 80 1b 3c
       0.1468576 -0.01728217 0.14493959 0.009491128
000060 a9 27 a3 be 56 22 9d 3d 9e 7a e2 bb 5a c6 b8 bd
       -0.31866196 0.07672565 -0.0069115898 -0.090222076
000070 37 7b ac 3e 3e 1c 6f be 91 57 ae 3e e4 14 12 3e
       0.33687755 -0.23350617 0.34051183 0.14265782
000080 e8 b1 b0 bd 7f 6e 20 bd 4f 42 01 bb db ca 8a bc
       -0.08627683 -0.039167877 -0.001972336 -0.016942432
000090 dd a7 68 bc 87 54 01 bd b8 54 bb bc 45 d4 c3 3c
       -0.014200178 -0.031574752 -0.022867545 0.023904929
0000a0 ca 78 95 3a 33 ce 5b 3b af 87 31 3d 2e 7e 0b bd
       0.0011403796 0.0033539652 0.04334229 -0.03405588
0000b0 da 46 91 bc 36 00 6d bc bd 34 46 3d 68 9c 7b 3c
       -0.01773398 -0.014465382 0.04839014 0.015357114
0000c0 a0 15 40 bd 50 84 03 3e 5c 5e cd 3d c3 ea 8d bd
       -0.046895623 0.12843442 0.10027763 -0.06929543
0000d0 cd d1 31 bd 72 cc 92 bc 80 1d 36 bd 56 fa 31 3d
       -0.043412972 -0.017919753 -0.044461727 0.04345163
0000e0 3f 7f c1 bd f3 c7 95 bd 48 a0 83 be 26 31 54 bd
       -0.094480984 -0.07313528 -0.25708222 -0.051804684
0000f0 f4 ea f8 3b 7d d3 7e be 77 be 95 bc 5b ed 68 3c
       0.007596368 -0.24885364 -0.018279297 0.014216746
000100 00 88 9e bc 35 7f ce bd 88 8d 9b bd 79 c6 79 3c
       -0.01935196 -0.100828566 -0.07595354 0.0152450735
000110 3a 03 dd bd c2 87 a5 3c 9e e2 dc 3c 4f 78 bb 3c
       -0.10791631 0.020206336 0.026963528 0.022884516
000120 b6 7b b2 3d 29 8a fb 3d 27 45 5b be d8 52 ec bd
       0.08715002 0.12282211 -0.21413098 -0.11539239
000130 b7 3a 40 bc f2 50 57 be 7f e4 f5 3d a7 f8 97 bd
       -0.011732749 -0.21026972 0.12006473 -0.074204735
000140 85 cb 5d 3e 76 ca 1b 3e 9e 5d e8 bd 45 81 8b bc
       0.21659668 0.15213951 -0.11345981 -0.017029414
000150 dc 27 e6 3c 91 63 23 bf d4 4d a7 bd 7c 41 0f 3e
       0.028095178 -0.638238 -0.081691414 0.13989824
000160 e9 cf 2f 3d 8a ab 12 be 25 fb 32 3e 8c 42 b1 3c
       0.042922888 -0.1432325 0.17478617 0.021638177
000170 62 7a 9b bc c3 6f 21 3e 46 42 f9 3d 80 75 ad bd
       -0.018979255 0.1576529 0.12170844 -0.08469677
000180 c6 eb d4 3d 15 a4 48 3e 8a 80 0b 3e f4 45 97 3c
       0.10396533 0.19593842 0.13623253 0.018465973
000190 59 c2 c3 3d df 99 94 be 2c 34 84 3d a7 55 ee 3c
       0.09558553 -0.29023644 0.064552635 0.029093577
0001a0 4b 3d 94 bd fa b1 d9 3b 1e 11 45 3e ae c9 73 bd
       -0.07238253 0.006643531 0.19244811 -0.05951851
0001b0 35 80 da 3e 71 02 2d 3e 6d 3c 9a 3c 29 53 bd 3c
       0.4267594 0.16895463 0.018827641 0.023110943
0001c0 39 7a 22 bc 5d dd 44 bc da c0 bb bc 5d f3 ec bb
       -0.009916835 -0.012015668 -0.022919107 -0.0072311596
0001d0 77 3e e0 bb 5f 6a 14 bc 2a f2 4e bd f4 b3 df 3c
       -0.006843384 -0.009058564 -0.050523914 0.027307488
0001e0 2f 60 07 ba 97 89 e3 bd 6b e7 8d 3d cf fc cb bd
       -0.0005164174 -0.111102276 0.06928905 -0.09960329
0001f0 b1 fc 23 3e f1 d7 84 bd 2d 8e b2 bd 1b b0 81 3d
       0.16014363 -0.064865 -0.08718524 0.063324176
000200 3e 81 d2 3d fe f3 26 3e f3 21 41 3c b9 37 d9 3d
       0.10278557 0.16304013 0.011787879 0.106063314
000210 9f 92 12 3d dd 28 c3 bd 50 b8 db bd 90 f7 09 be
       0.03578436 -0.095292784 -0.10728514 -0.13473344
000220 bd 78 f1 3c 35 1e 19 bc c8 f4 7d 3d 6b 2c cc 3d
       0.029476518 -0.009345581 0.06200102 0.099694096
000230 5b a1 4c 3d 58 c3 e2 3d d1 c1 ec bd de 8c 14 3e
       0.049958568 0.11072415 -0.11560405 0.14506862
000240 eb 1a b6 bd 25 99 06 3e 6e 62 88 bc 2f 9d 43 3d
       -0.08891853 0.13144358 -0.016648497 0.047757324
000250 9c 8f b5 bd a2 4a f9 3d 2e 9c 1d 3e be a7 cb 3c
       -0.08865282 0.12172438 0.15391609 0.02486026
000260 a6 56 ae bd 01 b5 99 bd 33 15 29 be 91 55 c2 be
       -0.08512621 -0.07505227 -0.16511993 -0.37955907
000270 28 e9 05 bf 26 1c d9 be 01 05 ff 3b c0 e6 b9 bd
       -0.52308893 -0.42404288 0.007782579 -0.09077215
000280 b5 e7 bb 3c c2 ad 65 bd fb a7 93 3f f9 46 ff bd
       0.022937635 -0.05607391 1.1535639 -0.12464709
000290 c8 85 c9 bd aa cb 0b 3e a6 c6 90 be 89 6b d7 3d
       -0.0983997 0.1365191 -0.28276557 0.105185576
0002a0 81 46 16 3d 09 e5 17 3e 01 d8 29 be 54 f3 32 bd
       0.03668833 0.14833464 -0.16586305 -0.043689087
0002b0 26 01 ae 3d a3 29 23 3d ac 9c 64 bc fd 74 ac 3d
       0.08496313 0.03983463 -0.013953369 0.08420751
0002c0 7d dd 1d be 4d 24 d2 bd a0 bb 0c be 08 08 07 3e
       -0.15416522 -0.1026083 -0.13743448 0.13186657
0002d0 61 0c a2 3d ad 0c ee bd 00 a4 66 be 5a c9 1e 3e
       0.07912517 -0.116235115 -0.22523499 0.15506497
0002e0 37 64 80 bd 4a 1a d7 bd 01 af 17 be 62 f2 cc bb
       -0.062691145 -0.10503061 -0.14812852 -0.00625448
0002f0 b1 98 8d bd ab 0c 5b bd fc e0 e8 3c 8b 18 d3 bb
       -0.06913889 -0.053478878 0.028427593 -0.0064421347
000300 43 61 65 3c 36 a4 10 bd e5 fd 6c 3c ae 8a c5 3c
       0.01400024 -0.035312854 0.01446483 0.02411398
000310 57 6a 46 bd a7 5d 6f 3b 9d 17 1d 3d 64 5c 80 3d
       -0.048441257 0.0036524327 0.038352598 0.06267622
000320 76 3d 26 3e 70 f8 ca 3d 34 4f 00 bd ca e2 dc bd
       0.16234383 0.09910667 -0.031325534 -0.10785444
000330 da 6c 53 bd 24 3b 33 3e a3 e1 d7 3d 6a 2e 08 3c
       -0.05161748 0.17503029 0.10541084 0.008311847
000340 e3 c9 5b bd e2 ae 61 bd ac 49 a2 bd 70 80 3e 3d
       -0.05365933 -0.055098422 -0.07924208 0.046509206
000350 24 32 3d be ab 7e f0 3c 82 10 5b bd 2c b5 07 bc
       -0.18476158 0.029357275 -0.05348254 -0.008282941
000360 1a da 2c bc 20 47 89 3d 75 6e 26 bc 97 bf 68 be
       -0.010550046 0.06703019 -0.010158171 -0.22729336
000370 d1 ee e3 3d 26 e2 af bd 5f 3f 43 3d 7b 18 4d 3d
       0.11129535 -0.08588056 0.047667857 0.050072175
000380 49 f3 6f bd 11 b3 c0 bd 87 f3 4f 3d 8b bc 82 bc
       -0.058581624 -0.09409154 0.050769355 -0.015959045
000390 a1 b0 4c bd f1 ca 2b 3e 8f bf 30 3d a1 18 73 be
       -0.049973134 0.16776635 0.043151435 -0.23739864
0003a0 14 31 39 be 3d 44 1c be b5 4b 96 3e a1 13 84 3e
       -0.18085128 -0.15260406 0.29354635 0.25796226
0003b0 54 72 78 bc 82 d9 10 be 63 5a 52 bd b6 0e dd 3e
       -0.015163977 -0.14145473 -0.05135573 0.43175286
0003c0 a6 aa 95 bc 4e fc e9 bd 78 31 37 3c 73 d5 94 be
       -0.018269848 -0.114250764 0.011181228 -0.290691
0003d0 85 65 09 bd 28 ae 46 be 44 b3 ae 3d 20 13 7d 3d
       -0.033544082 -0.19402373 0.08530286 0.061785817
0003e0 e4 d7 d2 3c 06 de 31 bd db eb d5 3d 13 da dc 3c
       0.02573771 -0.04342463 0.104453765 0.026959455
0003f0 53 60 5b be 59 03 d2 bd 75 e6 8b 3c fb 2e 3e be
       -0.21423464 -0.10254545 0.017077664 -0.18572609

0.bias f4 [512]
000000 9f 29 b9 3d 35 ee 37 3d e6 39 45 3c a0 9f 36 3e
       0.09041142 0.044904906 0.01203773 0.1783433
000010 6c 23 0b bc 91 5b eb ba 0b 85 84 3d 72 9a 12 bd
       -0.008492332 -0.0017956366 0.064706884 -0.03579182
000020 f6 48 a3 bd d8 fd a6 3d dc b1 23 3d fa 1e 96 3d
       -0.079729006 0.081538856 0.03996454 0.07330127
000030 e2 87 49 3d e1 f6 94 bd ba ba 0b 3e 09 17 01 3b
       0.049201854 -0.07273651 0.1364545 0.0019697568
000040 5d 1f 99 3b db dc 4e bc de 81 9d bd e2 74 f6 bc
       0.0046729282 -0.012625898 -0.07690786 -0.030085031
000050 d8 ba b7 3d f7 70 cb 3d 80 df 44 3d a9 42 3b bd
       0.089711845 0.09933656 0.04806471 -0.04571787
000060 95 f4 96 3d 6a 27 de 3d df 58 f8 bc 7e ac d0 bc
       0.07370869 0.108473614 -0.030315815 -0.025472876
000070 a1 dd 9c bd 17 3e 83 3d 48 39 c2 3b a1 3b 37 bc
       -0.0765946 0.06408327 0.0059272386 -0.01118365
000080 f6 e7 6b 3d 56 59 6e bd e2 d0 79 bb a1 9d 0f 3e
       0.057594262 -0.058190666 -0.0038118889 0.14024974
000090 dc e4 c9 3c af 80 5b 3d 25 ff ca 3d 45 3e 01 3c
       0.024645261 0.05358952 0.09911946 0.007888381
0000a0 44 1e 5a 3d d9 5d bd bd 16 b1 c2 bc 71 3a 98 3b
       0.05325152 -0.09246416 -0.023766082 0.0046456386
0000b0 88 86 9e bd 06 c9 ee bd 14 9b 2c bd 1d 44 d0 b7
       -0.077405035 -0.11659436 -0.04214008 -2.482725e-05
0000c0 45 0d eb bd a3 0c ee 3d 12 65 74 bd 9b 7f 11 3e
       -0.1147714 0.11623504 -0.0596667 0.14208834
0000d0 30 11 31 3e fe 43 f9 3c 4d bc 9c bd 4c f7 04 be
       0.17291713 0.030427929 -0.07653103 -0.12984961
0000e0 17 d5 18 3d 14 65 b3 3d 64 85 ab bd 4e d5 aa bd
       0.037312593 0.087595135 -0.083750516 -0.08341466
0000f0 0e 7c 1a bd 88 6e e9 3c 90 02 1e ba b9 c5 28 3d
       -0.037715964 0.028495088 -0.00060276035 0.041204188
000100 47 71 a9 3c fc 5c 3d bd 86 7a 07 bc 9f fd 02 3d
       0.020683898 -0.046231255 -0.008268958 0.031980153
000110 9e 40 f3 bd 90 c9 8f 3d f8 ed 11 bd 0e 77 04 3e
       -0.11877559 0.07020867 -0.035627335 0.12936041
000120 07 2d dc 3d 37 20 ed bd 64 39 18 bc b4 9d f4 bd
       0.10750776 -0.1157841 -0.009291027 -0.11944142
000130 3d 6b 2e bd d3 e6 4b 3d 6f e9 9c bc eb 3e cb 3d
       -0.04258274 0.049780678 -0.019154279 0.0992411
000140 40 aa 8a bd e5 45 fe 3c da 1c 0a 3d 8b f8 0f 3d
       -0.06770754 0.031039188 0.03371892 0.03514914
000150 d3 67 4f 3d cc 6c 71 3d f1 e8 f2 bd 25 c3 ca bd
       0.050636124 0.058941647 -0.11860836 -0.09900502
000160 7b 06 b5 3d f6 a2 d2 bd 4e 28 3c be cc c6 89 3d
       0.08839127 -0.102849886 -0.1837475 0.067273706
000170 b2 ac 30 be 64 93 bd bd 2b 08 eb bd 18 58 1f be
       -0.17253378 -0.09256628 -0.11476167 -0.15560949
000180 0b 17 69 bd f0 8f 48 bc 00 98 50 bd b7 7a 75 bc
       -0.05690674 -0.012241349 -0.05092621 -0.014982871
000190 95 5e e1 3b 89 b1 b3 bd 77 fd 03 bd e4 1e b6 bd
       0.00687773 -0.087740965 -0.032224145 -0.08892611
0001a0 12 29 86 bd a9 62 cd bd 82 f2 f0 3b 8a 80 05 bd
       -0.06550802 -0.100285836 0.007353128 -0.032593288
0001b0 ee 63 fb bd 5f 95 8d bd 7e ee 0b 3c 78 2c 14 3d
       -0.122749195 -0.06913256 0.008540748 0.03617522
0001c0 6f 21 bf 3d 1b 32 1e 3d 97 ad b1 bd 88 f8 a8 3c
       0.09332549 0.038622003 -0.08675688 0.020626321
0001d0 1f 68 f8 bc 99 0c 46 3d 00 fa 92 bd 14 75 c6 bd
       -0.030323086 0.048351858 -0.0717659 -0.096903
0001e0 c9 71 0b bd 29 1f da 3d a7 90 e4 ba b3 8c 52 3d
       -0.03404406 0.106504746 -0.0017438129 0.051403712
0001f0 9c 56 b0 bd c3 08 94 bd 6a 4a cd bd 8c 6c 2c bc
       -0.086102694 -0.07228234 -0.10023959 -0.0105239265
000200 9c 2a 6b 3d 91 3a d7 bc 41 2f b5 3c 9d 16 72 3d
       0.057413682 -0.026273044 0.022117259 0.059103597
000210 7d 4f 83 bd cd 33 89 3c 67 86 83 b9 20 6b c8 3d
       -0.064116456 0.016748333 -0.00025086405 0.097860575
000220 7a d4 bb bc fe 66 6a 3d d9 fe 95 3d 1b 63 cf bc
       -0.022928465 0.057227127 0.07323999 -0.025315812
000230 39 06 e5 bb 3a 20 05 3e 89 b7 c0 bd 4c 93 11 3d
       -0.006989267 0.13000575 -0.094100066 0.035540864
000240 4b 63 0d be 70 a4 5a bb 8f ce 08 bd b2 15 92 bb
       -0.13807409 -0.0033362173 -0.033400115 -0.0044581527
000250 54 b0 67 bd bf 79 09 3d e3 c6 7b bd a7 25 32 3c
       -0.056564644 0.03356337 -0.06146897 0.010873235
000260 72 53 50 3c 6d cd e4 3d af 61 02 be 58 2e 67 bd
       0.012715207 0.11171994 -0.12732576 -0.05644068
000270 ea db 78 bc 43 89 b5 bd 95 aa 7b 3d f3 ea 6e bd
       -0.01518915 -0.08864071 0.061441977 -0.058329534
000280 ce 1d 54 3d 32 a5 ac bd bc 61 77 bc 79 bc 90 ba
       0.051786236 -0.08429946 -0.015098985 -0.0011042497
000290 0d 3a 0b be 7d ea b5 bb eb 9d 5b bd 60 3d b4 bd
       -0.13596363 -0.005551635 -0.0536174 -0.08800769
0002a0 a7 bc e2 bb 98 79 55 3d f7 0b 09 3d 6e 83 76 3d
       -0.006919462 0.052117914 0.033458676 0.060183935
0002b0 5f 03 da bc 5e 0c e4 bd 8b 50 35 bd c5 81 f9 bb
       -0.026612936 -0.11135171 -0.044266265 -0.0076143467
0002c0 b3 e6 03 be bd b9 6c bd a8 36 3a bd e3 d2 1f bd
       -0.12880974 -0.05779432 -0.04546228 -0.039019477
0002d0 38 96 2b 3d 83 58 83 b8 11 27 d7 bd bf 0e 0e 3d
       0.041891307 -6.2630534e-05 -0.10505498 0.03468203
0002e0 50 44 e6 3d d4 8c aa 3d 4a 5d 4e 3d 8a 17 f6 3d
       0.11243498 0.08327642 0.050381936 0.120162085
0002f0 54 e4 aa bd 87 8f 23 be e6 b8 97 3d 56 f2 6f 3d
       -0.083443314 -0.1597272 0.074083135 0.05858072
000300 d0 56 09 3d 37 57 a5 bb 00 b7 53 bc eb e7 7f 3d
       0.033530056 -0.005045797 -0.012922049 0.062477034
000310 9f a4 e2 3d af fa 11 be 75 06 dc 3d 8b 0b ce bd
       0.11066555 -0.14255784 0.10743419 -0.100607954
000320 6e e2 10 3c 5e 96 43 be 06 72 c9 bd 6c 4b 75 3d
       0.008843048 -0.1910033 -0.09836201 0.05988638
000330 bf 72 89 bd f9 c6 5b bc 91 08 ae 3d cf 01 ed bc
       -0.06711339 -0.013414138 0.08497728 -0.028931526
000340 e6 ca 10 3d a9 09 ec 3c 93 3f ad bd d4 70 bf bd
       0.03534975 0.0288132 -0.084593914 -0.09347692
000350 33 3d 35 3d f7 ce ba bd f7 d5 b6 3c 6b 10 a1 bd
       0.044247817 -0.09121507 0.022318823 -0.078644596
000360 f9 cc 0f 3b fe 9d 1b 3e 10 7b 4b bd 09 1c 92 3c
       0.0021942242 0.15196988 -0.04967791 0.017835634
000370 5a 4c 85 3b 7f cb fd bc d6 97 55 be 9c da 90 bd
       0.0040679397 -0.030980824 -0.20858702 -0.070729464
000380 5a 17 f7 3d e4 39 87 3d 9d 8c ec bc 1a 44 e2 3d
       0.12065001 0.06602839 -0.028875643 0.110481456
000390 05 22 ee b9 d7 6f e8 3d 85 1c b4 bd 57 a4 4c bd
       -0.00045420244 0.11349457 -0.08794502 -0.049961414
0003a0 7e 5a 63 3d 9a 4d 01 3d 0b 0c 1d bd e9 41 0e be
       0.055506222 0.031568147 -0.038341563 -0.1389233
0003b0 7c 89 81 bc 02 e0 15 bd f0 56 f9 bd f8 c2 5c bd
       -0.015812628 -0.036590584 -0.12174785 -0.053896874
0003c0 47 6c 9b 3b 84 e5 03 3d 5a 49 c2 3c 55 63 0c 3d
       0.0047431323 0.032201305 0.023716617 0.034274418
0003d0 11 ce a7 bd d3 e9 d2 bd 58 0c 8a bd f5 01 88 3d
       -0.08193601 -0.10298505 -0.06740636 0.06640998
0003e0 72 94 14 3e 57 20 85 3c a6 a5 ec bd 20 c8 d8 3c
       0.14509752 0.016250772 -0.115550324 0.026462615
0003f0 3f 7f 2b bd f3 50 04 3e 69 7d a8 3d b4 24 49 bd
       -0.0418694 0.12921505 0.08227045 -0.04910727

2.weight f4 [256, 512]
000000 27 80 12 bd cd a7 80 3d a0 5c de bc 2a c5 49 3d
       -0.035766747 0.062820055 -0.027143776 0.049260296
000010 8a 22 69 3d 0d 89 6c 3b 8c d9 f7 bd db 7f a9 bc
       0.056917705 0.003609243 -0.12102041 -0.020690849
000020 10 d0 c0 3c 53 f5 a8 bd 96 22 eb bc 10 a3 bf bd
       0.023536712 -0.08249917 -0.028703015 -0.093572736
000030 84 73 a8 3d ff 5a ed 3a 32 90 6a 3d 82 d2 28 bc
       0.08225158 0.0018108784 0.05726642 -0.010304095
000040 f9 a2 6e 3c fb 20 c9 bd b4 f2 2a be cb 43 88 3c
       0.014565223 -0.09820744 -0.16694146 0.016633889
000050 4a c8 10 be b1 b8 95 bd 92 20 78 bd 1b c4 a7 bc
       -0.14138904 -0.07310618 -0.060577936 -0.020479253
000060 1f fe 0c 3d 64 8f 5a bd 13 cd ca 3c 57 4c 8a bc
       0.034422036 -0.053359404 0.02475599 -0.016882105
000070 42 ce b7 3d eb 9e 58 bc 77 89 86 bd 6b 69 d5 bc
       0.089748874 -0.013221483 -0.06569188 -0.026051244
000080 5d 4c b0 3d 6c 30 f9 bc 73 09 35 bb 91 ad 5d 3d
       0.08608315 -0.030418597 -0.002762404 0.054120604
000090 3c 72 c5 bd 59 73 b1 3d c0 df 96 3d 9a e4 1d bd
       -0.09640929 0.08664579 0.07366896 -0.03854809
0000a0 4a b4 f6 3c 44 61 d1 3d e9 6c 83 3d ab e7 c1 bd
       0.030115265 0.1022363 0.06417257 -0.09468015
0000b0 c8 cd 9d 3d 14 29 f2 3c 06 2d ad bc e4 98 7c 3d
       0.07705265 0.029560603 -0.021139633 0.061669245
0000c0 a0 3e ab 3d 14 47 c9 bd f7 13 08 bc cb 95 cb 3d
       0.08361554 -0.0982801 -0.008305541 0.0994068
0000d0 f7 4c 0e bd 3e 99 dc 3d ba a8 4c 3e a7 0d 5c 3a
       -0.03474137 0.10771416 0.19986239 0.00083943683
0000e0 ac 33 70 bc bf f5 aa bd 70 a8 11 3d 0b 03 80 be
       -0.014660757 -0.083476536 0.035561025 -0.25002322
0000f0 36 2d a4 bc 73 84 b3 bd 3f 53 15 be d2 cb 16 bd
       -0.02004109 -0.08765497 -0.14582537 -0.036815472
000100 0f d6 8d 3d 98 6c 43 3d 45 76 30 3c 34 e5 b5 bd
       0.06925594 0.047710985 0.010770385 -0.08881608
000110 c1 ad 1a bd 18 3d a9 3d 61 8d d5 ba 54 6d 3c bd
       -0.03776336 0.08263606 -0.0016292745 -0.0460027
000120 a6 24 a4 bb d4 d5 80 bd a9 cc 07 3d 8a 9b b0 3d
       -0.0050092516 -0.062907845 0.033154164 0.08623417
000130 30 45 50 3d 2c e3 01 be 53 07 97 3b fc 43 92 3d
       0.050847232 -0.12684315 0.0046090274 0.07141873
000140 27 36 0c bd 2c 82 02 3d 5a 75 14 3d 3e 12 af bd
       -0.03423133 0.031862423 0.036244728 -0.08548401
000150 00 aa 9a bc 99 56 84 3c b8 05 4e 3d 0f f5 cb bc
       -0.01887989 0.016154574 0.050298423 -0.024897126
000160 9b e2 3a 3d b1 04 d9 3d d1 29 94 3d 77 6d f1 3b
       0.045626264 0.10596598 0.07234538 0.0073677856
000170 85 e2 35 bd 6c 5b 80 bd 3b 3a a9 3d 2a 1c e5 bc
       -0.04440548 -0.06267437 0.0826306 -0.027967531
000180 e6 3a fa 3d ea c0 2f bd 28 23 8e bd ea 42 90 3d
       0.12218265 -0.042908587 -0.06940299 0.07044013
000190 8f 01 17 3e 34 47 20 bd 51 33 02 3e 8d 4f fe bc
       0.14746688 -0.039130405 0.12714888 -0.031043792
0001a0 b4 0e 9a bd 77 66 31 bd 99 17 b2 bd c9 48 81 bd
       -0.07522336 -0.04331061 -0.08695907 -0.06312711
0001b0 9b ca e8 3d 12 c6 27 3d 7c fa c6 3c e8 ea 04 be
       0.11366769 0.04096038 0.024289362 -0.12980235
0001c0 d6 10 06 bc f1 1a df 3b dd ce fd 3c 36 c1 ab bd
       -0.008182725 0.0068086316 0.03098243 -0.083864614
0001d0 1b 5f 9b bd b3 f4 1c 3d 2e 77 4f bb f6 42 fa 3c
       -0.07586499 0.0383193 -0.003165673 0.030549508
0001e0 3d 81 f5 ba 33 63 5e bd e1 4f 1b bd f3 04 14 bd
       -0.0018730533 -0.054293822 -0.037917975 -0.036137532
0001f0 99 57 e4 3d a6 8a b3 bc d2 4f 15 3d 19 d5 3f bd
       0.111495204 -0.021916699 0.036453076 -0.046834085
000200 80 e5 f1 bc 7c 3a da 3d 71 9a a3 bd 57 31 91 bb
       -0.02952838 0.10655686 -0.07988442 -0.0044309306
000210 04 04 0d 3e 8e ea d2 bc d8 e5 4f 3d d4 3c 02 be
       0.13771063 -0.02574661 0.050756305 -0.12718517
000220 49 ba 78 3c 44 55 13 3c b4 94 03 3d b9 4b fc 3c
       0.015181133 0.008992497 0.032124236 0.030797826
000230 11 b5 cc bd 17 af e9 bd 93 26 92 bd db 92 2e be
       -0.09995473 -0.11410349 -0.07136264 -0.17048208
000240 4d 11 0a 3e 0d cc fa 3d 97 aa 81 3d 25 ff 36 3e
       0.13483162 0.12245951 0.063313656 0.17870767
000250 db af b9 3d dc 38 a1 bd 87 53 e7 bd b7 66 f1 bc
       0.09066745 -0.07872173 -0.112952285 -0.029467924
000260 29 63 63 bd 82 32 1b be 63 b7 5b 3d eb 4b d2 3a
       -0.05551449 -0.15155986 0.053641688 0.0016044354
000270 e9 7f 31 bd 32 bf a9 3d e2 7a 79 bd ee da e4 3d
       -0.043334875 0.08288421 -0.060908206 0.1117457
000280 01 37 17 3e 8b 38 26 be 2e 34 b5 3d fa d6 33 bd
       0.14767076 -0.16232507 0.08847843 -0.04390619
000290 7e c4 b2 bc e1 67 8f bc fd 49 34 bd eb c1 1e bd
       -0.02182221 -0.017505588 -0.044015873 -0.038759153
0002a0 e1 ab b9 3d 08 a0 e4 3b b8 24 f0 bd 91 c7 9e 3c
       0.090659864 0.006977085 -0.117257535 0.01938227
0002b0 09 3b a8 bc 52 f6 10 3e f8 bf 88 bb 56 cf 29 3d
       -0.020535963 0.14156464 -0.004173275 0.041457497
0002c0 3f 14 89 3d 26 23 e0 3c 31 8c fe 3d 23 2e 27 3d
       0.06693315 0.02736051 0.12429083 0.040815484
0002d0 b8 f5 92 bd 3e ae 8c 3c 43 94 08 3e de 20 4a bb
       -0.071757734 0.017172929 0.13337807 -0.0030842344
0002e0 62 80 30 be e2 3d b7 bc 0e 6e 36 3d 1d f7 eb bd
       -0.17236474 -0.022368375 0.04453855 -0.115217425
0002f0 89 cf 4f be a7 51 1f 3d 9c 37 b7 3d 7a 65 8f bd
       -0.20294012 0.03889623 0.089461535 -0.07001777
000300 02 dd c2 bd 16 9c 0a bc c1 0d 5c 3d df 37 4a bc
       -0.0951481 -0.008460065 0.053724054 -0.012342422
000310 1a 6f 9d bd 43 fc 67 bc 9e 77 7e bc ea 2a b2 3c
       -0.076872066 -0.014159265 -0.015531449 0.021748979
000320 92 8f d3 3c cd fb a4 3d e1 52 2c 3d 2e 9a 01 bc
       0.025825296 0.0805584 0.042071227 -0.007910294
000330 9d b0 48 3e d9 45 fa bc ed 36 ec 3d 43 77 74 bd
       0.19598623 -0.030550884 0.11533914 -0.05968405
000340 d7 75 24 3d 2a 66 10 bd 86 f9 df bd db 0b e7 bc
       0.040151443 -0.03525368 -0.10936265 -0.028203895
000350 48 42 01 bd d2 f3 6f 3d 7e af 2f bd bd c2 81 3c
       -0.03155735 0.058582135 -0.04289197 0.015839929
000360 ff e5 ee bb d1 b6 e0 3b 85 10 7f 3d e0 52 f4 bd
       -0.0072906013 0.006857731 0.062271614 -0.1192987
000370 f3 9d 8f bd ec 42 5d be 6e a2 76 3c 55 40 7d bd
       -0.07012548 -0.2160756 0.015053375 -0.06182893
000380 10 82 40 3d b2 f0 ad be c0 aa a5 3d f0 0f 2f bc
       0.046999037 -0.33972698 0.080892086 -0.010684952
000390 b5 70 06 3e 3a f5 ce bc 4d d6 0d 3e 6f 12 ca bd
       0.13128932 -0.025263418 0.1385128 -0.09866797
0003a0 fc 80 c0 3c a4 64 55 3d 39 da 63 3e 24 f1 c6 bd
       0.023499005 0.05209793 0.22251214 -0.09713963
0003b0 20 29 bd 3d 9f 5f fc 3d ea 5b 56 3c d6 f5 26 3e
       0.092363596 0.12322926 0.013083437 0.16304716
0003c0 68 17 05 3c 0b a8 8c bd ff 53 91 bc cf 47 a9 3d
       0.008123256 -0.06867989 -0.017740248 0.082656495
0003d0 fe 0a 5a 3d ea 46 9b 3a 80 d6 10 3c 37 95 06 3d
       0.05323314 0.0011846696 0.008840203 0.032857146
0003e0 92 4b cd bd 53 d5 84 bd 05 50 84 bd a6 02 04 3e
       -0.100241795 -0.06486001 -0.06460575 0.12891635
0003f0 25 4c 3d 3c 8e 1b 49 bd e7 62 30 bd a4 87 2e bd
       0.011553799 -0.049098544 -0.04306307 -0.042609826

2.bias f4 [256]
000000 49 fc 1e bd e7 17 00 be 03 03 06 be a3 1a b1 bd
       -0.038814817 -0.12509118 -0.13087086 -0.08647659
000010 b4 b7 e8 3c bf 8b 43 bc f0 2b 92 3d bc cf 60 bd
       0.028407909 -0.0119351735 0.07137287 -0.05488561
000020 31 49 bc bc 69 b4 b2 bc 59 d9 50 3d 10 87 9b bc
       -0.02298412 -0.021814542 0.05098853 -0.018985301
000030 d1 ae cd bd c5 e0 64 bd fd 3f ad bd c9 74 d0 bc
       -0.10043109 -0.05587842 -0.084594704 -0.025446313
000040 98 c9 44 bd 70 8b e2 bc 90 a7 10 be 4d ec 0e bd
       -0.048043817 -0.02765438 -0.1412642 -0.034893323
000050 39 86 ae bd 4c 29 be bc 74 75 c6 bd a6 3d a1 bd
       -0.08521695 -0.023213051 -0.09690371 -0.07873087
000060 3a 06 eb bd 6e 28 85 bb d1 79 d8 3c 30 89 d8 bd
       -0.11475797 -0.0040636575 0.026425274 -0.105730414
000070 f3 ed 4d be 76 ca 06 be 97 fd 07 bd f9 52 30 bb
       -0.20110302 -0.1316317 -0.033200826 -0.0026904924
000080 7b 6d 9f bd 1b e4 0b bd 6a 3d d2 bc c1 e9 43 bd
       -0.077845536 -0.034153085 -0.02566405 -0.047830347
000090 aa fc ed bc 85 07 ee bc cc ff 3e 3c 0c 63 25 be
       -0.029051144 -0.02905632 0.011657666 -0.16151065
0000a0 ac 5a c1 bd 72 f6 c2 bc e6 a2 8f bd 2d 1e 1b be
       -0.094411224 -0.023799155 -0.07013492 -0.1514823
0000b0 a4 b6 bc bd d3 d7 6c ba e3 12 1e bd 84 2d 0e bc
       -0.092145234 -0.0009034846 -0.03859223 -0.008677844
0000c0 12 b0 2f bd 92 49 ac 3c 58 dc e7 bc b8 5c 35 3b
       -0.042892523 0.021031175 -0.02830331 0.0027673673
0000d0 17 d2 09 3d e7 93 92 bd ee e1 99 bd 30 57 27 be
       0.033647623 -0.071571164 -0.07513796 -0.16341853
0000e0 c2 cd 91 bc 5d ca 5b 3d 2a b9 b0 bd cf c0 4d 3c
       -0.017798308 0.053659786 -0.08629067 0.012558176
0000f0 11 8b f8 bd 4b 60 f1 3c eb 0a c3 bd 0d 30 9d bd
       -0.121359 0.029464861 -0.09523567 -0.076751806
000100 29 82 02 be c0 2c f3 bd 0b 14 01 bd a7 d4 6f bd
       -0.12744965 -0.1187377 -0.031513255 -0.05855241
000110 d8 b7 2a bd ed 37 8a 3c 3e b5 b9 bd 6a f1 ff bc
       -0.041679233 0.01687237 -0.09067772 -0.031243045
000120 52 55 1c 3c 92 7c 6a bc 1d 3c d0 bc 87 88 81 bd
       0.009541826 -0.014311926 -0.02541929 -0.06324869
000130 f0 51 fa bb 21 8a 75 bd 13 54 aa bd 5a 6a 57 3d
       -0.0076391622 -0.059946183 -0.08316817 0.05259166
000140 8d 06 b4 3d 18 36 32 bc bc e9 0f 3d cd fd 39 3c
       0.08790312 -0.010877155 0.035135016 0.011352015
000150 c5 fb 19 be 0f 01 2a bd 6c be 9c bd 45 06 d4 bd
       -0.15037449 -0.041504916 -0.076535076 -0.10352758
000160 a6 50 ac bd 30 1f 0b 3c 0e ad 50 bd 13 0f 08 be
       -0.0841382 0.008491322 -0.050946288 -0.13287
000170 ba 5b 25 bd af a6 96 bc 81 84 7e 3c ab a4 9d bd
       -0.04037068 -0.018390028 0.015534521 -0.076974235
000180 bd df 8b bd 36 20 45 bd 5e 41 f8 bc 96 14 8d bd
       -0.06829784 -0.048126422 -0.030304607 -0.06888692
000190 34 b3 d9 bd c9 1b 5b bd 46 42 f8 3b cc 86 a3 3d
       -0.106298834 -0.053493295 0.00757626 0.07984695
0001a0 a4 01 8f bd f9 2e c7 bd 59 45 84 bd 47 58 29 bd
       -0.06982735 -0.09725756 -0.064585395 -0.041343953
0001b0 99 7d 9f bd d0 16 2b bd 85 05 38 be 2a 51 02 3d
       -0.07787628 -0.041769803 -0.17970856 0.031815685
0001c0 17 a0 e2 bd 89 b1 99 bb 5b 1f 8d bd 4e 2a 94 bc
       -0.11065691 -0.0046903533 -0.06890746 -0.018086579
0001d0 2e d7 a8 3c cd a5 bd bd f8 3a 92 bd 32 d7 66 bc
       0.020610418 -0.092601396 -0.07140154 -0.0140893925
0001e0 2a f6 71 3c 35 e1 0b bb 47 24 ca bc 0c 86 da bd
       0.014768163 -0.002134395 -0.024675502 -0.10670099
0001f0 0e 52 99 3d 5e 3b b7 bd 6e 46 a3 bc 22 d7 0c be
       0.07486354 -0.0894687 -0.019931044 -0.13753942
000200 e6 38 94 3c d6 1e 65 bd 0f 6c 6c bc 4e 24 3f 3b
       0.018093538 -0.05593761 -0.01443006 0.0029165926
000210 5f 29 24 bd 6b 39 13 bc ea ee 0a bb 0c 53 1d be
       -0.040078517 -0.0089858575 -0.0021199533 -0.15363711
000220 ee 17 84 bd f0 d8 1d bd 4e b7 15 bd fe e7 04 bd
       -0.06449877 -0.038536966 -0.036551766 -0.032447807
000230 ca 25 a1 bd f9 40 11 be 6b 52 cb bc e0 7a 69 bd
       -0.07868536 -0.14184941 -0.024819573 -0.05700195
000240 8a c7 c9 bc 5a 60 c8 bd 5c 09 b8 bd a7 98 78 bd
       -0.02463128 -0.097840026 -0.0898616 -0.060692456
000250 2a 22 63 bc c9 7c 02 be 63 ba 28 be 11 45 da bd
       -0.013863126 -0.12742914 -0.16477351 -0.106577046
000260 68 a3 35 be 83 48 d6 bc 56 6e 04 be b8 5d 89 3b
       -0.17738116 -0.026157623 -0.12932715 0.0041920803
000270 87 2a ca 3c d2 f1 92 bd f3 bf bf bd 54 d8 8d bc
       0.024678482 -0.0717503 -0.09362783 -0.017315067
000280 56 7b 4f bd 9d 97 3d bd 82 d6 e9 bd e1 59 46 bd
       -0.05065473 -0.046287168 -0.11417867 -0.04842556
000290 fe 42 e2 bd c8 05 80 3c 7e 39 ee bd e3 55 e7 3d
       -0.11047934 0.015627757 -0.116320595 0.112956785
0002a0 a2 50 9a bb ef 1b 84 bd f7 67 e4 bd 7b 54 e9 bd
       -0.004709319 -0.064506404 -0.11152642 -0.113930665
0002b0 2d 55 02 be 7d c7 83 3c 0a ee 7d bc a8 3a ee bc
       -0.12727804 0.016086334 -0.0154986475 -0.029080704
0002c0 79 19 d5 bc 52 24 86 bd 10 6f b7 bc b2 d9 45 bb
       -0.026013123 -0.06549896 -0.022391826 -0.003018957
0002d0 b5 d5 74 bd ed 32 dc bc 7a 3f b8 bc 19 e3 8a bb
       -0.05977412 -0.026879752 -0.022491205 -0.004238498
0002e0 12 8d 2e be 0f 50 c7 3b 11 0d bb bd 6b d9 11 bd
       -0.17046002 0.006082542 -0.091333516 -0.035607737
0002f0 f6 8b a1 bc 3a 9b 86 3c 81 ef d7 bd ec 3f 52 bd
       -0.019720059 0.01643144 -0.105437286 -0.051330492
000300 83 02 8f bd f1 91 94 bd 53 b7 0b bd 0f 7d b6 bc
       -0.06982901 -0.072543986 -0.03411038 -0.02227643
000310 0d 9b 14 be 75 b8 20 bb 13 e9 fb 3c 3a f4 de bd
       -0.14512272 -0.0024524007 0.030750787 -0.10886426
000320 ad de 3d bd 24 64 b2 3c ee 66 11 3d 91 06 57 bd
       -0.04635494 0.021776266 0.035498552 -0.052496497
000330 ef 38 a4 bd fd a0 0d be da f9 0b 3d 9e e8 60 bc
       -0.08018672 -0.13830943 0.034173824 -0.013727335
000340 e5 20 2a 3d ef 90 d8 bb da bf da bd 68 0f a7 3c
       0.041535277 -0.0066090743 -0.10681124 0.020393088
000350 6a ad 1f 3c e5 5c e3 bd 4f b9 ed bc 8d 8b c2 3c
       0.009745935 -0.111017026 -0.029019026 0.023748184
000360 44 30 16 be 69 a7 55 3c 6a cf bc bd 69 97 40 bc
       -0.1466685 0.013040402 -0.092192486 -0.011754849
000370 df bb 8b bb 41 5e 83 bd a6 e1 98 bd 5a 0c 1d bd
       -0.0042643393 -0.06414462 -0.07464914 -0.038341857
000380 6a 56 2d bc ea 18 c5 bd 09 72 e5 3c 6e 0f 50 bd
       -0.010579685 -0.096238926 0.028008478 -0.050795965
000390 61 70 96 bd 89 9d b4 bd 39 b5 69 bd 2e 20 fc 3c
       -0.07345653 -0.0881911 -0.057057593 0.030777063
0003a0 da de 67 bd b0 8b 95 3c 11 9b e3 bd 40 3e d2 3c
       -0.056609012 0.018255085 -0.11113561 0.025664449
0003b0 ff 98 83 3c b3 7a a8 bd d8 47 8d bd 9e d6 8c 3c
       0.016064165 -0.08226528 -0.06898469 0.017192181
0003c0 cc 5d 5c bd 3d b6 b6 bc 43 65 2d bd 3d e2 b3 bd
       -0.05380039 -0.022303695 -0.0423329 -0.08783386
0003d0 04 5e c9 bd d3 ad f1 bc 54 6b ec bd 53 9e 6e bd
       -0.09832385 -0.029501831 -0.11543909 -0.05825646
0003e0 49 08 2e bc 9f c3 c8 bd 77 82 cc bc ea 91 91 bd
       -0.0106220925 -0.09802937 -0.024964554 -0.07107909
0003f0 98 1c 21 bd a1 0c 2b bc ea cf e3 3a 63 93 25 bd
       -0.03933391 -0.010440023 0.0017380689 -0.040423762

4.weight f4 [128, 256]
000000 5d f7 0f bd 0a e9 4e 3d fb 06 b0 bd 0b f2 02 3e
       -0.035148013 0.050515212 -0.085950814 0.12787645
000010 ef 4c 4e bd f7 30 28 3d e5 29 2c bd 8d 23 10 bc
       -0.05036634 0.04106232 -0.04203214 -0.0087975385
000020 a4 d3 77 bd db 2a 6c 3d e5 55 8f bd d3 15 82 bd
       -0.06050457 0.057658058 -0.06998805 -0.06351819
000030 3e 6f b5 bd 5b 79 c6 3d 7d a7 96 bb 74 61 d8 3c
       -0.088591084 0.096911155 -0.004597603 0.026413657
000040 36 24 f1 3d 0f 5c 3a bc bc 9b 2c bc ba 71 48 3d
       0.11774485 -0.011374488 -0.010535177 0.048936583
000050 3b bb d2 bc 00 1e bb 3d 9a ff 8e 3c c0 80 f7 3a
       -0.025724044 0.091365814 0.017455865 0.0018882975
000060 f9 e0 ea 3d 89 a8 09 bd fb 36 1f bd 73 4b 8a 3d
       0.114686914 -0.033607993 -0.038870793 0.06752672
000070 4a 70 8a 3d 03 a0 9e bc bf ca 98 3c 0e 7a e5 bd
       0.06759699 -0.019363409 0.018651364 -0.11204921
000080 33 9c 6b bc 94 48 0f 3d 7f 91 bd 3c b3 1f 86 bd
       -0.0143805025 0.034981325 0.023140667 -0.06549015
000090 ca 29 53 be a9 bd 35 bd a8 08 91 3c 2d 97 10 3e
       -0.2062141 -0.044370327 0.017704323 0.14120169
0000a0 b5 35 00 3e 25 5e 4b 3d e1 b5 13 bc bd b2 d5 3d
       0.12520488 0.04965033 -0.009015531 0.10434482
0000b0 38 96 ae bb 01 35 17 3d b6 39 40 bd 91 d0 45 3c
       -0.005327966 0.036915783 -0.046930037 0.012073652
0000c0 70 64 a9 bc 3b be 3e be 8e 8a 2e bb 72 20 a1 3d
       -0.020677775 -0.18627255 -0.0026632878 0.078675166
0000d0 5e f8 e7 3c c3 23 89 3d 08 d5 14 3d 10 f7 2d 3d
       0.028316673 0.06696274 0.036335975 0.042471945
0000e0 e2 a5 98 3b 64 0e 22 be 90 8c 77 3d 6c 36 ba bd
       0.0046584466 -0.15825802 0.060436785 -0.090924114
0000f0 0c e1 e7 3a cb 0c 9c 3d ae f2 43 bd f1 a0 09 3b
       0.001769097 0.076196276 -0.04783886 0.002100047
000100 77 1b b6 bd a8 b6 f9 3c 97 50 de bd 8b 94 8a 3c
       -0.08891957 0.030482605 -0.10855215 0.016916534
000110 78 46 4b 3d 8c de 65 bd e1 1a 28 bd 70 38 26 3d
       0.04962775 -0.05612044 -0.04104126 0.040581167
000120 17 76 18 bd e3 e5 b8 3d 93 3b f6 3d 62 39 74 bc
       -0.037221994 0.090282224 0.12023082 -0.014906259
000130 df f2 ca bc 71 bc 84 bd 8f 80 8c bb 67 2a b1 bd
       -0.024774013 -0.06481255 -0.0042877863 -0.08650666
000140 be fa 14 bd c6 11 5f bd 28 f4 01 be 61 34 04 bc
       -0.03637194 -0.05446031 -0.12690794 -0.008069129
000150 4c 84 97 3c 0b 65 d6 3c dc 84 53 3c ec bb ac 3d
       0.018495701 0.026171228 0.012910094 0.08434281
000160 56 ee d3 bd 26 0a 59 bc 2e f5 60 bc ca 29 9a 3d
       -0.10348193 -0.0132470485 -0.01373033 0.07527502
000170 c1 72 05 bc 4b 9d 9e bd c7 f3 16 38 70 6e 25 3d
       -0.008145035 -0.07744845 3.5989822e-05 0.040388525
000180 89 59 a3 bb 68 61 81 bd e2 44 97 bc dd d7 ef 3b
       -0.0049850387 -0.06317407 -0.018465463 0.007319434
000190 8d 0c c0 3c eb d9 13 3d 3a bb 60 3b 7a b7 a9 bd
       0.023443485 0.036096495 0.0034291283 -0.082869485
0001a0 2d d2 c6 bd 12 5f 45 3d f0 13 74 3d 79 e6 8f 3d
       -0.097080566 0.04818637 0.059589326 0.07026381
0001b0 c7 c0 a5 3d 08 6a 8d bd 86 dd 43 3c 28 41 14 bd
       0.0809341 -0.069049895 0.011954671 -0.03619495
0001c0 76 85 b7 3d f8 ed 6f 3d 47 e6 a4 3d 22 4a 05 bd
       0.089610025 0.058576554 0.080517344 -0.0325414
0001d0 8f a0 3a bd 27 db f1 bb 55 0f 87 3d f1 fc 1c 3d
       -0.045563277 -0.0073808613 0.06594721 0.03832716
0001e0 63 37 97 3b ff 37 2d be 02 8f f5 bd 81 1e 89 3b
       0.004614757 -0.16915892 -0.11990167 0.0041845446
0001f0 13 c3 be 3c 85 c5 ad bc 92 70 8c bd 78 27 9d bd
       0.023286378 -0.021212349 -0.068574086 -0.07673544
000200 cd c5 f5 3b 7f c1 8a 3d 4b d5 4e 3b a6 b4 08 be
       0.0075003863 0.06775188 0.0031560238 -0.13350162
000210 46 fc 82 3d 78 90 09 bd eb da 6d bd de c5 76 3b
       0.063957736 -0.03358504 -0.058070105 0.003765456
000220 84 a2 5a bc 21 e7 7c 3c cf c4 ec bc 82 39 4a bc
       -0.013344411 0.015435965 -0.02890244 -0.0123428125
000230 97 69 4f 3d c7 41 6b 3d 33 51 1f be 60 bb c1 bd
       0.050637808 0.057435777 -0.15558319 -0.09459567
000240 c1 32 d2 3d 0a 8a 80 bd 99 c4 1f 3c dd a0 77 bd
       0.10263587 -0.06276329 0.009751462 -0.060456146
000250 34 f1 ae 3c a6 da bd 3c 8c ce 0a 3e 5c 3b 59 3d
       0.021355249 0.023175549 0.13555354 0.053035125
000260 d9 47 03 3d c5 95 77 3d 24 9b df 3d 90 47 78 bc
       0.03205094 0.060445566 0.109182626 -0.015153781
000270 d5 ac b2 bc 24 df b8 3c 9c a4 86 3d dc cf 0e 3b
       -0.021810928 0.02256734 0.065743655 0.0021791374
000280 cb 11 b7 bd 34 88 d0 bd e7 f9 a3 bb 50 94 2a 3d
       -0.089389406 -0.10182229 -0.005004156 0.041645348
000290 b8 03 64 3d fd c7 76 3d 2d d8 bb bd 35 86 62 bd
       0.05566761 0.060249317 -0.09172092 -0.05530377
0002a0 3c 5d 58 3d eb 8d a5 bd 84 da 0f 3c 95 02 54 3c
       0.05282329 -0.08083709 0.0087801255 0.012940069
0002b0 4b 2d 45 3c 1e 35 fb 3c c3 e2 27 3c 1e e9 0d bc
       0.0120347245 0.030664977 0.010246935 -0.0086615365
0002c0 25 ca 71 bb 58 14 60 3d be 06 3f bd b1 22 f5 bc
       -0.003689417 0.0547069 -0.04663729 -0.029923769
0002d0 b3 bf 3c bc dc d4 0a 3e cc c0 33 3d 02 c5 27 bd
       -0.011520314 0.13557762 0.043885037 -0.040959366
0002e0 cd 2a d6 3c 00 af af bd 55 08 df bc 63 9a 0a bc
       0.026143456 -0.085783005 -0.027225653 -0.00845966
0002f0 14 91 18 bc 85 af 1e 3e 04 d4 18 3d c3 31 e6 3b
       -0.009311933 0.15496643 0.03731157 0.007024975
000300 ad ea a8 3c da 35 20 bc 97 fa cf bd d6 d8 f6 3c
       0.020619715 -0.009778464 -0.10155218 0.030132692
000310 44 68 d1 3b 2d 69 c4 3c 6b d6 e3 3c 8a c5 10 bd
       0.0063906033 0.023975933 0.027812203 -0.035344638
000320 87 e4 3f 3d 8a d0 7d 3c 9a 95 64 3d 33 f5 e3 3c
       0.0468488 0.015491614 0.055806734 0.027826881
000330 d7 6e d0 bb 7a d0 2a 3d 4b b5 65 3d 71 9a 35 bc
       -0.0063608694 0.041702725 0.056081098 -0.011084185
000340 38 f6 be 3d 56 2a a6 bd 79 c7 f0 bd 3c 70 de 3c
       0.09324306 -0.08113544 -0.117567964 0.027153127
000350 2f 02 71 3c bf 1a a4 bb c1 a7 19 3d 4c 98 18 be
       0.014709993 -0.005008071 0.0375135 -0.14901847
000360 d8 b2 e1 3d 0d 25 8f bb b3 21 0c bd fd e0 8b bb
       0.1102044 -0.0043684305 -0.034211826 -0.004268764
000370 8f f5 1c be 58 c5 6a bb 1a bd ad 3d 63 29 7f bd
       -0.15328048 -0.0035823192 0.08483334 -0.06229533
000380 8d 91 13 3c f4 65 94 bc de d5 8e bd ab 87 42 bc
       0.00900687 -0.018115021 -0.06974386 -0.011873166
000390 aa 11 4f be bc 30 e4 3d c5 89 8d bd 40 6b 22 bd
       -0.20221582 0.11142108 -0.06911043 -0.039653063
0003a0 dc 62 b2 bd 28 f8 c7 3c 20 f3 59 3b 53 12 d1 bd
       -0.08710262 0.024410322 0.0033256486 -0.10208573
0003b0 33 8f 2d be 14 25 b8 bd 9a 28 d4 3c 04 3f e4 3d
       -0.16949157 -0.08991447 0.025898267 0.11144832
0003c0 0c a1 c5 3c ee 4b f6 3c 39 f5 21 be 0c 15 a9 bd
       0.024124645 0.030065503 -0.15816201 -0.082559675
0003d0 85 b6 96 bc 20 34 27 bd 8f 23 23 3c e9 ea 36 be
       -0.018397579 -0.040821195 0.009957208 -0.17863049
0003e0 d0 5b e0 3c 6e ab 7b 3d 0e e1 28 3b cf 5a e4 bb
       0.02738753 0.061442785 0.0025768909 -0.006968833
0003f0 f4 1d fd 3d 41 9e c5 3c 4d ae 0a 3b e0 1f 68 bd
       0.12359229 0.024123313 0.002116102 -0.056671023

4.bias f4 [128]
000000 36 80 dc bd 33 c8 b5 3c 93 33 1e 3d e1 54 21 bd
       -0.10766642 0.022190189 0.038623404 -0.039387587
000010 a7 93 77 3d b8 94 0d 3e fd f4 40 bd e2 8e ae bd
       0.060443547 0.13826263 -0.04710864 -0.085233465
000020 0d ad 14 be ce c1 83 bc 8f 28 3f 3e 0c a7 17 be
       -0.14519139 -0.016083624 0.18667816 -0.14809817
000030 ad 0e c4 bd 6a 3a 9e be 77 05 69 3d c1 54 8c bd
       -0.09573112 -0.3090394 0.056889977 -0.06852103
000040 b8 bd 02 bd 34 68 32 be 4f 5d d9 bc 77 6e 42 bd
       -0.03191921 -0.17422563 -0.02653375 -0.04746863
000050 2d e0 a1 be 64 3f 7f be 8d 03 83 be 43 60 2b be
       -0.31616345 -0.24926525 -0.25588647 -0.1673594
000060 8e c7 10 be 69 f1 45 be 80 9c 34 3e b1 2c b4 be
       -0.14138624 -0.19330372 0.17637825 -0.35190347
000070 7c 75 b8 bd c5 fd 52 3d aa ef 9f 3c 45 0f e0 bd
       -0.09006783 0.051511545 0.01952346 -0.109404124
000080 68 5e a8 bd 02 b3 71 be 4d bb 1b bd be d3 cd bd
       -0.082211316 -0.23603442 -0.03802042 -0.10050152
000090 7c 98 30 be 5c 4c c1 3c 09 37 cb 3c bc d5 b5 3c
       -0.17245668 0.023595981 0.024806516 0.022196643
0000a0 52 3b e9 bd 9a ca 15 3e ff f0 6a be 82 f8 d3 bd
       -0.113882676 0.14628068 -0.22943495 -0.103501335
0000b0 6e cb af b9 22 33 b1 bc ae a8 96 bd 8e 6f 70 bd
       -0.00033530168 -0.021630827 -0.07356392 -0.058700137
0000c0 d7 37 19 3e b2 43 88 bc 19 57 09 bd d4 49 38 3d
       0.14962707 -0.016633842 -0.03353033 0.044992283
0000d0 59 7f 7d be 6d 4c 1f be fc 95 ac 3d 6c 55 79 be
       -0.2475561 -0.15556498 0.08427045 -0.24348992
0000e0 68 98 8b 3d 4f 40 16 be 6c 4b 5a 3b e8 b4 bf 3d
       0.068161786 -0.1467297 0.0033309115 0.09360677
0000f0 7e 80 eb bd 81 a0 b1 bd 84 56 a8 b9 c3 ab 77 bd
       -0.11499117 -0.08673192 -0.00032107916 -0.06046654
000100 89 17 2b 3d 7f 24 31 3e 3a e9 d2 bb 38 86 5c bd
       0.04177049 0.17299078 -0.006436494 -0.05383894
000110 4e 7f df bd 57 fd 2a bc 4e 40 7c 3c 95 4b 6c bd
       -0.10912953 -0.0104363775 0.015396191 -0.05768927
000120 61 a3 7b 3b e0 74 3a bd c1 1c f0 bd c2 ff 0e bd
       0.0038396942 -0.045521617 -0.11724234 -0.03491188
000130 cb f2 77 be 86 fb 3d 3e 3c 1a 91 3c a4 c4 72 3d
       -0.24213712 0.1855298 0.017712705 0.059269562
000140 fc c8 a6 bd f5 c5 e4 bc a6 87 ca 3a b1 fa 6f bd
       -0.081438035 -0.027926425 0.0015451803 -0.058588687
000150 f9 03 cb 3d 4f b1 1a bc b5 24 d8 3c f8 7e c2 bd
       0.09912867 -0.009441688 0.02638469 -0.094968736
000160 53 61 f5 bd 8c 4b f3 3b fa fb b9 3d ef 04 ad bd
       -0.11981454 0.0074247774 0.09081264 -0.08448207
000170 86 08 38 be d1 c1 f4 bd ac e3 0d 3e 57 ca 32 bd
       -0.17972001 -0.1195103 0.13856381 -0.043649998
000180 e0 0a 20 3d 89 49 19 be 9c c0 ac 3d 26 e1 71 be
       0.03907287 -0.14969458 0.08435175 -0.23621044
000190 30 70 8b 3b 25 94 0d 3c 8d 80 f0 bc 3f d4 40 be
       0.004255317 0.008641277 -0.029358173 -0.18830965
0001a0 db e1 05 be bd f8 db bd f3 ac e7 3d eb bf 82 ba
       -0.13074438 -0.107408024 0.11312284 -0.0009975409
0001b0 0e fc d3 bd c8 0a 92 bd 83 9a 3a be cc 1d d0 bd
       -0.1035081 -0.071309626 -0.18223004 -0.10161933
0001c0 35 e0 cf 3d 4b 1a e6 3d 2f 77 81 3d 6f 5c 9d bd
       0.10150186 0.11235484 0.063215606 -0.07683646
0001d0 83 c3 02 3e 63 3a 83 b9 f1 b2 b6 bc 5c 5f eb bd
       0.12769894 -0.0002502977 -0.022302123 -0.11492798
0001e0 e1 8f 79 3d 3d 63 72 bd b4 ce 7b 3d e5 8c 80 bd
       0.06092823 -0.059176672 0.061476424 -0.062768735
0001f0 16 01 e2 bd 57 e7 84 bd 91 59 80 bd 30 3f f5 3d
       -0.110353634 -0.06489437 -0.062670834 0.11974943

6.weight f4 [12, 128]
000000 60 4f 60 bd d3 d1 02 3e b9 4b 9c 3d 78 c2 62 bd
       -0.054763198 0.12775354 0.076316305 -0.05536124
000010 95 a1 ff bd c4 21 d5 bd f7 d7 f1 bb 89 5c 5e 3d
       -0.12481991 -0.10406831 -0.0073804813 0.054287467
000020 55 d9 47 3d 6f 0e 8b bd ab 50 66 bd eb 6a d2 3d
       0.04879125 -0.06789862 -0.056229275 0.10274299
000030 23 5b 8e 3d ac 2c ce 3d 56 d6 22 bc 78 5a 85 3d
       0.06950977 0.10067114 -0.009938797 0.06511396
000040 7f d6 8a bd f2 5d 25 bc 4b c0 80 bc 03 51 f1 3c
       -0.06779193 -0.010093199 -0.015716692 0.029457575
000050 05 29 37 3e 38 f8 af 3d 23 97 cb 3c 11 2b 5b bd
       0.17886741 0.08592266 0.024852341 -0.05350787
000060 00 fb 48 bc 85 02 12 3e 2f 3e d4 bd df 6b fc 3c
       -0.012266874 0.14258774 -0.10363423 0.030813156
000070 13 80 70 bd 72 5e f1 3d 3d 8f 8c bd 74 f8 94 bc
       -0.05871589 0.11785592 -0.06863258 -0.018184878
000080 93 f2 1e 3e db 84 f6 3d 4b 80 ed bc 45 d7 8a bc
       0.15522222 0.12037059 -0.028991839 -0.016948352
000090 2e 24 94 bc 8c 58 50 3c d2 88 9c 3d e3 08 84 3d
       -0.018083658 0.012716424 0.07643284 0.064470075
0000a0 92 7b 35 3d 99 5e c6 bc 1f b5 0c bd 7d 54 8a bd
       0.0443073 -0.02421503 -0.034352418 -0.06754396
0000b0 7b 95 6e bd 87 57 18 3d 06 77 26 3e 1a cc a0 bd
       -0.058248024 0.037192848 0.16256341 -0.07851429
0000c0 c7 7d c3 bd 32 96 cc bd 1b 9c 0d bd 44 9a 20 bd
       -0.095454745 -0.09989585 -0.034572702 -0.03920962
0000d0 3b e2 06 bd b5 72 90 bd b0 74 dc bd 86 30 66 3c
       -0.032930594 -0.07053129 -0.10764444 0.014049655
0000e0 9c c9 cf 3d 03 4c 73 bd 13 c7 27 3d 0c 64 f8 3b
       0.10145876 -0.059398662 0.040961336 0.007580286
0000f0 70 73 49 3c c7 19 4f bc b0 88 8a 3d b0 35 91 3c
       0.012295589 -0.012640423 0.06764352 0.017725796
000100 f3 14 ae 3d 5d d8 db bc ec 1f e9 3b 90 e5 04 be
       0.085000895 -0.026836568 0.007114401 -0.12978196
000110 7b 1b 4e bd 9e 3d f7 bd 33 67 58 3d 21 44 24 be
       -0.050319176 -0.120722994 0.052832793 -0.16041614
000120 ff 6f 6e 3d 1b 3c 4c 3c b3 cf 94 bd 50 31 7b ba
       0.058212277 0.012465502 -0.07266178 -0.0009582238
000130 85 de 58 3d 3b ca 30 3d fb 3b b3 bc f2 3c 33 3b
       0.052946586 0.043161612 -0.021879187 0.0027349559
000140 c5 ea de 3d 87 6a 41 bd b0 02 97 bd cd a3 89 3d
       0.108846225 -0.047220733 -0.073735595 0.06720696
000150 1d 98 90 3c 4b 4d 91 3d 73 db c9 3d 93 46 6f 3c
       0.017650658 0.070948206 0.0985631 0.014604229
000160 eb 44 06 3c aa 07 83 3b 3c f3 6c bc bb 54 64 3d
       0.008195142 0.0039987164 -0.0144622885 0.055744868
000170 3b 53 92 bd 15 e2 92 bc 81 a4 00 bd c3 e8 2e 3c
       -0.07144781 -0.01793007 -0.031406883 0.010675612
000180 79 2e eb bc 4c ae 95 3c b9 4f ae 3c c2 ce 9b 3d
       -0.028708683 0.018271588 0.02127825 0.07607795
000190 50 f5 9f bd 74 40 b8 bd ae 12 e5 3c 58 13 3c 3d
       -0.078104615 -0.089966685 0.027963009 0.045916885
0001a0 c2 db 63 bc ce 5d 99 bd 1b 9a 83 3d 06 8b cf bd
       -0.013907375 -0.07488595 0.06425878 -0.101339385
0001b0 96 ae 2f 3d af 99 8a 3d 35 ba bf 3c 76 8c f2 bb
       0.042891107 0.06767594 0.02340422 -0.007401998
0001c0 55 82 92 3d 29 17 33 bd 82 07 59 bd 35 dc 4b bd
       0.07153765 -0.04372326 -0.052985676 -0.049770553
0001d0 7a 00 42 3c ab cc 21 bd 1a 69 a3 3d dd 7e 53 3d
       0.011840934 -0.039501827 0.07979031 0.051634658
0001e0 2e 99 01 bd a0 f8 8e 3c e8 38 c4 bc c8 6b 49 bc
       -0.031640224 0.017452538 -0.023952916 -0.012293763
0001f0 c9 dd 42 3d 5b b4 19 bd ab f7 22 3c a9 fb bd bd
       0.047574792 -0.037525516 0.009946744 -0.09276516
000200 83 31 58 3d 4f de 80 bd 15 2d 89 bd d9 f5 82 bb
       0.052781593 -0.06292402 -0.06698052 -0.0039965925
000210 7d fd 36 bd bf 11 06 3c 10 d7 33 bd 1f 00 71 3d
       -0.04467534 0.008182942 -0.04390627 0.058838006
000220 96 2f cd 3c 51 ac 8c bc 08 17 19 3d ac a0 83 bd
       0.025047105 -0.01717201 0.03737548 -0.0642713
000230 03 55 8c bd 6d 4d aa bd 80 af da bc 8a 2a 25 3e
       -0.06852152 -0.08315549 -0.026695013 0.16129509
000240 b7 6d 93 3b a0 0b a0 bd 05 fc 26 be 4e 88 06 be
       0.004499163 -0.07814717 -0.16307075 -0.13137934
000250 6a b6 c8 bd 6b 03 03 bc 37 72 0a bd 95 d8 69 3b
       -0.09800418 -0.00799642 -0.03380033 0.0035682071
000260 95 10 4e 3d 3f 8f 55 bd 3d 2b 07 3d 01 71 81 3d
       0.050308783 -0.052138563 0.03300022 0.06320382
000270 30 27 5f 3d d5 fc b0 3c 51 43 3f bd 27 d7 e6 bc
       0.05448073 0.021604935 -0.046695057 -0.028178765
000280 7b 4f c5 3c 34 c0 a0 3c 33 0d 23 be 57 6f 0a bc
       0.02408575 0.0196229 -0.15923004 -0.008449397
000290 0d 6f c8 bd e6 09 2d 3d 90 dd 66 3c 9d 36 05 bb
       -0.09786806 0.042245768 0.014090911 -0.0020326742
0002a0 77 8a 6d 3c 61 60 ef 3c 8e b4 c2 bc 1d 60 80 bd
       0.014498345 0.029220762 -0.023767736 -0.06268332
0002b0 2d 8d 71 bb b0 39 25 3c 20 fd c9 3b 6e a1 c7 bd
       -0.003685783 0.010084555 0.006164208 -0.09747587
0002c0 cd 1a 9e 3c 55 bb 8a 3d 4e a8 6b 3d 38 88 00 bc
       0.019299889 0.06774012 0.057533555 -0.007844977
0002d0 76 de 81 3c a2 b7 af bd ee f1 82 3c 18 b9 1f bd
       0.015853148 -0.08579947 0.015984502 -0.03899488
0002e0 f3 70 e2 3b 70 06 6a bd bd b2 ec bc 32 65 23 3d
       0.0069104373 -0.057135046 -0.028893823 0.03989143
0002f0 f1 92 b4 3c cd 3d 43 bd 61 94 1a 3d e4 d1 37 bd
       0.022042723 -0.04766636 0.03773916 -0.0448779
000300 2c 8a ac 3d 34 3c 86 ba 9d 88 d7 3d fd 74 f9 bc
       0.08424792 -0.0010241331 0.10524104 -0.030451292
000310 2e 37 bf 3c 60 cb 25 bd 6a a3 37 3d 9c d4 18 3d
       0.023341741 -0.040477157 0.04483358 0.037312135
000320 23 70 81 3b 4b 75 f0 bb 9c 55 49 3d bb c7 26 3d
       0.0039501353 -0.007338201 0.04915391 0.04071782
000330 06 22 23 bd 25 ce 76 3d b1 ea f7 bc 3d a0 f0 3d
       -0.03982737 0.06025519 -0.030263277 0.11749313
000340 56 9f 16 bd 05 b4 dd bb d5 72 0a bd 0e 1a 53 3d
       -0.03677305 -0.0067658448 -0.03380092 0.05153852
000350 7f 53 b0 bd 16 52 d9 bc 61 88 08 3d 9b a4 76 3b
       -0.086096756 -0.0265284 0.033333186 0.0037634734
000360 cf e2 0c 3d e4 67 18 3d 85 8e e7 3d dc 79 57 3c
       0.03439599 0.037208453 0.1130648 0.013151612
000370 e3 fd ac bd 79 85 e3 3c 8a cd e9 3d b4 b4 cb bb
       -0.084468625 0.027773606 0.114161566 -0.00621661
000380 d2 2b 0f 3d 86 ae 70 3c 8b ed a6 3c 22 8e 90 bc
       0.0349539 0.014690047 0.020376941 -0.0176459
000390 34 b6 2a 3d e8 94 2c 3d 0c cc c9 3c 79 6f 22 be
       0.04167767 0.042134196 0.02463343 -0.15862836
0003a0 f7 86 72 3b 62 60 81 3d de 00 38 3c 67 4f 9b bd
       0.0037006715 0.06317212 0.0112306755 -0.07583504
0003b0 e5 75 fa 3c 29 26 d1 bd 19 37 84 3c b3 20 52 3d
       0.030573795 -0.102123566 0.016139554 0.051300716
0003c0 fb 6a f7 3c 29 ce 87 bc a8 d1 37 bd 90 d7 57 bd
       0.03020238 -0.016577797 -0.04487768 -0.05269581
0003d0 04 3d cb 3d 73 6e 94 3d be 89 50 3d 67 a2 21 bc
       0.09923747 0.07247629 0.05091261 -0.00986538
0003e0 0c b8 5b 3c b1 d6 35 3c 40 b4 78 bc 48 35 5d 3d
       0.013410579 0.01109855 -0.015179694 0.05400589
0003f0 16 5c 45 3d d3 07 0f bb 85 a1 f3 bc 64 bb 66 ba
       0.048183523 -0.0021824732 -0.029740104 -0.0008801727

6.bias f4 [12]
000000 a6 6a 04 be 4c 6f e8 3d c4 08 c9 3d 2d 4b 2a 3e
       -0.12931308 0.11349353 0.09816125 0.1663024
000010 b3 96 2c 3e 84 d2 e0 3d f0 e9 08 be f3 1f ef 3d
       0.16854362 0.10977653 -0.1337049 0.11676016
000020 01 7d a9 bd ea 65 39 3e 7b 57 c3 3c 84 03 41 bc
       -0.08275796 0.18105283 0.023845425 -0.011780623
