onnx/legged.onnx (onnx, 823765 bytes, 8 tensors)

0.weight f4 [512, 77]
00000000: 5324 4c3d f3b2 5a3e ec22 863f 1452 143f
00000010: df45 8d3e 5f58 7bbd a2a5 dcbc f5b9 313d
00000020: 2b67 3bbf 2fc8 c7bd 6e3f 233e 2aca 9a3e
00000030: f954 7bbe 8acf 933b b5c1 473e 50b7 8b3e
00000040: ec95 0bbe 6fc0 3d3c e486 643e 06ef 39bd
00000050: c2a8 593e 1f37 46bd e91e 313e 3cf5 913e
00000060: 91eb 93be 829d 1c3d bced 813d 5ce1 be3d
00000070: f827 663e b1fc e1bd 9f85 ea3d 10f7 17be
00000080: 02dd de3d 4d08 0abd 7723 0dbd d6ed 163b
00000090: fa2d 163d 75b4 f03c baa0 3d3c 14fa aa3c
000000a0: 9df0 83bc 737e fe3c bd55 94bc 1df7 47bd
000000b0: f44d 083d ff73 6c3c 05fb af3e 9814 fbbd
000000c0: b2f7 8b3e d9cd 9bbd 2a88 033e 24b7 92bd
000000d0: a7ca f3bd e9ac 5bbd 0138 103d dcd8 b8bc
000000e0: aa8b a4bd 13ba df3d 944e f3bb de46 58bb
000000f0: cc4d 8bbd b5ca 20be fe0d 073e a746 983d
00000100: 9284 c7bd 10b9 dcbd 298c 5fbe 3d60 d73d
00000110: e68e 64be a459 a6ba 285b 053e 1aa1 d93d
00000120: 7d90 dc3d 47d5 99bd 19bc 53bc 4491 363d
00000130: e3a4 023e 84ac 11bd 3672 0abe e3c1 81bf
00000140: d52b 273f bc91 88be c33f a0bb 2809 00be
00000150: d11f 4bbe a1c0 40bf 9585 c4bd ca14 a03e
00000160: 7f0b ed3d ba4b 933e e8ad 703e 3247 12bd
00000170: ea50 be3d 8f8a 653e e24f 623e af59 4c3e
00000180: e8e5 cb3d 1742 273e b961 bfbe 1ef4 733e
00000190: cc91 853d d8cf a73e d371 423e 24a5 8c3d
000001a0: ba73 b73d f252 76bd ef51 15be 2c26 df3c
000001b0: 7df1 033e 1228 babd d02e 413d b5cf 183a
000001c0: 07e2 ebbd fe7a e9bd d0f7 28bd 814d a9bb
000001d0: 77bd 953c 02a1 893c bad2 c2bd a543 acbc
000001e0: cb9f efbc 4f2b acbc 3a25 a13d 67ee 3f3d
000001f0: 2002 043e b91e b43b 84f3 92be 7763 833d
00000200: e487 19be 153d 93bc 8448 163e 315b 493e
00000210: 2377 143e 7cd1 aebd 1a3d 023e 59c9 e63c
00000220: 136d 213d 0bdb dd3c c370 d3bd 90a1 8d3d
00000230: 7875 2a3d 7e45 52bc bf50 5ebe a50e 83be
00000240: 0211 23be ddbb 50be 6f11 b73d 7424 883e
00000250: 2bff b83e 8778 cd3d 0b59 f13d 7497 7f3d
00000260: 6ee0 c23d 731c d43d 7743 a8bc ba11 54bd
00000270: b105 04bf eeba a7be 566f 3fbf f72e 253d
00000280: 3afc 6a3d 9b7c 13be 5722 723f cc4d 1d3f
00000290: 48a2 453e 8567 3b3e 4a22 233c b545 4c3e
000002a0: 9698 433d 3f05 e23e c34f 6abe 76d8 8fbe
000002b0: efab 023f f9ad ab3e ab79 243e 260b cb3d
000002c0: 05dd 1abe 3da1 003e 311d 9b3e 5596 9f3e
000002d0: 58ce 923e 571a ccbe 9aef 96be 5d27 d43d
000002e0: 2f8a 08be 9f97 fdbd 24d9 e13e 1415 433b
000002f0: 975c 433c c9a0 113d 01cd 423c 56f6 c13b
00000300: c143 1dbc bcd6 a53c e7f5 2ebd 7002 25bd
00000310: d961 e23b 7901 853c ad4e f53c fc49 5a3d
00000320: 58c2 19bd cb79 58be f2e0 69be 50b0 c53d
00000330: 05c6 f4bc 72ef 58be 845f df3d eb10 18be
00000340: 2bd3 903c 8216 febd d22f c13c 1101 a63e
00000350: b345 eebd 1560 42bd 23ac 433d dde5 893d
00000360: e059 5ebd be3e 2e3e 137c e8bd c4d0 fbbd
00000370: 0f27 2b3d 692a 10be 6a9a 00be 1801 edbd
00000380: f3d6 9fbc 135e 103e 7384 d6bc 0e6c 5ebe
00000390: de5a 8ebd 6eb2 5b3e 9d57 233e 765c f3bb
000003a0: bb90 9abe df24 b3be 19b6 7fbd a197 fd3e
000003b0: d743 2f3b 5f34 f93a 8ed9 f2bc d3c6 453f
000003c0: 76ac 75be b242 5cbe b980 ff3d db74 88be
000003d0: aa71 d3be 0a63 8ebe 9f92 663e dffc 8f3e
000003e0: 2a6f 1c3e 9e3f 74be 0ce0 c03d 8ce2 403e
000003f0: 0432 8dbe 1edf 78be 1214 f7bd 294e c53e
0.04983933 0.21357326 1.0479407 0.5793774 0.2759237 -0.061363574 -0.026934449 0.043390233
-0.73204297 -0.09754979 0.15942165 0.30232364 -0.24544133 0.0045108246 0.19507487 0.27288294
-0.1363141 0.011581524 0.22317082 -0.045393966 0.21255782 -0.04839241 0.17296948 0.2850741
-0.2889066 0.03823615 0.06344172 0.09320328 0.22476184 -0.11034525 0.114512675 -0.1484034
0.10881998 -0.033699322 -0.03445765 0.0023029945 0.03666494 0.029382924 0.011573965 0.0208712
-0.016105944 0.031066155 -0.01810729 -0.04881965 0.033277467 0.0144319525 0.343712 -0.12259787
0.27337414 -0.07607622 0.12844911 -0.071638376 -0.11903887 -0.053631697 0.03520966 -0.022564344
-0.08034451 0.10924163 -0.0074251387 -0.0033001225 -0.06801948 -0.15702327 0.13188931 0.07435351
-0.09742083 -0.10777485 -0.2183081 0.10516403 -0.22320136 -0.001269151 0.13023055 0.10626431
0.107697465 -0.075113826 -0.012923264 0.04457213 0.12758212 -0.035564914 -0.1352013 -1.0137295
0.6530126 -0.26673687 -0.0048904135 -0.12503493 -0.19836356 -0.7529393 -0.09595791 0.3126586
0.11574458 0.28768712 0.2350384 -0.03571243 0.09292777 0.22416137 0.22100785 0.19956087
0.099559605 0.16333805 -0.37379244 0.23823592 0.06521949 0.3277576 0.18988733 0.068674356
0.0895762 -0.060137697 -0.14582036 0.027239881 0.12885089 -0.09089674 0.047163785 0.00058292906
-0.11517721 -0.11400412 -0.041251957 -0.00516671 0.01827882 0.016800407 -0.09512849 -0.02102835
-0.029251 -0.021016745 0.078684285 0.046858218 0.12891436 0.0054968265 -0.28701413 0.06415456
-0.14993244 -0.017973462 0.146761 0.19663693 0.14498572 -0.0853605 0.12718621 0.028172182
0.039410662 0.027081987 -0.10324242 0.06915581 0.041615933 -0.012833951 -0.2171049 -0.2559711
-0.15924457 -0.20384164 0.08938872 0.26590312 0.36132178 0.100327544 0.11784562 0.062400296
0.09515463 0.10356989 -0.020539982 -0.051774718 -0.51571184 -0.32759804 -0.7477926 0.040327992
0.05736945 -0.14403002 0.9458365 0.61446834 0.19300187 0.18301208 0.009956906 0.19948466
0.04775294 0.44144627 -0.22881989 -0.28094834 0.510436 0.33531168 0.16062038 0.09914236
-0.15123375 0.12561508 0.3029571 0.31169382 0.28673053 -0.39863846 -0.29479676 0.103590705
-0.13333963 -0.12382435 0.44110978 0.0029767202 0.011923931 0.035553727 0.011889697 0.005919258
-0.009598673 0.020243995 -0.04271498 -0.040285528 0.006908637 0.016236054 0.029944742 0.053293213
-0.037538856 -0.2114021 -0.22839716 0.096527696 -0.02987958 -0.21185091 0.1090689 -0.14850204
0.017678818 -0.12406637 0.023582373 0.3242269 -0.11634388 -0.047454912 0.047771584 0.06733296
-0.05428493 0.17016122 -0.1135179 -0.12295678 0.041785296 -0.14078678 -0.12558904 -0.11572474
-0.019511675 0.14098386 -0.026186204 -0.21720907 -0.06950925 0.21454784 0.1595139 -0.0074267937
-0.30188546 -0.34989068 -0.06242952 0.49529746 0.0026743317 0.00190128 -0.029644754 0.77256507
-0.2399157 -0.21509817 0.12475724 -0.26651654 -0.41297656 -0.27809936 0.22516869 0.28122613
0.1527678 -0.23852393 0.094177336 0.18836421 -0.2757722 -0.24303862 -0.12064375 0.38536194

0.bias f4 [512]
00000000: 9c97 553e 65fb b1bd b9c0 16be b8e8 3f3e
00000010: ded5 1cbd 22d7 01be 61ba 173d e070 0cbe
00000020: fa11 04be c2bc d93c 1e5e da3d 0818 d03c
00000030: 6c04 04bd f799 c6bd 2a5d 803e 6f3d a3bd
00000040: 53d9 99bc 665b babc 0a08 0cbc e1a3 2ebd
00000050: 2eef 693d aeaa 293e ce3e d1ba ab85 edbc
00000060: a4f2 ca3d f0aa 1e3e cfe0 d3bd af56 3abe
00000070: 5b70 c1bc b9df 213b 3401 6bbb 3876 e7bd
00000080: 5a4b a23d 4251 32be 780f 24be b231 1d3e
00000090: 07c7 53bd 953d 9f3d 5748 003e eb26 07bd
000000a0: d1b0 06bd 6836 d4bd 2d7a 97bd 5292 4a3e
000000b0: 5172 84bd 7b04 70bd 4b1d 8fbd 1f85 9dbd
000000c0: 503d 32be 87f9 8a3d 4a5e 94bd 70ee 043e
000000d0: b9ab 733d 8fba 57bc d1e7 f5bd 8a6d 58be
000000e0: 85d6 e23c e04c 2d3e b770 50be f230 b9bd
000000f0: 67aa ddbb 0651 ff3b c3ea 10bd 13f4 0b3d
00000100: 8c26 213d 358f 5cbd e0fe 16bc b281 433c
00000110: 5df5 1abe 6364 1d3d 8900 ce3d b027 b13d
00000120: 5f38 043e 1e73 17be 6a79 ba3d f1d3 39be
00000130: 820b 34be 1831 ef3d 05b4 b8bc bcb0 f63a
00000140: eeb7 f8bd c065 3bbd 2595 923c 09d9 dfbc
00000150: 4c66 923d b2da 693d edeb 52be 7943 39be
00000160: 927c 8ebd 82cf aabd e066 4bbe f1a4 c13d
00000170: 3e06 6bbe d422 0ebe 1ce3 4abe c4b7 1fbe
00000180: 5d5b f9bd 5192 3bbd 1ec8 03be 1244 cbbd
00000190: 1d2e 01be 9356 b2bd 6f23 c3bd 857d f2bd
000001a0: 0e65 09be 9311 3abd 7a99 b4bd 82f1 0ebc
000001b0: 6ac7 4ebe fb1b 04be 1840 b8bd 5998 7f3c
000001c0: 277e 923d 4f96 0b3e ca84 20be 3278 ec3c
000001d0: a979 b03b 8eb0 1fbd 156c 5ebd 0525 ddbd
000001e0: a19c 2fbd 659c d23d a560 40bd 8af5 f13d
000001f0: 7264 43bd 968d 09be 872a 68be 226e f7bc
00000200: ee3b af3d 5870 28be edc5 f73c 4103 b43d
00000210: f87d a6bd 0594 663d c7b5 bebd 1fd5 a83d
00000220: c974 a1bc 6314 b33d ff84 a33d 0698 a9bd
00000230: 9712 88bd ff9f a33d 0384 17be a5bd 453d
00000240: d5de b7bd 04af 31bd 8162 72bd 291b 1fbe
00000250: d55c f1bd d0ca 973d 8c96 eebd 6f92 c9bd
00000260: 945f 2dbc be8e 2b3e cc36 1bbe a709 b7bd
00000270: 5103 033d f2b7 1ebe 6814 8e3c 23a6 d2bd
00000280: c78b 1ebd ad94 29be 5f39 01be ff16 ad3d
00000290: 17b9 e9bd ea00 d43c 46f4 11bd c6b6 0cbe
000002a0: 45df 4dbd 676d a43d 2089 173e 39e9 f4bd
000002b0: beee 76bd c400 0ebe fe24 1ebd 66b3 95bd
000002c0: d02b 0abe a790 c8bd 1d14 9fbd 069f b1bd
000002d0: b9f1 333e 9a32 9abb a05e 23be 5123 7a3d
000002e0: b35e 6c3d fb68 c83d a1bd db3d bc05 f23d
000002f0: 13f5 31be 2623 26be ea1c 883d b0d7 c13d
00000300: bb02 1dbd 0018 c7bc f867 68bb 4777 8e3d
00000310: cbfc 823d 46db 39be 9a61 35bb 7a84 31be
00000320: 7cdf febd f04f fcbd 23a6 57bd 4f9a 35be
00000330: 6bae 1cbe 43cf a43c a2ac d13d e16d d1bd
00000340: dd20 1d3d 8420 8fbc fbaa 71bd fafe 00be
00000350: dd7e 663d e6ca cabd 8220 973d c771 6fbd
00000360: 5238 923c e808 3c3d a149 a0bc f5d7 b63d
00000370: a8c1 d8bc 19c8 bb3c 40a2 9abe 06f0 5dbe
00000380: 3d2b 5a3e 0f2b b93d e23e 3fbd e0b9 a9bc
00000390: f11a df3b 26ea 08bd b07e 91bd 73f5 80bd
000003a0: 2cf6 f63c 3159 ae3d adeb 93bd 7309 4bbe
000003b0: 8d04 3d3c 208d dcbd dd0b 4cbe cb55 34bc
000003c0: ad12 b5bd 5f11 083e 643f c93d d8b8 84bc
000003d0: fb38 f8bd cd4f dabd 70c7 50be 4e73 ab3d
000003e0: a43b 163e c465 7e3d 2003 07bd 8d2f 89bd
000003f0: 0e12 28be 5eb7 153e 1217 f93d be6c dfbd
0.20858616 -0.08690528 -0.14721955 0.18741119 -0.038289897 -0.12679723 0.03704298 -0.13714933
-0.12897483 0.026579265 0.10662483 0.025402084 -0.03223078 -0.09697335 0.2507108 -0.07970702
-0.018780386 -0.02274866 -0.008546839 -0.042636756 0.057112865 0.16569015 -0.0015964152 -0.028994402
0.09909561 0.15494895 -0.10345613 -0.1819713 -0.023613146 0.00247 -0.0035858871 -0.11301845
0.079245284 -0.1741381 -0.16021526 0.15350989 -0.05170348 0.07775418 0.12527595 -0.0329961
-0.03288347 -0.1036194 -0.0739635 0.1978238 -0.064671166 -0.058598023 -0.06988009 -0.076914065
-0.17406201 0.06785875 -0.07244547 0.12981582 0.05948994 -0.013167038 -0.12007106 -0.21135536
0.027690182 0.16923857 -0.20355497 -0.09042539 -0.0067646983 0.007791641 -0.035380136 0.034168314
0.0393434 -0.05384751 -0.00921604 0.011932777 -0.15132661 0.038425814 0.10058696 0.08650148
0.12912129 -0.14790007 0.09105189 -0.18147255 -0.17582515 0.11679286 -0.022546778 0.0018820981
-0.12144457 -0.045751333 0.017893383 -0.02732517 0.07148418 0.05709333 -0.20597811 -0.18092145
-0.06957354 -0.0834036 -0.19863462 0.09455288 -0.229516 -0.13880473 -0.19813198 -0.15597445
-0.12175629 -0.045793835 -0.12869307 -0.09925093 -0.12615247 -0.08707919 -0.09528243 -0.11840347
-0.13417456 -0.045426916 -0.08818336 -0.008724572 -0.20193258 -0.12901299 -0.089966 0.015600287
0.07152968 0.13631557 -0.15675655 0.028865907 0.005385597 -0.038986735 -0.054302294 -0.107980765
-0.042873982 0.10283736 -0.046967167 0.11814411 -0.047703214 -0.13432917 -0.22672473 -0.030203883
0.085563526 -0.16449106 0.030245746 0.08789683 -0.081294954 0.056293506 -0.09312015 0.082437746
-0.019709008 0.08744123 0.07984351 -0.08280949 -0.06644171 0.07989501 -0.14796452 0.048276562
-0.08978049 -0.0433798 -0.059175972 -0.15537705 -0.117852844 0.0741173 -0.11649808 -0.09842383
-0.01058187 0.1675367 -0.15157622 -0.08937388 0.031985585 -0.15499857 0.017343715 -0.10285594
-0.03870752 -0.16560622 -0.12619542 0.08451652 -0.11412256 0.025879342 -0.035633348 -0.13741598
-0.050261755 0.08028679 0.14798403 -0.11958546 -0.060286276 -0.1386748 -0.038609497 -0.07309608
-0.13493276 -0.09793215 -0.07767508 -0.086729094 0.17572679 -0.004705739 -0.15954065 0.061068837
0.0577075 0.097856484 0.10729528 0.118175 -0.17378645 -0.16224346 0.0664614 0.09464967
-0.038332682 -0.024303436 -0.003546236 0.06956344 0.06395873 -0.18150052 -0.0027676583 -0.17335692
-0.1244497 -0.12319934 -0.052648675 -0.17734645 -0.1530091 0.020118361 0.10238005 -0.10226036
0.03836142 -0.01747156 -0.05900095 -0.12597266 0.05627333 -0.09901981 0.07379247 -0.058458116
0.017849121 0.04590693 -0.019566359 0.08927909 -0.02645953 0.022922562 -0.30201912 -0.21673593
0.21305557 0.09041416 -0.04669083 -0.020718515 0.0068086316 -0.033426426 -0.07104242 -0.06296816
0.03014668 0.08513106 -0.07222686 -0.19827823 0.0115367295 -0.10769105 -0.199264 -0.011006783
-0.08841453 0.13287877 0.09826544 -0.016201422 -0.12120243 -0.10659752 -0.2038858 0.08371602
0.14671189 0.06210877 -0.032961965 -0.06698523 -0.16413137 0.1462073 0.121626034 -0.10909413

2.weight f4 [256, 512]
00000000: 8360 84bd b627 803c fbd9 093e 5f13 bf3d
00000010: 0d65 04be 0f50 22bc 6db5 d5bd cba8 033e
00000020: 0c8a 613c 8d2f a63d 7f82 21be 30c3 ea3d
00000030: a010 e33b 663d 0bbd b0c4 083d 6868 9e3e
00000040: afb6 b5bc f5ab 49be 7af5 43bc 2042 36bb
00000050: a6f2 063e a307 c2bd 2786 05bc 0f8d e13d
00000060: d3a6 9bbd 93ec 12bd 66a5 f9bd 5451 88bd
00000070: 821b 003e 127f b1bd fc8d 743d dadc d33e
00000080: 6733 ac3d 83ae 303d 04e9 8c3e 96d1 69bc
00000090: fc0d 753d d680 3e3e 1461 64be ba75 543e
000000a0: 3000 043e 15d6 cd3d 7df3 3b3e 1483 3abe
000000b0: 18de fe3c 2695 203e 1088 bc3d c7fe 42bd
000000c0: 585b 0bbb 729a 30be 0a9c 96bd 0765 07be
000000d0: 87cc 493d 6083 a8bd 3fea 0bbd ec98 043d
000000e0: e8b7 99bd a063 60be e5b5 583e 13a7 173e
000000f0: b41f dabd 1a11 9c3d c302 183e 4332 7cbd
00000100: 188f 093e 4a1e 413d 293c 06be fec1 a0bd
00000110: 563a 9abd 727b b1bc 1fb0 95bd 3576 8c3c
00000120: 4d0a 14bd c0f0 8bbc e0b2 a03d 4f85 0d3c
00000130: 68c6 023e ba94 b7bd 139e ba3c cc7e debc
00000140: f362 1d3d 59d3 623d a8d4 453d 6792 66bc
00000150: f9d7 61be 0fab afbc 1307 f33d 460f 103e
00000160: 9c80 873e e94a 1e3c 2e4b e13c 4ff7 c5bd
00000170: 72a2 0f3d dfa9 c93b 0981 23bb b29c 893b
00000180: 5610 023e 22ce 153e 7a17 d6bd 8e66 353e
00000190: b897 8abc 3307 babd 1438 f93d b23a ef3d
000001a0: 875e 8d3d 04d5 f3bd e536 353e 334f 70be
000001b0: bd48 d23c 5668 60be 1d53 4a3d 800a 91be
000001c0: f085 a5bd e50a 35be e783 3dbd 24b8 833c
000001d0: 41e4 8ebb 082b 053e 787f a4bd e7cb bbbd
000001e0: 2a82 633d 5861 c63c a993 83bc ec37 74be
000001f0: 45c3 c7bd 8c58 5d3d 26bb 64bc f4e7 5bbe
00000200: 0572 58be 8ada f53a 0e49 303e 8dda 3dbd
00000210: 1a7a 053e baab 0dbe 3837 ddbb ce58 e9bd
00000220: 3599 103d a7b2 85bd 6b7f 013d 5580 cd3d
00000230: f4ce 7a3d 24c2 8e3d 88db 78be c1e0 4ebe
00000240: 8759 30be 4f7d 763e b7ee f23d 9c3c ba3d
00000250: dc03 51be f766 11bd 6ceb e1bc 251d a6bd
00000260: a599 293e 423a a7bd 9d23 dd3c 70de e63b
00000270: d54d e4bd 723e 093e 2291 c9bd c786 013d
00000280: d490 533d 08b6 263d 4483 0a3d e453 2abe
00000290: 42e2 95bd 5158 10bc 9476 10be eb43 df3d
000002a0: 6d60 443e e956 1c3d d821 34be bfa4 f53d
000002b0: db2b 2e3e 2bc4 5b3e ad18 363e 88ef 91bd
000002c0: d28b 87bd 7d3c 95be 250b d23e d015 c03c
000002d0: ede0 4ebe 00b7 69be caed 48bd bb65 983d
000002e0: 9e91 dcbd 1482 65be 3eb2 36bd ff09 95bc
000002f0: 3136 523d b1d0 283c e4b4 8d3d 51bb 2ebe
00000300: 9499 0d3c dd23 863d b307 a83d 87c0 ffbd
00000310: 917a af3d a8ab 3d3e 59b1 39bc 63d8 453e
00000320: 1b4b 883d f56a 813e 6922 64bc 9980 f33d
00000330: c265 433e 886e 79bd 0e56 203e 0df1 003e
00000340: d33a 443e 2889 27bd a891 6ebd 7373 913e
00000350: 00fa a2bc d472 0fbe c5b6 3bbd b1e8 033e
00000360: 5034 6a3d c877 b73d 28ca 903e c414 0c3e
00000370: 1466 b0be cd25 9ebd 7c8b c8bd 2625 2dbe
00000380: ed0c f4bd d07e c8bd 6fa2 86bc 4d24 cbbd
00000390: 7f5c 87bd 8ca9 a0bb 2a25 0c3d 3a53 d2bc
000003a0: c1f8 273e 3144 1fbe 7aef fbbc e44c 81bd
000003b0: e699 883d 8e5e d03c 95f2 7f3e 5cf2 ec3d
000003c0: 741f cf3d 9d1f 72bd 2be9 b63c ca3e 3bbd
000003d0: 89bb b03d 0f4b 9b3d af34 a03c 7903 77bd
000003e0: fc0e fdbd cfdb 173d 4254 503d ebe3 d63c
000003f0: b9b6 1e3e 3487 183d 78d7 8b3d 2dc3 ff3d
-0.06463721 0.015643936 0.13462059 0.093298666 -0.12929173 -0.009906783 -0.10434995 0.12857358
0.013765823 0.08114538 -0.15772437 0.1146301 0.006929472 -0.0339941 0.0333907 0.3093903
-0.022181837 -0.19694503 -0.011960382 -0.002781041 0.131785 -0.09474113 -0.00814966 0.11013233
-0.076001786 -0.035870146 -0.121897504 -0.06656137 0.12510493 -0.08666815 0.05970572 0.41379434
0.08408242 0.043135177 0.27521527 -0.014271161 0.05982779 0.18603835 -0.22302657 0.20748034
0.12890697 0.100505985 0.18354602 -0.18214065 0.031111762 0.15681896 0.09205639 -0.047606256
-0.0021264162 -0.17246416 -0.07353981 -0.13222133 0.049267318 -0.08228183 -0.03415894 0.0323724
-0.075057805 -0.21913004 0.21163137 0.14809828 -0.10650578 0.07620449 0.14844804 -0.06157137
0.13433492 0.047148027 -0.13108887 -0.07849501 -0.07530658 -0.021665309 -0.07308983 0.01714621
-0.036142636 -0.017082572 0.07846618 0.00863774 0.12770998 -0.08963914 0.022780454 -0.02716007
0.038424443 0.055377338 0.048298508 -0.014072991 -0.22055043 -0.021443872 0.11866584 0.14068326
0.2646531 0.009661415 0.027501669 -0.09666311 0.03506703 0.0061542834 -0.0024948737 0.0041995877
0.12701544 0.14629415 -0.104536965 0.17714903 -0.016918048 -0.090834044 0.12168899 0.11681117
0.06902795 -0.11905864 0.17696722 -0.23467712 0.02566945 -0.21914801 0.04939567 -0.28328323
-0.08082187 -0.17679937 -0.04626837 0.016079016 -0.004360706 0.13004696 -0.08032125 -0.09169751
0.055544056 0.024216339 -0.01606162 -0.23849458 -0.097540416 0.054039523 -0.013960635 -0.21475202
-0.21137245 0.0018757146 0.17215368 -0.046351004 0.1303486 -0.1383504 -0.0067509674 -0.11393891
0.03530236 -0.06528216 0.031615656 0.10034243 0.061232522 0.06970623 -0.24302495 -0.20202924
-0.17221652 0.24071239 0.118619375 0.090935916 -0.20411628 -0.035498586 -0.027578078 -0.08111028
0.16562517 -0.08165409 0.02699452 0.0070455596 -0.11147658 0.13402727 -0.09842135 0.031622674
0.05165179 0.040700942 0.03381659 -0.16633564 -0.07318546 -0.008810119 -0.14107734 0.10901626
0.19177409 0.03816882 -0.17591035 0.119943134 0.17008917 0.21461551 0.1778285 -0.07125765
-0.066184655 -0.2914771 0.41024128 0.023447901 -0.2020299 -0.22823715 -0.0490549 0.074412785
-0.10769962 -0.22412902 -0.04460358 -0.018193243 0.051321212 0.010303662 0.06919268 -0.17063643
0.008642573 0.06549809 0.082045935 -0.124878936 0.085682996 0.18522513 -0.011333787 0.19320826
0.0665495 0.25276914 -0.01392422 0.118897624 0.19081786 -0.060896426 0.15657827 0.12591954
0.19163065 -0.040902287 -0.058244377 0.28408393 -0.0198946 -0.14008647 -0.0458286 0.12881733
0.057178795 0.08958393 0.28279233 0.13679796 -0.3445288 -0.07722054 -0.097922295 -0.16908702
-0.11916528 -0.097898126 -0.016434876 -0.09919033 -0.06609439 -0.004903024 0.03421513 -0.025674451
0.16403486 -0.15553357 -0.03075384 -0.06313494 0.06669979 0.025435712 0.24994881 0.11569664
0.10113421 -0.05911218 0.02232798 -0.045714177 0.086295195 0.07582676 0.019556371 -0.060306046
-0.12356374 0.03707486 0.050861605 0.026231727 0.1549939 0.037238315 0.06828207 0.12488399

2.bias f4 [256]
00000000: 2809 0ebe 7a38 f6bd 7020 53be f0a2 09be
00000010: f58d 65bd c0e4 34bc 2d2e 543d 878e 2cbe
00000020: 3457 213d 461f 10be bf3e 94b9 fd3b dbbd
00000030: 79b2 68bd dc2a 5cbd 8cae 83bd 648e 8fbd
00000040: a108 4cbe 0f04 783b 2af0 15be deba a7bd
00000050: 7b48 4cbe 0418 08bd 1994 64bd d382 02be
00000060: 9123 d3bd 11a0 d33d 26a9 dabc 82f6 4fbd
00000070: 695f f5bb da0c 46be 3d28 d4bd dad9 08be
00000080: 2359 dabd 8e0b b7bd 5e88 a6bd b76d 44be
00000090: 112e fdbc 8772 3fbe 1f9c 333d 0fd6 3bbe
000000a0: 7585 14be e7ce c1bd 0294 0bbd 4189 5dbe
000000b0: 8fec 1fbe 0735 c9bd f582 b6bd 183a ddbd
000000c0: 1daf 533c fd17 47be ab89 ebbc df04 1bbc
000000d0: 1d33 94bc d4eb 6cbe 88fe 10be 017b 53be
000000e0: 3be8 96bb eeac d03d f2b4 1dbe 5b2b 1fbe
000000f0: a622 92be f052 16be b841 cabd 58ab 24be
00000100: 403e 62be c6d4 58be 344a 3fbd 73ad a7bd
00000110: 83a2 52bd ff1b 413d a463 25bd 9a66 03be
00000120: b939 0dbd 3b6a 343c 916b b5be b3a5 6b3a
00000130: d32b 49bd 3e6d 06be d2b8 afbd 842f 1c3d
00000140: 8fc0 cbbc 73fe 7cbc 2ad3 f4bb abf2 15be
00000150: f580 68be 9977 7cbd a3f3 9fbc b32b 19be
00000160: 70c2 11be 3173 e8bd a054 05be 8bea fbbd
00000170: d37c a6bd 6138 15bd 4342 65bd 1f47 bebd
00000180: c399 b9bd 62aa ddbd 15b3 66bd 2362 c6bd
00000190: 0925 57be ecf8 05be 40cb ddbd 18ea 093d
000001a0: 6a6b 2bbe a988 8ebe 9ea5 293a 4bf6 16be
000001b0: b5a0 50be f1aa babd a93f 33be c4cd a1bd
000001c0: 6f36 17be 05d6 acbd 989c c2bd 7452 57bd
000001d0: 8177 29be 1e4f e8bd b113 50bd f95d 44bd
000001e0: 7fd2 82bd ca13 fcbd 6fbf a4bd 1a4c 2ebe
000001f0: cb69 d9bd 8573 15be 4a09 093c e664 a7bd
00000200: 2385 b7bd 8747 babc 01c6 57bd edc2 65bd
00000210: b989 34bd f5df 93bd 6032 d4bd c6cd 50be
00000220: 03df 11be e366 bbbd ec1e 52be 3b6c 0bbe
00000230: 6d68 14be bf1a 35be 544a 3abe 8ca0 03be
00000240: 440f aebc e644 57be 1766 93bd db43 1dbe
00000250: 27b8 24be 3df0 93bd 71d4 56be b843 5ebe
00000260: 6991 a6bd f91d c5bd ca8c 0bbe abd2 57bd
00000270: 0efc f1bd ef8d 97bd 4c61 95bd 27be 2bbe
00000280: 8b2f 60be d659 693c aa7d 1c3d 422e 5dbd
00000290: df83 78be 92de 11bd f22d 33be fbcb dd3c
000002a0: d311 98bc 616b e6bd c820 e4bd a69f 38be
000002b0: 2ab9 5abe 11f9 84bd 999c 32be 98b5 67bd
000002c0: 1353 0e3d 0a7c 26be 223d a7bd 527f dbbd
000002d0: 7e7b 0dbe ee0e 8bbd d6b7 4ebd 0073 e0bb
000002e0: b4cf 15be 49b7 be3c f6b8 6bbe 3aff 9dbd
000002f0: 0df4 95bd acce a1bd 4821 10be 2d3c 4ebe
00000300: 67ec 89be 2a07 13be 4a74 c8bd 244e 5ebd
00000310: 4aa6 f7bd 4dab debc 98fd 0fbe 0f0b 34be
00000320: a115 25be 74e9 29be a78a 703b de49 77bd
00000330: b62e 20be 0b68 26be e07e 99bd 2da7 16be
00000340: a4dc d8bd e029 61bd cb51 eabd 6b5c bfbb
00000350: 9512 92bd c4fb 03be 3f1d 63bd c596 1e3c
00000360: 20c9 6cbe 99fe dabd 3435 60be 4e0f aabc
00000370: a4ef 33bd f1c6 27be 600b 33be a117 05be
00000380: b05d 98bd b123 97be 7f1f f3bc 7d12 18bd
00000390: 2b74 7cbe 3bc1 1ebe e39a 30bd 22f0 a0bd
000003a0: d785 c9bd 18e8 1d3c 68ba a5bd b795 a1b9
000003b0: 5506 cebd a01d e8bd 576a 52be 3b54 023e
000003c0: 3408 4bbd ad8b a4bd d9cc 87bd 893c 89bd
000003d0: b7c0 3dbe f31b 6ebd 2a2a 09be 017e 2bbd
000003e0: 852c 843c 7762 3cbc 2539 833b 233f cabd
000003f0: 5dcd 25bc 11e0 bbbc 2566 fdbd 3d78 cdbd
-0.1387068 -0.12022491 -0.20617843 -0.13441062 -0.056043584 -0.011040866 0.05180185 -0.16851245
0.039389804 -0.1407443 -0.0002827551 -0.10704801 -0.05681083 -0.05375181 -0.064297765 -0.07009581
-0.19925167 0.0037844216 -0.14642397 -0.08189939 -0.19949524 -0.033226028 -0.0558053 -0.12745218
-0.10309518 0.103332646 -0.026691984 -0.050772198 -0.0074881804 -0.1934084 -0.10359237 -0.13364354
-0.10661533 -0.08937751 -0.08131479 -0.19182478 -0.030905755 -0.18696032 0.04385006 -0.18343376
-0.14504035 -0.094632916 -0.034076698 -0.2163439 -0.15617584 -0.09824567 -0.08911697 -0.10802096
0.012920168 -0.19442745 -0.028752169 -0.009461611 -0.018090779 -0.23136836 -0.14159596 -0.20652391
-0.0046053207 0.10189234 -0.15401056 -0.15543883 -0.2854206 -0.14680076 -0.09875816 -0.16080987
-0.22094059 -0.21174917 -0.046701625 -0.0818738 -0.051424515 0.04714584 -0.040378228 -0.12832108
-0.034478877 0.011011655 -0.3543363 0.00089892297 -0.04911406 -0.1312761 -0.085801736 0.038131252
-0.024872093 -0.015441525 -0.007471462 -0.14643352 -0.22705443 -0.061637495 -0.019525355 -0.14958076
-0.14234328 -0.11350096 -0.13020563 -0.12300595 -0.08129277 -0.03643072 -0.055971395 -0.09290909
-0.09062531 -0.108235136 -0.05632313 -0.09686687 -0.21010222 -0.13083237 -0.108297825 0.033670515
-0.16740194 -0.27838638 0.0006471517 -0.14742391 -0.20373805 -0.09114636 -0.17504753 -0.07900575
-0.14766859 -0.084392585 -0.09502524 -0.052568868 -0.16549493 -0.113432154 -0.05080003 -0.04794118
-0.06387805 -0.12308462 -0.080443256 -0.17021218 -0.106158815 -0.14594848 0.008364031 -0.08173542
-0.08960941 -0.022739185 -0.052679066 -0.0560941 -0.044076655 -0.07220451 -0.10361171 -0.20390996
-0.14245228 -0.091504835 -0.20519608 -0.13615505 -0.1449296 -0.17685984 -0.18192416 -0.12854213
-0.021247514 -0.21022376 -0.071972065 -0.15357916 -0.16085874 -0.07223556 -0.20979477 -0.2170552
-0.081332035 -0.096248575 -0.13627926 -0.052691143 -0.11815654 -0.074001186 -0.072939485 -0.16771756
-0.21893136 0.01424261 0.03820578 -0.053999193 -0.24269055 -0.03561265 -0.17497995 0.027074805
-0.018563187 -0.1125095 -0.11139065 -0.18029651 -0.21359697 -0.06492818 -0.1744255 -0.056569666
0.034747194 -0.16258255 -0.08165957 -0.10717644 -0.1381664 -0.06789957 -0.05046829 -0.0068496466
-0.14630014 0.023280757 -0.23019776 -0.07714696 -0.073219396 -0.07900748 -0.14075196 -0.20140143
-0.26938173 -0.14358202 -0.097878054 -0.05427374 -0.12092264 -0.027181292 -0.14061582 -0.17582344
-0.16121532 -0.16592962 0.0036703737 -0.06037318 -0.15642819 -0.16250627 -0.074949026 -0.1471221
-0.10588959 -0.054971576 -0.11441382 -0.0058398745 -0.071324505 -0.1288901 -0.055447813 0.009679501
-0.23123598 -0.10693092 -0.21895295 -0.020759251 -0.04392971 -0.16384484 -0.17484808 -0.12997295
-0.074397445 -0.29519418 -0.029678104 -0.037127007 -0.2465369 -0.15503399 -0.04311646 -0.07858302
-0.09839981 0.009637855 -0.08092195 -0.0003081986 -0.100598015 -0.113337755 -0.20548378 0.12727444
-0.04956837 -0.080344535 -0.066308685 -0.06700999 -0.18530546 -0.058132123 -0.1339499 -0.041868214
0.01613451 -0.011498085 0.004004615 -0.098753236 -0.010119763 -0.022933992 -0.12372998 -0.10032699

4.weight f4 [128, 256]
00000000: 95a6 a6bc 1529 cebd d4cf a63c c05b 5cbe
00000010: 702b 1a3d 2b5f f53c 72e3 f7bd 8684 713e
00000020: 9824 98bc f685 6fbd 4288 5e3d fd50 083e
00000030: 5b07 3d3d d3bc 62bd 831e 043d 57ce 47bc
00000040: b0ea 003e 7b1b b3bd 2a1f 0abd aada a4bd
00000050: 8d27 5b3e 6af2 843d ede8 babd 375e db3d
00000060: 5418 babe 6136 52be a71f ac3d 40a1 6fbd
00000070: 4dfd 41bb 2c7a f2bc 1dc0 b2bc 537a ffbd
00000080: 781e 8b3d f68e e43d b533 933d 3fc5 b4bd
00000090: bcfe e0ba faf6 95be eeaf 6dbd a4f3 eb3d
000000a0: 04dd 43be 0c06 5a3d e49c c8bd 69ec 6d3d
000000b0: ad76 803d 40e1 1d3e 7dea aa3d f652 29be
000000c0: 5883 9ebd dc94 1cbf 52bc 70bd 4451 95ba
000000d0: de6a 4e3c ab03 b63d f8e8 a03c 3faf bfbd
000000e0: 1b2e 0fbd 9955 d4bd 5fba 213e 86c2 843d
000000f0: c31f 503d e6b7 ea3d b23c 9e3c 82ac 5abd
00000100: 722c 90bd d6fd f03c 6fe0 843c 9085 43bd
00000110: 68c3 723d 9bf6 bb3a 97c6 f9bd 9ec0 543d
00000120: c16e 91bd 3fad 483c b1e3 10bd d99d 6bbe
00000130: cd02 3abe 9797 5fbe fd56 7ebe 5a92 a3bd
00000140: 3b88 103e d1cb cabb 256f 033d 44b7 f8bb
00000150: 0645 d3be fb5f 683c 61d4 92bc c5c3 203c
00000160: 0dce a83c 8ccb 8cbd 0878 97bd df96 22be
00000170: b188 8fbd 4709 c8bc 625b 06bd b94f fbbd
00000180: 2f1d ae3c ed89 623d 6c10 aabc 7f65 44bc
00000190: d97e bc3d 5597 a93d 2201 df3c 5c25 1bbd
000001a0: c929 afbd 36c8 2d3e 610e 1ebd 000c 9dbd
000001b0: 22b4 ad3c e932 ae3d 758c 64be 62fa 2cbd
000001c0: c9a5 5fbd e110 ad3c 9eca 303e 4830 103b
000001d0: 94bd 96be d2d3 c33d e96b 12be 10d9 353d
000001e0: 391a cd3c bcb2 893d 6be7 56be 3bbb 2fbe
000001f0: eef6 253d 9cc0 36bd 6fab 993d 4973 87bd
00000200: c51d b33c fa49 96be 0c56 2fbc a9f1 a43d
00000210: e8d4 03be e50b bdbd 741f c9bd db10 d33d
00000220: b8c4 e03d 209e bfbe cd9f 1abd d1b2 52bd
00000230: c633 35bc a7e7 cd3d 901d 4a3d 55bc e63d
00000240: 2a55 e13d 3f83 6ebc 87e1 05be bd06 233d
00000250: c410 5b3d a652 6dbe 059d 613e 9839 95bd
00000260: 015b 523d 82d5 50bb 14f0 b13d ad93 b23d
00000270: e41b 25bc 1fba ff3d 08d9 9fbd a27e 223e
00000280: 23b6 a8bd e099 8cbd aebf debc 6cd6 25bc
00000290: 4ee5 e0bc 7c10 183e c9bc 343d 0af6 4b3d
000002a0: 1b05 84be 9fed 0dbe 5008 bcbc baf8 ba3a
000002b0: fe1e 073e 4384 b33b 74ed 1dbe bcbf 1d3d
000002c0: 93fe 183e 241d bbbd a560 333d e910 02be
000002d0: d07e 9ebd 6791 58bd 3e96 673c af02 3f3d
000002e0: 8b18 ad3d a3ad 56bd 8458 c13d 9d69 f9bb
000002f0: 7697 40bd d462 f23d b88c 283d 5c2b c53d
00000300: 8993 1a3e 640e 1ebd bbaf b5bd fbe3 32bd
00000310: 6298 4abd 8c1f 933b 2a36 3bbe 32a4 06be
00000320: 0977 b43d c4fd b5be 33fb fcbd 5d98 893d
00000330: c9d5 eb3d 2c93 963b 3794 2fbd 378d 5c3d
00000340: a1e7 93bd 5f96 fcbd 0105 45bd 3a41 10be
00000350: 4c78 07be b8e5 8c3d f5c7 fd3d ed38 8ebd
00000360: e917 0b3e 8542 8b3c 0748 063d 91d4 3c3c
00000370: 596a c4bd e568 293b 492d 26bd 391e 77bd
00000380: 14fc c43d 5a78 913e a76f 01bd 8248 3ebe
00000390: fa8e 773d a011 2cbe 7a6f 95bc f0ab 01be
000003a0: 5ceb d6bd 017e e3bb 914a ea3d c6f5 493e
000003b0: 5126 bebd bad7 433d 5d80 0c3e 99dc f43c
000003c0: 8439 243e 332d 8abd 30f8 d2bc 57eb 7bbb
000003d0: e46c b3bd f6b5 78bd a6f6 c53d 4af5 e5bc
000003e0: 394a 7abd b231 babd ef1f 3cbd 5b4b f23c
000003f0: 5a40 233c 8712 dabd 03f8 343e b322 043d
-0.020343104 -0.100664295 0.020362772 -0.21519375 0.03763908 0.029952606 -0.121039286 0.2358571
-0.018572137 -0.058477364 0.054329164 0.13312145 0.046149593 -0.055355858 0.03225566 -0.012195191
0.12589526 -0.08745476 -0.033721127 -0.08049519 0.21401806 0.06491549 -0.09126458 0.107113294
-0.36346686 -0.20528556 0.08404475 -0.05850339 -0.0029600442 -0.029599272 -0.021820122 -0.12474503
0.06792921 0.1116008 0.07187597 -0.08826684 -0.001716576 -0.2928999 -0.058029108 0.1152108
-0.1912728 0.053228423 -0.097955495 0.058086786 0.062726356 0.15417957 0.08345506 -0.16535553
-0.077398956 -0.6116464 -0.058773346 -0.0011392017 0.012598721 0.08887418 0.019642338 -0.093595974
-0.03495608 -0.10367889 0.15793751 0.06482415 0.05081154 0.11460857 0.019316051 -0.053387173
-0.07039727 0.029417913 0.0162203 -0.047734797 0.059268385 0.0014340462 -0.12196081 0.051941507
-0.07101203 0.012248336 -0.035373393 -0.23009433 -0.18165131 -0.2183517 -0.24837871 -0.07986899
0.14114468 -0.0061888476 0.032088418 -0.0075902063 -0.41263598 0.01418304 -0.017923536 0.0098123
0.020606065 -0.06874761 -0.07395941 -0.15877865 -0.07008494 -0.024418486 -0.032801993 -0.12271065
0.02125415 0.055307318 -0.020759784 -0.011987089 0.09203882 0.082808174 0.02722222 -0.037877426
-0.08552892 0.16970906 -0.03858793 -0.076683044 0.021204058 0.08505804 -0.22319205 -0.04223097
-0.054601464 0.021126213 0.17264792 0.0022001434 -0.29441512 0.09561886 -0.14298977 0.04439646
0.025036918 0.06723544 -0.20986716 -0.17161267 0.040518694 -0.04461728 0.075034015 -0.06613786
0.021864781 -0.29353315 -0.0107016675 0.080539055 -0.12874186 -0.09230784 -0.09820452 0.10305949
0.10975021 -0.37425327 -0.037750054 -0.051440064 -0.011059707 0.1005395 0.0493446 0.1126639
0.11002572 -0.014557659 -0.13074313 0.039801348 0.053482786 -0.23176059 0.22032554 -0.07286376
0.05135632 -0.0031865542 0.086883694 0.08719573 -0.01007745 0.12486672 -0.07805067 0.15868619
-0.08237865 -0.06865287 -0.02719101 -0.010121923 -0.027453091 0.14850038 0.044125352 0.049795188
-0.25785145 -0.13860177 -0.022953182 0.00142648 0.13195416 0.0054784133 -0.15422612 0.03851293
0.14940862 -0.091364175 0.04379334 -0.12701763 -0.07739031 -0.05287304 0.014134942 0.04663342
0.08451947 -0.052411687 0.09440711 -0.007611467 -0.047019444 0.11835256 0.041149825 0.09627411
0.15095343 -0.038587943 -0.088714086 -0.04367445 -0.04946173 0.0044898447 -0.1828238 -0.13148573
0.08811767 -0.3554517 -0.123526 0.06718514 0.11515386 0.004595181 -0.042865958 0.05384561
-0.07221914 -0.123333685 -0.048100475 -0.14087382 -0.13229483 0.06879753 0.123916544 -0.069444515
0.1358334 0.016999492 0.032783534 0.011525289 -0.09590597 0.0025849876 -0.04057053 -0.060331557
0.096183926 0.28412133 -0.03160062 -0.18582347 0.060439087 -0.16803598 -0.018241633 -0.12663245
-0.1049411 -0.006942511 0.11440004 0.19722661 -0.09284652 0.047813155 0.13720842 0.029890345
0.16037565 -0.06746902 -0.02575311 -0.0038439834 -0.087610036 -0.060720406 0.09666185 -0.028071065
-0.06110594 -0.0909151 -0.04592889 0.029576948 0.009964073 -0.10648065 0.17672734 0.032259654

4.bias f4 [128]
00000000: dfbd 28be 97ee 29bd 5503 68bd 76e2 77bd
00000010: 240d d83d 564c cf3d 54aa fabd ef48 06be
00000020: 2e25 87be 6e2b b2bd 97ca 523e 7f80 0ebe
00000030: 0d02 9fbd c194 cabe a44b 693a 9beb 5abe
00000040: ae5d d7bb 5b73 79be 6408 09be 3d78 15be
00000050: eaf1 04bf f03c 9cbe 9261 a0be 06d8 8bbe
00000060: d87d c0bd 348b 06be 1ee9 183e 695c 93be
00000070: 5522 85bd c203 efbb 4596 a23d 7790 4cbe
00000080: c951 ec3b ba68 61be 6d93 00be 6ebe 07be
00000090: 9a03 6cbe 7540 3fb9 1f05 71ba e4e8 bfbd
000000a0: 6870 9ebe a342 1b3d 20e7 80be 9338 bebd
000000b0: f32b abbd 46c1 b3bd 760f 0fbe b54f bbbd
000000c0: 63d9 163e e695 9ebd 8d7f 0abe a55d efbd
000000d0: 210a 57be 07c7 44be 6877 c1bc 7099 bcbe
000000e0: 0eac ba3d 4e2a 68be 7287 adbd 56af dabd
000000f0: f858 4bbc f258 4fbe 9e0d 94bd 37b3 9bbd
00000100: 2b47 91be c58e f5bc 0a2e 26bd b53e 39bc
00000110: 8618 24be a92a 19be 5fc1 57bd d53a fabd
00000120: 8186 1abd 6c0b f2bc e2fc 42be 0bbc 1cbe
00000130: 5e2c 68be 3772 493e c9ca 05bd b229 8d3d
00000140: 5563 e2bd 3abd 81bd e8d2 83bb ac27 24be
00000150: 4364 14bd b883 1cbd daaf 3e3d 9270 25be
00000160: d9c0 20be 43ec b43c 5841 cc3d 59d6 3abe
00000170: bc3b 1dbe 51c8 74be da67 133e c817 b9bd
00000180: a9dd 80bd fd6d 71be 5eda 81bd 85c8 dcbd
00000190: d68c cdbd cca5 9ebd 16ef 08be dca9 6ebe
000001a0: f285 1fbe 8561 02be 7706 fabc 17fa aabd
000001b0: 5143 89be 9e2f 99bd 5a53 edbd 1a01 fdbd
000001c0: 2e70 3abc 0388 223d f704 b1bc 5981 9abd
000001d0: 6efe 383d 1607 dcbd a11a cabd 645c adbd
000001e0: 7529 5b3d 4076 73be 09bd afbc 1f20 8dbd
000001f0: 1e11 08be 2758 c2bd db26 c8bd 4797 9abc
-0.1647868 -0.041487303 -0.056643803 -0.060518704 0.105493814 0.10121982 -0.12239519 -0.1311376
-0.26395553 -0.0869969 0.20585094 -0.13916205 -0.07764063 -0.39566615 0.0008899516 -0.21378939
-0.006572447 -0.24360411 -0.13382107 -0.14596649 -0.5193163 -0.30515242 -0.3132444 -0.2731325
-0.09399003 -0.1313904 0.14932677 -0.2878144 -0.06500689 -0.007294149 0.07938818 -0.19976984
0.007211898 -0.22012606 -0.12556238 -0.13256237 -0.23048249 -0.00018239192 -0.00091941835 -0.09370592
-0.30945134 0.037905347 -0.25176334 -0.092881344 -0.08357992 -0.08777098 -0.13970742 -0.09146062
0.14731364 -0.077434346 -0.1352522 -0.11687783 -0.20999958 -0.19216548 -0.023616508 -0.36835814
0.09114848 -0.22672388 -0.084731 -0.10677974 -0.0124113485 -0.20248774 -0.0722916 -0.07602542
-0.2837461 -0.029975304 -0.04057125 -0.011306454 -0.1602498 -0.1495768 -0.052674647 -0.122182526
-0.03772593 -0.029546462 -0.1904178 -0.15306108 -0.22673175 0.19672476 -0.032664094 0.068927184
-0.11054102 -0.0633492 -0.0040229447 -0.16030759 -0.03622843 -0.038211554 0.046554424 -0.16156223
-0.15698566 0.022085315 0.09973401 -0.1824583 -0.15354818 -0.2390454 0.14395085 -0.09037739
-0.06292278 -0.23577113 -0.06340478 -0.107804336 -0.10036628 -0.07746467 -0.13372454 -0.23306984
-0.1557844 -0.12732513 -0.03052066 -0.08348482 -0.2680917 -0.074797854 -0.11588164 -0.12353726
-0.011379285 0.039680492 -0.021608813 -0.07544202 0.045164518 -0.10743539 -0.0986836 -0.08464888
0.053506333 -0.23775578 -0.021452444 -0.06890892 -0.1328778 -0.0948947 -0.09773036 -0.018870963

6.weight f4 [12, 128]
00000000: e75c 5a3d 8541 31bd cba1 f73c 93cb 2ebb
00000010: 53e8 b03c d95f cd3c 8000 13bd c9ce 743c
00000020: e983 36bd b11e 55bd 81b5 c4bd f654 76bc
00000030: 26e5 63bc aaea 9f3d e610 43bd da36 f33b
00000040: 1984 a83d 3a1c 85bc 9b12 a33d 3f3f 81bd
00000050: 434f 2fbd 1f1f 1a3d dba5 88bb b5eb 113d
00000060: 9865 913d fda4 1bbb 3b20 25bb 0ef9 ed3c
00000070: dcca 87ba 8506 953c 04ee 56be 5498 1fbd
00000080: 98e8 3fbc 0c61 92bb b71f a2bc 4081 ae3b
00000090: 5db8 9ebc a1db 90bb 6f40 113d e722 f33d
000000a0: a08d 8bbc 9f23 78b9 26ba 073d ea20 4cbc
000000b0: fedf 713c b4cd d43c eade cfbd 65d8 bb3c
000000c0: 84e8 013b eff3 51bd a98b a93b eb18 7cbd
000000d0: 20e6 c7bd 787a 253d 3901 2abd 6a02 94bc
000000e0: 8cd5 babd eaac ffbc eccc 2e3d 4195 f83c
000000f0: c23a efbd b04d 2d3b 6cc7 bd3d bdfc 6bbd
00000100: e34f 7d3c fe06 96bb b91a 6ebc 1be8 b8bc
00000110: bca4 6f3b 7189 1a3c 8217 93bc 6a4c 91bc
00000120: fb38 cc3d ebc0 1f3d e558 b9bc 4853 91bb
00000130: 210b 9b3d 2241 f5bb 3770 053d 3af9 d7bb
00000140: 5daf eebb e20b 073e 887a 6e3c 1532 3c3d
00000150: 81e5 a73c bbb8 043d a2f0 d73b 5c86 7dbc
00000160: 1a1d 0abc 5cc1 863d 62fe 183d 96ec 18bd
00000170: 2ed9 023d e02e 8dbc b9c4 aa3c b3d9 10bd
00000180: a5e4 e53a 9d60 9e3d 002b fd3a 2442 1dbd
00000190: abcf a3bd 11af 573d 4f96 5d3d 841b 8cbb
000001a0: d287 323d 2410 13be e2c4 663d 30bc 1cbd
000001b0: 3e9f c9ba 0377 0a3c ac81 0cbd 82f1 0a3b
000001c0: 2f09 72bc 84d8 d83c d862 b8bc e260 5a3b
000001d0: a2fb d23b 9185 203d 295c ef3c 6b6c 8dbd
000001e0: 6aaf 4dbd 2db4 b13c c793 f53d 69d2 b1bc
000001f0: 150c 403c 66fd d1bc 38fd a13d ffde 93bb
00000200: 33fa 2e3d 0a1f 703c 9a41 7dbc 8a65 4e3c
00000210: 8bc9 deb9 5246 953c 000a 083c 6297 893c
00000220: 3d47 323d 9621 8b3d 95c8 0a3d eb61 143a
00000230: aacc 7ebb 8db6 2c3d ee6c e9bc 360a 5e3a
00000240: 5772 9a3a ff57 9f3c 7f56 6c3b 9159 4dbc
00000250: ded0 edbd bd89 5dbc 838e a3bc cba9 b7bd
00000260: 660a fcbc c084 15be 1c3a 133d 73f2 0c3d
00000270: 772a d43c 64a0 cb3b fea8 59bd 8437 8ebc
00000280: e9f6 77bb c5cc 513c 65e8 13bd 4b25 0a3b
00000290: 4dad 84bd 21ed 2d3c dddc f8ba 48e8 863d
000002a0: 7227 fa3a 3ba4 55bc acb8 733c cc9e 92bb
000002b0: 9f25 34bc b31c 5039 508b 743d 5271 7b3c
000002c0: d45f 593c f60f a53b f6a8 4f3d 6dde c7bc
000002d0: f5e8 bd3c 191f 1dbd 81cc eabc ff00 00be
000002e0: 2609 a13c 663f 88bd 33a0 fbbb f786 e7bc
000002f0: 379d ddbc d36e a6bc b258 a8bd f320 023d
00000300: da89 94bc 8dfa 3abd 6b35 ebbc 5a2d c6bc
00000310: 4ff3 213c b6a2 983b 8b48 393d a62e 973d
00000320: a40d 8b3d 15dc a1bd 2f0e 77bc d491 52bc
00000330: 5ec2 a1ba 506f b0bb ad32 8d3c 7f54 8db8
00000340: ee4a a33c 6a61 01be a839 b1bc 4a44 2e3c
00000350: 0313 d43c bd74 32bc 27bb 40ba 82d0 733d
00000360: 55db a33c e51e 5b3d 2d5b c7bb bd4e 68bc
00000370: 05a4 c9bc 09f9 b93c e8ea 1b3d 5fef d63c
00000380: 39cc ed3d a5e2 84bc 3a3d 033c e76b 14bc
00000390: 78d6 0fbe d08e 4c3c 07a8 403d dd6d 003d
000003a0: 9cbe ebbd d48a 8b3c 916e 443c 1e2a 70bc
000003b0: 23db 103d 8e2c b63c 4501 1a3d 0b80 c73c
000003c0: 2ef7 283e 1a52 0abc fb75 cfbb 51ef 1abd
000003d0: 1171 613d 0e20 483d e5f4 54bc 1357 6a3c
000003e0: 5489 273d d661 04bd 4d0b c13c fa25 cabb
000003f0: 328c e63c 8798 5f3d b75b 37bd 3763 383c
0.053311255 -0.043275375 0.030228516 -0.0026671633 0.021595156 0.025070118 -0.03588915 0.01494188
-0.044559393 -0.052031223 -0.096049316 -0.015034905 -0.013909614 0.078084305 -0.047623537 0.0074223103
0.08228321 -0.016248811 0.07962533 -0.06310891 -0.0428002 0.037627336 -0.004170162 0.03562518
0.070994556 -0.0023749464 -0.0025196213 0.029049423 -0.001036014 0.018191585 -0.20989233 -0.03896363
-0.0117131695 -0.0044671353 -0.019790513 0.0053254664 -0.01937502 -0.004420713 0.03546184 0.118718915
-0.017035306 -0.00023664393 0.03313651 -0.012459019 0.014762877 0.025976993 -0.10149939 0.022930333
0.0019822428 -0.051258024 0.0051741195 -0.0615472 -0.0976069 0.0404 -0.041505072 -0.018067557
-0.09122762 -0.031210382 0.042675897 0.030344607 -0.11681129 0.002644401 0.09266552 -0.057614077
0.015460941 -0.0045784703 -0.014532738 -0.022571614 0.0036566695 0.009432183 -0.017955545 -0.017736632
0.09971806 0.03900234 -0.022625396 -0.0044349767 0.07570482 -0.007484571 0.03257772 -0.0065909894
-0.0072840885 0.13188127 0.014555581 0.0459462 0.020495178 0.032402735 0.006589965 -0.015473928
-0.00842979 0.06579849 0.037351973 -0.037335 0.0319454 -0.017234266 0.020845758 -0.035363864
0.0017539455 0.07733271 0.0019315183 -0.038393155 -0.07998594 0.05265719 0.054098424 -0.004275741
0.04358656 -0.14361626 0.056340106 -0.038265407 -0.0015382541 0.008451226 -0.034303352 0.0021201079
-0.014772697 0.02647043 -0.02250807 0.0033321907 0.0064386884 0.03918988 0.02921875 -0.06905445
-0.050216116 0.02169236 0.11991077 -0.021706777 0.011721631 -0.025633525 0.07909626 -0.004512667
0.042719077 0.014655838 -0.015457535 0.012597451 -0.000424933 0.018222008 0.008303165 0.016795818
0.04352497 0.067935154 0.033882696 0.0005660343 -0.0038879314 0.04216628 -0.028494325 0.00084701495
0.0011783344 0.01945114 0.0036062298 -0.012533561 -0.11612104 -0.013521609 -0.019965416 -0.08967932
-0.030766677 -0.14601421 0.03594409 0.034410905 0.025899155 0.0062141884 -0.05313968 -0.017360456
-0.003783638 0.0128051685 -0.0361103 0.0021079357 -0.06478367 0.010615618 -0.0018986721 0.06587273
0.0019085242 -0.013039644 0.014875572 -0.0044744965 -0.010995298 0.00019847117 0.05970317 0.015346842
0.013267476 0.005037303 0.050698243 -0.024398053 0.023182372 -0.038359735 -0.028661968 -0.1250038
0.019657683 -0.06652717 -0.0076790093 -0.028262598 -0.027052505 -0.020316517 -0.08220042 0.031769704
-0.018132139 -0.0456491 -0.028711995 -0.024191547 0.009884669 0.0046580685 0.045235198 0.07381944
0.06789711 -0.079033054 -0.015079065 -0.012852151 -0.0012341251 -0.0053843632 0.017236078 -6.7391426e-05
0.01993319 -0.12634817 -0.021633938 0.010636399 0.025887972 -0.01089209 -0.00073521066 0.05952502
0.020002047 0.05349626 -0.006083867 -0.014178929 -0.024614343 0.022701757 0.03806582 0.026237188
0.11611218 -0.016221354 0.008010203 -0.009058929 -0.14046657 0.012485221 0.047035243 0.031354774
-0.11510965 0.017033972 0.011989252 -0.014658479 0.035365235 0.022238042 0.037598867 0.024353048
0.16500542 -0.008442426 -0.006331203 -0.037825886 0.05503947 0.048858695 -0.0129978405 0.014302987
0.04090245 -0.032319866 0.023564959 -0.006169078 0.028143022 0.05458882 -0.0447652 0.011254123

6.bias f4 [12]
00000000: 1852 25be 0ad7 983d 8b31 053e 1ee1 843e
00000010: fc4b 333e 8ea6 033e 31b4 90be 4203 443e
00000020: 0952 ac3c b0e1 933e 32db e03d 07aa 9c3d
-0.16144598 0.074628904 0.1300718 0.25953 0.17509454 0.12856504 -0.28262475 0.19141868
0.021035211 0.28883123 0.10979308 0.07649618
