onnx/legged.onnx (onnx, 823765 bytes, 8 tensors)

0.weight f4 [512, 77]
00000000: 846d 1c3d 03eb 233f 4ca0 a93e ac19 d33e
00000010: ad6e a73c 2ca3 d0bc 1c54 53bd 394b f93d
00000020: b7ba 6cbe 9ee9 21be 37f6 f2bd d113 f33e
00000030: 459d 52be cb80 72bd 8feb 303e fe22 a83e
00000040: d9d6 d5be e958 9b3d 8e54 e93e c8e6 2dbd
00000050: d199 50bc b7ff 2dbe 5c03 4f3e afc6 f53d
00000060: eb7f 553e 07c7 3dbe 8da7 aa3c a460 943e
00000070: 355a 253b 82e8 133d afcf 453e 7b08 07bc
00000080: 671e 81bd c0f1 8d3b 33fd 2ebd 8990 10bd
00000090: 8d87 2a3d d01c 233d d4eb 513c 55f0 88bc
000000a0: 966d a83d 5849 2a3d 4b63 39bd b6f5 eb3b
000000b0: 102a 363d 7d6e 96bc ba45 903e a2e4 23be
000000c0: 8da8 823e 6dbf e13e c60d 553e a870 873d
000000d0: 3480 7b3d 89dd b5be 3f98 3c3d 51ee 313e
000000e0: 138f f0bd 236c 44be 7bcf e4bd 3164 c6be
000000f0: 0307 11be 9a0d b43e 9d0b 93bd a363 673e
00000100: 2246 683e ee40 b2bd a3e0 21bc 2757 c53e
00000110: 9313 8ebb cdd8 d8be a9b4 ae3e 028a 993e
00000120: a970 2b3d 1f06 083f fde3 363e f0b2 02be
00000130: 2a31 c4be 6fb9 39be 059a bcbe a63c 8ebd
00000140: bc3c f2be e084 01bd f73d 3abe 9118 59be
00000150: 876a 39be 8d4e 753d 9c1a 97bd c351 d03e
00000160: 17ab 033e d156 1fbe 38eb d63e 658f 1b3e
00000170: 5093 a3bd fda2 363e d51a a13e 1ec3 46be
00000180: 0303 5d3e c3f1 84bb 2a64 423e 2426 443e
00000190: 1e5e cc3d 9e4f 64be f3c6 babe 2ebc c5bd
000001a0: 0c5d 73be 26a1 44bd 745e 063e cef2 c03d
000001b0: 2bb3 b73d 0565 d13d dde2 8dbb d250 06bd
000001c0: 28a8 77bc f247 08bd 7cdd 91bc 71f7 813d
000001d0: 3b4b 703d 9ded fe3c cbbc 0dbc a293 b53b
000001e0: b022 4a3b bfb7 05bd 74d2 a13d 1225 cabd
000001f0: a8ce 913d ba1b c53d 056e a5bc 025e 4bbe
00000200: 662b eabd 9799 ea3e fc68 6d3e 40f3 3b3e
00000210: 3259 b43e e786 95be 309b 42bf 30ee 00be
00000220: 5831 49bf daf1 a13d 8d4a c3be 19e2 a1bd
00000230: 813f 87be 222a 133f 61ba 7dbd 123f 8bbe
00000240: a7d4 08bf 7f33 f43e fdee a7be ce2b 023f
00000250: 89d3 143f be4b b4be 0ef9 88bd e6e3 0abf
00000260: 9b69 0abf 9a6a 283e 165f 06bf 43c0 89bf
00000270: 8191 3cbf 263e 1ebf 9b51 983e a1fe 69bd
00000280: c12b 66bd 477f 7d3b 457d 8c3d 9974 5f3f
00000290: 9eeb f1be 5369 2fbe 7c18 55bf 06e1 5e3e
000002a0: 8d76 07bd 52cf 053f dcdb 0f3e dc0d 583e
000002b0: 53bf eabd 5ebe 0cbf 5002 38bf 773c b03e
000002c0: 50d4 42be 631b a4be 5291 1abf 8efc e13d
000002d0: 04be 90be 28d6 1abe 7a9f 6abe c7bb 863d
000002e0: 039b dd3d e697 0bbe b7ef 42be 2d63 87b9
000002f0: 8bd3 7dbd df69 afbd 9fd1 bd3c 968c 113d
00000300: d5bf d6bd 23b1 8fbd 34de e93d 2c2c 81bc
00000310: 6efb e9bc f9a0 aabd ab68 66bd ac37 f0be
00000320: 46fd 30be 6a39 983e 4043 69be 2720 8e3e
00000330: be5b 80be 1fbd cc3e e83d 443e 4e6f 37bf
00000340: 258e 3abe edbc 00bf 3a42 ed3e 2b10 123d
00000350: 6e27 163f 4597 4d3e 184c dbbd 7b1b 103e
00000360: 07d3 a43e 6676 813d a79a 85be 0bbb c8bd
00000370: 8d2b 083e 062f 8cbc 4b41 97be cd7c 043e
00000380: e98c 41be f370 213e c108 d33e fcd9 a2be
00000390: e7c2 84bd 90c0 5d3d 9e38 27be d252 42bf
000003a0: ea27 e7bd c052 5b3e 9cd4 293f 79bf 7c3f
000003b0: db88 fb3c 94de cdbe 846a f9bd 1cdf 393f
000003c0: 7616 92be 5b02 da3d 007f c13c 7d55 5dbe
000003d0: b4df c5bc 41e8 d5be cd99 02be a104 0f3e
000003e0: f2e0 8dbc cebd b1be 3b94 9f3d 2716 253e
000003f0: 4d1e ffbe 9da6 c8bd a9c9 b03d 291a c63d
0.03819038 0.64030474 0.3313011 0.41230524 0.020438517 -0.025468431 -0.051593885 0.12172551
-0.23118101 -0.15811774 -0.11863368 0.47476056 -0.20567806 -0.059204858 0.17277358 0.32839197
-0.41765478 0.07585318 0.45572323 -0.04245642 -0.012731985 -0.16992079 0.20216125 0.120007865
0.20849578 -0.18532954 0.020831848 0.2897998 0.002523077 0.03611041 0.19317506 -0.008241768
-0.06304627 0.0043317974 -0.04272194 -0.03529409 0.041633178 0.0398224 0.012812573 -0.016716162
0.08224027 0.041573852 -0.04526071 0.007200922 0.044473708 -0.018363232 0.28178197 -0.16005185
0.2551922 0.4409136 0.20806035 0.06613284 0.06140156 -0.3552058 0.04604363 0.17376067
-0.11746039 -0.19181876 -0.11172386 -0.38748315 -0.14162831 0.35166627 -0.071799494 0.22596602
0.22683004 -0.087037906 -0.009880218 0.38543054 -0.0043358295 -0.42352906 0.34122208 0.29988104
0.041855488 0.5313434 0.17860408 -0.12763572 -0.3831876 -0.18137144 -0.36836258 -0.069451615
-0.47311962 -0.03162086 -0.181877 -0.21200778 -0.18107043 0.059889365 -0.07378122 0.4068738
0.12858234 -0.15560462 0.41976333 0.1519142 -0.07987082 0.17835613 0.31465784 -0.19410369
0.2158318 -0.0040571406 0.18983522 0.19155174 0.09978889 -0.22295997 -0.3647991 -0.09655033
-0.23765963 -0.048005246 0.13121969 0.09421311 0.089697205 0.10224346 -0.0043300227 -0.03279192
-0.015115775 -0.033271737 -0.017805807 0.06346024 0.058665495 0.031119162 -0.008650969 0.005541281
0.003084343 -0.032645937 0.07901469 -0.09870352 0.07119495 0.09624429 -0.020194063 -0.1986008
-0.11434059 0.45820305 0.2318458 0.18354511 0.352243 -0.29204485 -0.7601805 -0.12590861
-0.7859092 0.07907458 -0.38142815 -0.07904453 -0.26415637 0.57486165 -0.061945323 -0.27196556
-0.5344948 0.47695538 -0.3279952 0.5084809 0.5813528 -0.35214037 -0.066881284 -0.54253995
-0.5406739 0.16446915 -0.5248884 -1.0761799 -0.7365952 -0.6181358 0.2974976 -0.0571276
-0.05619407 0.00386806 0.06859831 0.8728729 -0.47250074 -0.17130022 -0.83240485 0.21765527
-0.033072043 0.5226947 0.14048713 0.21099037 -0.114622734 -0.5497798 -0.7187853 0.3442113
-0.19026303 -0.32052144 -0.6037799 0.11034499 -0.2826997 -0.15120757 -0.22912398 0.065787844
0.10820582 -0.13632163 -0.19036756 -0.00025823098 -0.06196932 -0.08565115 0.023171244 0.035534464
-0.10485808 -0.07016208 0.11419335 -0.015768133 -0.028562274 -0.08331484 -0.056252163 -0.46917474
-0.17284116 0.29731303 -0.2277956 0.27758905 -0.25069994 0.39988038 0.1916424 -0.7165421
-0.18218286 -0.5028828 0.4633959 0.03565995 0.58653915 0.20077236 -0.10707873 0.14072983
0.3219225 0.06321411 -0.26094553 -0.098013006 0.13297863 -0.017112266 -0.29542002 0.12938233
-0.18901409 0.15765743 0.41217616 -0.31806934 -0.06482487 0.05413872 -0.16330191 -0.75907624
-0.1128691 0.21418285 0.6634004 0.98729664 0.030704906 -0.40208876 -0.12178519 0.7260606
-0.2853276 0.106449805 0.023620129 -0.21614642 -0.024154522 -0.41778758 -0.12753983 0.1396661
-0.017319176 -0.34715122 0.077919446 0.16121732 -0.49827805 -0.09797404 0.086322136 0.096729584

0.bias f4 [512]
00000000: e7b3 493e 9f28 883d 4105 c2bc 4061 123e
00000010: a023 773c 7998 6fbe 1eca f93d 0d2f 51be
00000020: 8713 29be 9b35 1b3d d2f0 373e 39dc 203e
00000030: e661 113e b786 1dbe 9299 db3d 4f70 a3bd
00000040: 62c6 ba3d d88d 063d 86b6 0bbe 2662 a0bd
00000050: ca48 613e 12fc 823d 39ce 893c 6256 a8bd
00000060: 80c8 c53d dffe da3d ab92 2abe 2adf 99be
00000070: af1f 623c 1223 9b3d 48f3 10bd 1a8a 11be
00000080: 8c13 b93d 4657 dfbd 7fa0 1ebe d073 253d
00000090: ed5c 21bd 877b 1bbe 5b02 303e 29a3 c8bd
000000a0: 705e 543d 866b 37be 1975 c7bd 6b07 033e
000000b0: 74ff aebd 6010 87be bd28 44be ee8e c13c
000000c0: 63e9 78be 3941 c63d 5d0b 25be 9ded 31be
000000d0: b807 503e 7272 a03c 8162 dbbd aef0 19be
000000e0: 6cdb 3ebd c78a 963b 8a3d bfbd eccd 8bbe
000000f0: 6b8f f6bc dc7e 4d3d ba03 17be e90d 0f3e
00000100: 1d54 dd3c 8b7d 04bd 851a 6fbb 6eb0 653d
00000110: 3ad9 aebd 322d 593c 6e8c 1d3d eea6 203e
00000120: 4fca 453e 999d 61be 4842 133d 76ae 64be
00000130: 6a66 31be c8c4 8d3c 8c81 d1bc 8cb1 043d
00000140: c534 21be 90c8 883d 6c3a 843b d45e 4f3c
00000150: 2686 63bd 9f87 ac3d e353 0bbe 2d04 49be
00000160: b609 aabd dad0 2dbe 23d5 8cbe a730 d33d
00000170: 65d9 5bbe cf97 8ebd 83e0 22be 21a0 34be
00000180: 9009 e8bc 669b 57bd 33d7 02be 826a bdba
00000190: 8044 333c 0fd1 83bc 28d4 55be a603 a7bd
000001a0: 92c1 4cbe 86e0 aabd 5617 ffbc 650f 06bc
000001b0: 690b 1cbe da2c 66bd 3848 60be 9d15 873d
000001c0: 2d3d 5a3d 1b21 c83d f7e8 83be d3ce 93bc
000001d0: b8fc 88bc 0e15 b6bd 66ba 10bc f852 24be
000001e0: 3714 3dbe 8db2 813e 5f4e ff3b 2464 6f3c
000001f0: 32ff 9abd 3baf 04be 2672 74be 1b4c b13d
00000200: 137e da3c 8dfa aabe f299 a93c 5323 7c3d
00000210: 7700 2bbe 7d30 e93d 6d39 4bbe e868 233e
00000220: 62a5 94bd b002 a13d 9949 3d3e d7d9 a8bd
00000230: 0313 c9bd 9843 d43d 2a8c 80be 9878 ea3c
00000240: 1223 2bbe 49fb b2bc 7f6c 40be 5753 91bd
00000250: 9d37 0fbe 52e8 253e fb95 15be 5e58 f8bc
00000260: f4a9 783d e68a 183e f3d2 80be def2 4ebd
00000270: 4d3d 6bbe 03b4 1fbe 65ac 7bbd 396d 47bd
00000280: 2dca bdbd 71da 0dbe 3635 81be adba 523d
00000290: 9399 d4bd 8896 f7bc ffa2 fbbd 28b6 1abe
000002a0: 291c 263b ffbf 67be db35 eb3d 0f58 6a3d
000002b0: 408d 5dbe 81bc 59be 7041 27be 89db 78bd
000002c0: b455 c33c c559 86be ba6d 863d d4ec 4abe
000002d0: c279 ba3d 1383 4d3d a2df 12be 9bd3 ce3c
000002e0: 76a5 1a3e 9ec3 ed3d 8d7d 95bd 69e6 533e
000002f0: b295 90be 9945 43be 1154 1a3e 15b4 a13d
00000300: cfab d4be 49b1 75be de31 0dbe d861 063e
00000310: 37ca dabd 4067 69be 89ef 9039 0f3f 24be
00000320: 1002 80bd 35df e7be d01d 95bd 30ad 6abd
00000330: cd78 89bd b6d1 863d 4727 c53c e9c4 96bc
00000340: dc6a b2bc a8aa 3fbe f91a 51be e3ab 16be
00000350: abbc 7e3d 787a 52be 8f59 163d 61b6 09be
00000360: 45ef 1abd 3ce0 0a3e 954b 8dbd dc85 ce3d
00000370: 31b9 0cbe c985 8dbd 8324 83be f2a5 30be
00000380: 11e4 0f3e ce8a 1a3e 4a35 84bd b0e8 933e
00000390: d861 37bd f8ed 2e3d 3676 00be 4fe9 11be
000003a0: 8275 b03d c234 4e3d f20a 0bbe 025d 5fbe
000003b0: e785 83bd 5d8f 01bd 5b13 3cbe 6d76 00be
000003c0: c5a0 c1bd 33a9 f73c a498 b83d 98ec 243d
000003d0: 7e10 0fbe 5442 93bd 8da0 0bbe 642f a83d
000003e0: 9c8a 353e 9680 c0ba 6046 6abe 97be ffbc
000003f0: 546a 34be 9990 073e 6171 7dbe 5ba0 9abd
0.19697534 0.06648373 -0.023684146 0.1429491 0.015084177 -0.23398007 0.12196754 -0.20428105
-0.16511355 0.03789292 0.1796296 0.15709008 0.14197502 -0.15383421 0.107226506 -0.079804055
0.0911987 0.032850116 -0.13643846 -0.0783122 0.22000423 0.06395735 0.016821967 -0.08219601
0.09657383 0.10693144 -0.16657512 -0.30053073 0.013801499 0.075750485 -0.03538826 -0.14212838
0.090369314 -0.10905318 -0.15490912 0.04039365 -0.03939526 -0.1518384 0.17188399 -0.09796745
0.051847875 -0.1791211 -0.097391315 0.12795798 -0.085448176 -0.2637968 -0.19156165 0.023627724
-0.2430778 0.09680409 -0.16117616 -0.17375799 0.20315444 0.019585822 -0.107121475 -0.15033218
-0.046595976 0.0045941803 -0.093379095 -0.27305543 -0.030097684 0.05016981 -0.14747515 0.1397015
0.027017647 -0.03234629 -0.0036484313 0.05607646 -0.085375264 0.013255404 0.038464002 0.15688679
0.19315456 -0.22032775 0.035951883 -0.22332177 -0.17324224 0.017305747 -0.025574468 0.032395884
-0.15742786 0.06678879 0.0040352847 0.012656886 -0.055547856 0.08424305 -0.13606219 -0.19630499
-0.083026335 -0.16974202 -0.2750636 0.10312014 -0.21469648 -0.06962549 -0.15905957 -0.1763921
-0.028324872 -0.052638434 -0.12777404 -0.0014451297 0.010941625 -0.016090898 -0.20881712 -0.08154993
-0.19995716 -0.08343606 -0.031139057 -0.008182381 -0.15238728 -0.056195118 -0.2190255 0.06595919
0.053280998 0.09771939 -0.25763676 -0.018042957 -0.016722068 -0.088907346 -0.008833503 -0.16047275
-0.18464743 0.25331536 0.007791325 0.014611278 -0.07568206 -0.1295747 -0.23871669 0.08657094
0.026671445 -0.3339428 0.02070329 0.061557125 -0.16699396 0.113862015 -0.19846125 0.15957987
-0.07258107 0.07861841 0.18485107 -0.08244675 -0.09818079 0.10364455 -0.25106937 0.028621957
-0.16712597 -0.021848338 -0.18791388 -0.07095974 -0.13986059 0.16201904 -0.14607994 -0.030315574
0.060708955 0.14896736 -0.2516094 -0.050524585 -0.22972603 -0.15596013 -0.061443705 -0.048688147
-0.092670776 -0.1385286 -0.2523591 0.05144756 -0.103808545 -0.030223146 -0.122869484 -0.1510855
0.0025346375 -0.22631834 0.114848815 0.057212885 -0.21635914 -0.21263315 -0.16333556 -0.06075624
0.023844577 -0.26240364 0.065638974 -0.19816905 0.09105255 0.05017383 -0.14343122 0.025247386
0.15102181 0.11609577 -0.072993375 0.20693363 -0.28239208 -0.19069518 0.15071131 0.07895676
-0.4153733 -0.2399341 -0.13788554 0.13123262 -0.10683101 -0.22793293 0.00027644288 -0.1603968
-0.062503934 -0.4528748 -0.07281077 -0.05729407 -0.06712494 0.06582968 0.02406658 -0.018404441
-0.02177947 -0.18717444 -0.20420446 -0.14714007 0.062191647 -0.2055453 0.036706503 -0.13448478
-0.03782584 0.13562101 -0.06899182 0.100841254 -0.1374252 -0.06910283 -0.25613794 -0.17250803
0.14051844 0.15092012 -0.064554766 0.28888464 -0.044771045 0.042707413 -0.12545094 -0.14249156
0.08616163 0.050343283 -0.13578394 -0.21812823 -0.06422024 -0.031630863 -0.18366759 -0.12545176
-0.094544925 0.030232048 0.09013489 0.040264696 -0.13971135 -0.071903855 -0.13635464 0.08212164
0.17728657 -0.0014686759 -0.22878408 -0.03121881 -0.17618686 0.13238753 -0.24750282 -0.07550117

2.weight f4 [256, 512]
00000000: 3c37 81be 3587 3bbd eb83 423e bed0 d23c
00000010: 07ff 6e3e a0d7 ec3d 4d8e 193d eb55 833e
00000020: 022f 013d 39aa 513d 9083 02be 311b abbd
00000030: 72fd debd 4cbd 973e c445 f83d 6a48 5f3e
00000040: 0879 a03d 63bb c73d 9f98 2c3d 7c17 b23d
00000050: a9af 503c fadc 0d3e 91b8 debd 5bf5 77be
00000060: d312 e33c 4831 973d 8baa 0f3e 973d 38bd
00000070: abc4 543d 0bf1 33be bc66 54be 3691 0ebd
00000080: 7198 2f3e a156 1bbe caf7 f6bd 1c57 853d
00000090: 1bc5 6d3e 69ea e13d 2a19 4d3d 732f d6bc
000000a0: 97a5 12be 32dc cb3d a49a 5a3e 7cfb 6f3e
000000b0: abbd 95be 2b10 423e e980 5dbd 2066 bebe
000000c0: fc49 1cbd 7284 313e 9bba 40bd e45c 60bc
000000d0: cfd9 1b3d f379 413e e0b4 833e 496f 75bd
000000e0: 7c83 673d 8e02 3e3d ddb6 9c3d e496 2a3e
000000f0: 922b 923a 0bd7 dfbd 6e14 2a3d 0e50 63be
00000100: 8047 1ebd e860 e73d 8597 cabd 9aac d5bd
00000110: ffa5 b83e 89cb 5d3d 6c4b edbd 7f4d f3bd
00000120: bf05 febd 79df a53a 176e 63bc 904b e53d
00000130: fbf0 023d 0cdb 0cbe 293a 5d3e 08a7 353e
00000140: 23b1 13be 0dd3 80be 2ba7 8cbe 25fa 373d
00000150: ac56 633e aea3 bebd a88d febd 28a4 6d3d
00000160: f58d 803e 1386 86bd 10ba 8e3d 4683 423d
00000170: c854 21bd 410a 10be e53c ee3d 7c3b 06bd
00000180: a8fc 5ebd 525d 653e 0313 173d 2bf5 4bbe
00000190: 4232 b4bc adfe 87be a684 2a3d 2b46 1bbc
000001a0: f652 db3d cebc 81be f155 a13c 65e8 56be
000001b0: d07f 1d3d bea1 d9bd b34d 023d 04d6 0cbe
000001c0: f0b0 363e 8f43 813d f5d4 d03d 4f92 7bbd
000001d0: fa4f 9a3d b02b 563d 91d1 b8be 28cf 38be
000001e0: 459c 4a3d c392 cabd 0eab 463d 8d1d 4ebe
000001f0: e62b 90bd 84da 033e 2040 533d cf1f 003e
00000200: 61c9 f33d 3b8f 26bd ae08 ab3e 6a18 d4bd
00000210: ec42 263d c6fa a2bd 0965 5a3d 0ba1 333e
00000220: 12c1 313e bb90 243c 2233 8c3d 7787 473d
00000230: e9f5 2d3f 7182 bf3d f7cb a33e d8fc 6cbe
00000240: 0f3a 57bd 6f8d 7cbd a27e a93d 321c 07be
00000250: f05b 67bd 6d0e 03bd 371e 353e 6bfc 0abe
00000260: 93a3 22be 8a0a 973d 8894 923e 9d99 71be
00000270: 4c36 04be 5837 f7bd 458c 6f3e cc34 c83c
00000280: 20b7 a6bd a973 90be 9e31 a93e ad6a 55bc
00000290: 8236 68be 9b2f c83d 73b2 97be 8a8c 9c3e
000002a0: 9958 aa3d 5262 1fbd c9d2 60be 0108 6c3e
000002b0: ec0f 6ebd 3dc1 903d 7c46 6f3c d1db 11be
000002c0: cfec 2b3d 5da6 073f bfb4 183c 4b24 553d
000002d0: f7c2 19bd 0756 0bbe c966 77ba 2467 c1bd
000002e0: 46de 05be 25f6 a4bd 39b6 12be 18b2 b8bd
000002f0: 1411 aebd 1418 593c 2648 62bd 4d97 f13d
00000300: 9493 9f3d 2e8c af3e cd50 293e 4b77 71be
00000310: 6c24 d33c 739c cd3d 60ba 9bbc f547 5b3d
00000320: ef0a 253e 921d de3c a6b5 88bd 94bd 2a3e
00000330: 3eff 3d3e ca7f 33bd 553e 80be 437f 2bbe
00000340: a083 debd 86b5 e63e e8f9 04be 0729 ac3c
00000350: 858e bbbe d5d2 8e3d 3504 3a3e 7c16 043d
00000360: 3713 323e 7d04 90be 338f 0a3e 225d a03d
00000370: ad4e e63c 326f 23bd 9c9e 38be 5b98 763b
00000380: 2149 4d3d ed10 35be 5ec3 53bd 3d51 6abd
00000390: b9cb 9dbd 4943 6bbe 892f 90bd 0a04 adbe
000003a0: 40d1 053e 04e2 dcbe 9f38 fb3c c1dd de3d
000003b0: 93ea f73d f673 24be 8e6b 893e c2b5 8e3d
000003c0: 5557 633e e797 0bbc 8641 633e e078 823d
000003d0: 1a37 a23e 8ef1 b73d ae64 07bc 649f 813c
000003e0: a9db 91be b747 323d 5c46 d1bd ebf8 0b3d
000003f0: 32af 273d d6bf 9abb fcc0 86bd 57e5 f539
-0.25237453 -0.04578324 0.18995635 0.025734302 0.23339473 0.11564565 0.037489224 0.25651488
0.03153897 0.051187728 -0.127455 -0.08354796 -0.108881846 0.2963661 0.12122682 0.21804968
0.07835585 0.09752538 0.04213774 0.086958855 0.012737193 0.13853827 -0.10875047 -0.2421469
0.027718937 0.073824465 0.140299 -0.04498061 0.05194537 -0.1757242 -0.20742315 -0.034806453
0.17147996 -0.15169765 -0.12058981 0.065107554 0.23219721 0.11031038 0.050072826 -0.026145672
-0.1432098 0.09954108 0.21348053 0.23435777 -0.29246268 0.1895148 -0.054078016 -0.3718729
-0.038156494 0.1733568 -0.04705296 -0.013694022 0.038049515 0.18894176 0.25723934 -0.059920583
0.056521878 0.046389155 0.07652066 0.16659123 0.0011151901 -0.10929688 0.04152339 -0.22198507
-0.038642406 0.1129778 -0.09892181 -0.10433312 0.36064145 0.054149184 -0.11586651 -0.118800156
-0.1240344 0.0012655101 -0.013881228 0.11196053 0.031968098 -0.13755435 0.21604218 0.17739499
-0.14423041 -0.2516102 -0.2747129 0.04491629 0.22201031 -0.09308563 -0.124293625 0.05801788
0.25108305 -0.065685414 0.06969082 0.047488473 -0.039387494 -0.14066412 0.116327085 -0.032771572
-0.05444017 0.2239888 0.036883365 -0.19917743 -0.021996621 -0.2656149 0.04163041 -0.009477179
0.10709183 -0.2533936 0.0196943 -0.20987089 0.03845197 -0.10626553 0.03181238 -0.13753515
0.17840934 0.06311714 0.10196868 -0.061418828 0.075347856 0.052287757 -0.36097386 -0.18047774
0.049465436 -0.09891274 0.048502974 -0.2012846 -0.07039623 0.12876326 0.051574826 0.12512134
0.11903644 -0.04066394 0.3340506 -0.10356219 0.040591165 -0.079579875 0.05331901 0.17541902
0.17358807 0.010044272 0.0684569 0.048713174 0.67953354 0.093510516 0.3199155 -0.23143327
-0.052545603 -0.06165832 0.082761064 -0.1319435 -0.056484163 -0.03199618 0.17687307 -0.13572852
-0.15882711 0.07375057 0.28628945 -0.23593755 -0.12911338 -0.12071103 0.23393352 0.024439238
-0.08140397 -0.28213242 0.33045667 -0.013025922 -0.22677043 0.09774705 -0.29628333 0.30575973
0.0831768 -0.038912125 -0.21955408 0.23049928 -0.058120653 0.07068107 0.014604207 -0.1424401
0.041973885 0.52988225 0.009320437 0.052036565 -0.03753945 -0.13607036 -0.00094376184 -0.09443501
-0.13073072 -0.08054761 -0.14327325 -0.09018344 -0.08499351 0.01325037 -0.055244587 0.117964365
0.0779182 0.34286636 0.1653473 -0.23580663 0.025774203 0.10039606 -0.019009769 0.05353542
0.16117452 0.02711371 -0.06675272 0.16673881 0.18554398 -0.04382304 -0.25047556 -0.16747765
-0.10864949 0.45060366 -0.12985957 0.021015657 -0.3663217 0.06973807 0.18165667 0.032248005
0.17390142 -0.28128424 0.13531189 0.07830264 0.028113687 -0.039900966 -0.18029255 0.0037627432
0.05011857 -0.17682238 -0.05169999 -0.05720638 -0.07704873 -0.22974886 -0.070403166 -0.33792144
0.13068104 -0.43141186 0.030666647 0.1088214 0.12105288 -0.1605986 0.2683987 0.06968261
0.22201283 -0.008520103 0.22192964 0.06370711 0.31682664 0.0898162 -0.00826375 0.015823074
-0.284879 0.043525424 -0.10218498 0.034172934 0.040938564 -0.0047225757 -0.065797776 0.00046900913

2.bias f4 [256]
00000000: df6d 0bbe f068 60bd f431 27be 9490 85be
00000010: 070c 21be 157b 37be eb48 003e b228 39be
00000020: 5b6f eebc 52ea 59bc 7883 fabc 1643 9cbe
00000030: 2239 79bd 0f48 9abe c4ab 0abe 87c1 edbc
00000040: ccff 82be d27a b03b ee2e d7be 63c1 b6bd
00000050: 6e15 83be 36c6 21be 693d e4bd 0d3c 0bbe
00000060: 1a41 36be c9d0 0fbd a64f cc3c 5a0f 3bbe
00000070: 22be edbd 39ef 8cbd bfbb 88be 66fb 083d
00000080: 767d 8cbe 695c 14be bdaa 81be 2dcf f4bd
00000090: 0617 8bbd e138 f4bd 272b 13bd dd18 07be
000000a0: 962e 56be 8928 44be 03a8 73be 7a6d 0dbe
000000b0: e934 39be 0a8b 4cbe 0c81 8abd 37e6 54bd
000000c0: 0bf8 26bd 7452 a9bd 0cf6 4fbe 1d4b 90bd
000000d0: 356c 5bbd 893f 38be 29e2 bfbd 79b0 c2be
000000e0: 3998 55be 6861 50be 9557 5cbe e99f f3bd
000000f0: d890 17be c094 47bd 73fc fdbd eed7 7fbe
00000100: 7c4c 7bbe 510f e3be 51c4 a6be 2091 55be
00000110: 91fa 93bd 86b7 21bd 6894 a4be 388b 8ebd
00000120: 8c40 69bd 9953 d0bc a2ed e8bd 3a27 f8bd
00000130: da4f 78be ae5c c1be 0d2b 88bc 119c f8bd
00000140: 9b97 263e c61a 1abe d8b8 83bc 78de e5bd
00000150: 1ac8 e2be 2e82 f9bd 68d8 4f3c c079 54be
00000160: 38bb 1abe a207 293d 99e5 aabe facd 7fbe
00000170: fa0c 2dbd f442 74bd ad51 29be 9b03 cebe
00000180: 650e 85be 64e8 d0bd 0886 30be c30a 52be
00000190: be81 25be 4d8b 9ebe fcea 62bc 38a2 af3d
000001a0: 42f9 acbe d27f 74be 04d9 25be 2337 acbe
000001b0: 1ff9 98be 2cf3 9bbe 18fd 56be 937f 25be
000001c0: 3099 0fbf 3d67 33bd d665 e0bd 2ac6 87bc
000001d0: 2670 0fbe 0058 88be 397d 31be 2d37 803d
000001e0: d521 20be 3116 353d bc47 2dbb 08df a1be
000001f0: f254 323c 877e 96be ae68 19be 95a5 3cbe
00000200: e260 16be efd8 3cbe ae43 a3bd 8120 dbbd
00000210: 6db1 25bd 8f14 15be 87ee 70be 8a8a 33be
00000220: 9942 a6be bfb6 26be f7e5 24be 2817 07be
00000230: 7a1f 1ebe f650 10be d21e 91be dba8 8f3d
00000240: 6b76 02be 0a2b f2be 745d 37be d229 28be
00000250: eac2 2ebe dcfd 13be c1b0 13be ec4d adbe
00000260: b040 9bbd 71e5 45bd cf36 dbbd 5f19 40be
00000270: a56f d73d 881c 0ebe 8467 8abd bc61 3ebe
00000280: 2835 a8be 303e 8bbd ad87 f4bd 2ca8 93be
00000290: 8b6d 5cbe 5626 04be 5042 82be e74e cf3d
000002a0: cb69 f03b 09e5 c4bd b8ca 39be 684e 2dbe
000002b0: b402 33bf 2fbb 38bd 1d4d 12be 00e4 5bbe
000002c0: 35ad 39bf a1d1 efbd 0f15 87be 0b94 f4bc
000002d0: 6f5e 4fbe dfd2 2b3d 1964 abb9 b381 01be
000002e0: 6c8c 2abe 339e aabd 5c50 f9bd dbc1 6abe
000002f0: 9b32 09be 4de2 cfbd 6336 84be 9857 923c
00000300: d595 a5be 1c32 8dbe 7fe7 09be 5f2d f2bd
00000310: 6b9b 6dbe d70f 5abd 3b29 66be 8e76 47be
00000320: 7270 13be 7fb8 0bbd 537c bc3c d6fa c1bd
00000330: 222d 4ebe 31f1 babc 41db 93bd ecda eabd
00000340: 8a47 f6bd c473 82bd d343 24bd 253c 11bf
00000350: a761 ccbd e4ff 94be 7927 cdbd 211a 12be
00000360: 91d3 10be 01d7 b8bc 4097 41be 8712 a5bd
00000370: 157a f8bd 2209 9dbe 432c 62be c985 72be
00000380: 163a 5d3b a12e acbd de48 4dbe 51b0 353c
00000390: 7d55 8dbe 2ba1 5dbe 2754 5cbd b608 31be
000003a0: 55ac f5bd ea91 3a3c 0222 49be ec6e a5bc
000003b0: 7195 35be 2153 66be 0225 8fbe 341d e33c
000003c0: b9fd 34be 7b54 b2be aaa3 5abe f719 0abe
000003d0: 153b 54be 524d 04bf 4d07 58be 3ee8 d0bd
000003e0: 25eb acbd 0b3b d3bd f95e 0bbe edd0 18be
000003f0: 141f 0abe 1de2 26be 1068 91bd 2af9 653c
-0.13616131 -0.054787576 -0.1632765 -0.26086867 -0.15727244 -0.17918046 0.12527816 -0.1808193
-0.029105833 -0.013300495 -0.030580267 -0.30519933 -0.0608455 -0.301331 -0.13542086 -0.029022945
-0.25585783 0.005385735 -0.42027992 -0.08923604 -0.25602287 -0.15798268 -0.111445256 -0.13597126
-0.17798272 -0.035111222 0.024940323 -0.18267575 -0.116085306 -0.068815656 -0.2670574 0.033442877
-0.2743947 -0.14488377 -0.25325575 -0.11953578 -0.06791501 -0.11924911 -0.035929825 -0.13193078
-0.20916209 -0.19156088 -0.2379456 -0.13811293 -0.1808659 -0.19974914 -0.06762895 -0.051977362
-0.040763896 -0.0826768 -0.20308703 -0.07045577 -0.05356999 -0.17992987 -0.093693085 -0.38025263
-0.2085885 -0.20349658 -0.21517785 -0.11895735 -0.14801347 -0.048725843 -0.124016665 -0.24984714
-0.24540895 -0.44347623 -0.32571653 -0.20856142 -0.07225526 -0.039481662 -0.32144475 -0.069601476
-0.056946322 -0.025430487 -0.1137345 -0.12116857 -0.24249211 -0.3776602 -0.01662209 -0.12139142
0.1626877 -0.15049276 -0.016079351 -0.11224073 -0.4429329 -0.12183033 0.012685873 -0.20749569
-0.15110481 0.041267045 -0.33378294 -0.24980918 -0.042248704 -0.059634164 -0.16535063 -0.40237126
-0.25987545 -0.10200575 -0.17238629 -0.20511918 -0.16162774 -0.30965653 -0.01384997 0.08575863
-0.3378392 -0.23876885 -0.16196066 -0.33635816 -0.29877564 -0.30458963 -0.20994985 -0.16161947
-0.5609312 -0.043799628 -0.10956924 -0.016573984 -0.14007625 -0.2662964 -0.17332925 0.06260524
-0.15637906 0.044210616 -0.0026440462 -0.31615472 0.01088451 -0.29393408 -0.14981338 -0.1842254
-0.14685395 -0.18442129 -0.07971893 -0.10699559 -0.04045241 -0.14558624 -0.23528491 -0.17533317
-0.32472685 -0.1628065 -0.1610335 -0.13192427 -0.15441695 -0.14093384 -0.28343827 0.070146285
-0.12740485 -0.4729846 -0.17906743 -0.16422203 -0.17066541 -0.14452308 -0.14422895 -0.33848512
-0.075806975 -0.048314516 -0.10703813 -0.18759678 0.105193414 -0.13878071 -0.06758025 -0.1859197
-0.32853055 -0.06798971 -0.119399406 -0.28839242 -0.21526162 -0.12905249 -0.25441217 0.10122471
0.0073368303 -0.096139975 -0.18143737 -0.16924441 -0.69926 -0.045100387 -0.14287229 -0.21473694
-0.7252992 -0.117099054 -0.26383254 -0.029855749 -0.20250867 0.04194915 -0.0003269024 -0.12647133
-0.16655129 -0.08330955 -0.121735305 -0.22925512 -0.1339821 -0.10150585 -0.25822744 0.017864034
-0.32340875 -0.27577293 -0.13467215 -0.1182506 -0.23203819 -0.053237762 -0.22476666 -0.19478819
-0.14398363 -0.034111496 0.023008501 -0.09471671 -0.20134404 -0.022820087 -0.07219554 -0.11467537
-0.12025364 -0.06369737 -0.040103745 -0.567324 -0.09979563 -0.2910148 -0.100172944 -0.1426778
-0.14143206 -0.02256346 -0.18905354 -0.080601744 -0.1213266 -0.3067103 -0.22087197 -0.23683847
0.0033756546 -0.08407331 -0.20047328 0.0110894 -0.27604285 -0.21643512 -0.05379119 -0.17288479
-0.1199576 0.011387328 -0.19641879 -0.020194493 -0.17732789 -0.22492649 -0.27957922 0.027723886
-0.17674913 -0.34830078 -0.21351495 -0.13486467 -0.20725663 -0.5168048 -0.21096535 -0.10200547
-0.08443288 -0.10313996 -0.13610448 -0.14923449 -0.13488418 -0.16297193 -0.070999265 0.014036456

4.weight f4 [128, 256]
00000000: 2e07 45bc e2cb 343d 2e0d f53d 3782 24bc
00000010: 4c77 ccbc 9d34 063c 2194 dfbd fb56 52bd
00000020: 146c b0bc fcd1 d1bd 5c32 df3c 9013 37bc
00000030: 4f46 a93c c5b9 c03e 8c3f 823d ba9f 0f3d
00000040: 1800 153e 619a b8bd 1dd8 96ba 13d9 b23c
00000050: 73d9 90bd 4ed2 6c3b 7b03 8a3d 5bda e7bb
00000060: e8a7 91bd 91c4 11be d975 9c3d ba0d 2cbe
00000070: cf03 34bc f681 783d 846c 0c3d a176 673e
00000080: 56e5 9d3d 2ddd 9f3e 25be 2bbd 9ffe 4f3d
00000090: a86f c63d 61af 033c bbe6 b5bc 7d8a b7bc
000000a0: fbdc aabe 52fe 8b3c d538 b5bd ca1b 433c
000000b0: e9b3 b03c e5d2 c1bd dbf3 41bd e540 7fbe
000000c0: 77e4 213d a00d b03d c26d f0bd 11ab da3e
000000d0: e910 fb3c d855 97bd 30b6 1f3e 369d d8bc
000000e0: d2c4 63be 7841 ec3c 8bc5 a9bb 78ca 523d
000000f0: 721b 80bc ed87 52be ed05 1a3d d41e b1bd
00000100: 2e17 81bd 11f1 813d 7cfc 983d c464 81bd
00000110: 589a cebc 028c 7ebc d8fe d0bd e85e 063e
00000120: 6d1d d93c a896 193c 177f e53d 9d0f 123e
00000130: 574a ccbd eecc 453d 7e4b 903d 7744 d7bb
00000140: 28f1 c63c 3dba b0bb f4eb bfbc 49ae 83be
00000150: 731a 66bc cc86 fc3d 316c 07bc 8345 573e
00000160: 766b 33bd 3b2f 37bd 986a 773d 20ba 223e
00000170: 932c 10be 6396 31be 5798 0e3c fba0 a53d
00000180: a064 90bd b7d3 85be 9f46 85ba 51c5 323d
00000190: 00cc 52bd 14c2 903e 698c 9fbf 1539 17bd
000001a0: 36aa 4dbe 5a08 4d3d 49dd 943b 2f21 303d
000001b0: a839 47bd 55cf a23c 90fe f8bd ebbd 0e3d
000001c0: 34bb 20be 7a47 aebd 9c97 7cbc 27fa 59be
000001d0: 0818 0dbd f31d b0bc c676 9cbc 51c8 82bd
000001e0: 2607 40be 2e9a 3ebd 5c3c 0a3c d461 db3d
000001f0: 0f59 33ba 7528 c53b 6271 49be 6554 57bd
00000200: eb7c e33d 9bc5 3ebd 5a3b dfbd 5090 cfbc
00000210: 8c29 afbc a19a 03be a5b3 273e 3ac8 323d
00000220: f450 cf3e de75 5a3d 9531 66be 1a48 f13d
00000230: 41d7 b03b f668 5a3d 0acc b3bd 1457 813d
00000240: ffce 433d 538f f0be 8853 7e3d b547 0f3e
00000250: 3687 ab3d d19c 603d efaa 47bd d5cf 463d
00000260: 56e3 853c 8fce b6bd 1063 ea3d 6ea9 4ebc
00000270: a2b0 34bc c33b a8bd 2761 5dbc 02aa e4bc
00000280: 0c2e adbd 3785 9e3d 2b03 77bd 484c 04be
00000290: 2415 91bb 2d8a d5bd e1e7 163e dd76 64bd
000002a0: 3548 cc3b 89ea 58bc 97a9 b6bc 05aa bb3c
000002b0: afae 9bbd 0b9c 223d b042 cfbc 7178 333e
000002c0: 2375 713e b575 c8bd f694 a3bd 99b6 9abd
000002d0: 562f f73d 5226 ed3c dcb9 1d3e 2ffd 49bd
000002e0: dd02 29bd b030 c3bd 7900 a43d b762 4fbc
000002f0: a306 31bc 58f2 0dbe c0a3 baba f32d 29bd
00000300: 133a 703d 92d6 773d c9bd 553d c5f0 a23d
00000310: ee8f 813d 5599 56bb b51f 243c e2ee 4f3e
00000320: bbd3 aabc 563e 8abb e36c 69bd 68fe 6a3e
00000330: b772 72bc e19d c83d 667f 903d 3470 adbd
00000340: 4825 9b3d 571a 183e cffc 51bd 8e6b 023f
00000350: 1d64 f73c 862c 31bd 8f78 733d 6904 ea3d
00000360: f300 9fba 50ac 9b3e 23b1 213d 8876 e93c
00000370: 04e3 bfbb d936 3c3d 91f8 6abb 98f0 da3c
00000380: 0dce 29be 1f7f 2fbe db15 fabd 1c6a 68bd
00000390: a58b 113d aeff ac3c 2a6a 5cbd 00fc 63bc
000003a0: a536 ab3d ce71 cebc 5a6e 003d 46ca b73c
000003b0: a1ec df3d dab2 3bbd ca60 ecbd 187c 10bd
000003c0: bb26 07bc 310c bfbd 26b3 e2bc 8da3 94bc
000003d0: 4770 a4bb 9285 dfbd 7c0e 883b 98d3 25bd
000003e0: 8b7d a93c 4dea 243d e534 053c 043e 273c
000003f0: f2e1 b53c 182a a63d 3d27 25bd 35ba ae3d
-0.012025638 0.04413975 0.119654045 -0.010040811 -0.024959229 0.008191255 -0.10916925 -0.051352482
-0.02153591 -0.102451295 0.027245693 -0.011174098 0.020663409 0.3764173 0.06359777 0.035064436
0.14550817 -0.090138204 -0.0011508499 0.021832025 -0.07072725 0.0036136094 0.06738945 -0.0070755905
-0.07112104 -0.1423514 0.07639665 -0.16802111 -0.010987236 0.060670815 0.034283176 0.22603847
0.07709758 0.3122343 -0.041929383 0.050779935 0.096892655 0.008037419 -0.022204747 -0.022404904
-0.3337172 0.017089043 -0.088487305 0.011908481 0.021570163 -0.09464053 -0.0473517 -0.24927099
0.03952452 0.08596349 -0.11739685 0.42708638 0.030647712 -0.0738942 0.15596843 -0.026442152
-0.2224305 0.028839812 -0.0051810197 0.05146262 -0.015638087 -0.20559664 0.037603308 -0.08648458
-0.06303249 0.06344808 0.074700326 -0.06318048 -0.025220081 -0.01553631 -0.102048576 0.13122141
0.02650329 0.009374298 0.11205881 0.14263768 -0.09975117 0.04829114 0.07045649 -0.006569441
0.024284914 -0.005393295 -0.02342794 -0.25718907 -0.014044392 0.12330398 -0.008265541 0.2102261
-0.043803655 -0.044722777 0.06040439 0.15891314 -0.14079504 -0.17342524 0.008703313 0.08087345
-0.07050443 -0.26138088 -0.0010168141 0.043645207 -0.05146408 0.2827307 -1.2464725 -0.036919672
-0.20084462 0.050056793 0.004542981 0.043000396 -0.04863897 0.019874254 -0.12157929 0.03484909
-0.15696412 -0.08509727 -0.015417006 -0.21286832 -0.034446746 -0.021498656 -0.019099604 -0.063858636
-0.18752727 -0.046533756 0.008437242 0.107120186 -0.0006841579 0.0060167857 -0.19672158 -0.05257072
0.111078106 -0.04657517 -0.10899992 -0.025337368 -0.021382116 -0.12851955 0.16377123 0.043647982
0.4049145 0.053335063 -0.22479852 0.117813304 0.005396754 0.053322755 -0.08779152 0.06315437
0.04780483 -0.46984348 0.06209138 0.13992198 0.08375399 0.05483705 -0.048747 0.048538048
0.016343754 -0.08926117 0.11444676 -0.012613637 -0.011028441 -0.08214524 -0.013511932 -0.027913097
-0.08456048 0.077402525 -0.060305756 -0.12919724 -0.004427569 -0.104267456 0.14736892 -0.05577742
0.0062341937 -0.013239511 -0.022297664 0.02290822 -0.076016776 0.039699595 -0.025300354 0.17526414
0.2357984 -0.09788076 -0.079873964 -0.07554359 0.120695755 0.028948937 0.15402931 -0.04931372
-0.041262496 -0.09530771 0.08007903 -0.012657813 -0.010804805 -0.13861978 -0.0014239475 -0.041303586
0.058649134 0.060507365 0.052182946 0.079560794 0.063262805 -0.0032745202 0.010017325 0.2030597
-0.020852914 -0.004218857 -0.056988608 0.22948611 -0.014797858 0.09795738 0.07055549 -0.08468667
0.0757547 0.14853798 -0.051266488 0.50945365 0.030199105 -0.04325535 0.059441146 0.114266224
-0.001213102 0.30404902 0.03947557 0.028498903 -0.00585592 0.045950744 -0.0035853724 0.026726052
-0.16582508 -0.17138337 -0.122112 -0.05674182 0.035533566 0.021118011 -0.053812183 -0.013915062
0.08360032 -0.02520075 0.03135524 0.022435319 0.10933805 -0.045824863 -0.115418985 -0.035274595
-0.00824898 -0.09328497 -0.027673315 -0.018144393 -0.0050182673 -0.109141484 0.0041521173 -0.040484995
0.020689746 0.04026251 0.008130287 0.010207657 0.022202466 0.081134975 -0.040320624 0.0853161

4.bias f4 [128]
00000000: abce 8cbd a0b5 3ebe 81f2 bfbd 5974 6cbe
00000010: f4f1 c3bd 8993 92bc 38bb 5fbe 2f81 74be
00000020: 97da 9abe 3316 1bbd 8df6 563e 6bbb a2be
00000030: 7c4d 46be 114a f8be f2a9 c53d a534 febd
00000040: 7a34 e7bd ae5e 9fbf 32e2 a4be a99f b8be
00000050: 0463 e9be 016f a0be 29f9 a3be 5b73 e8bd
00000060: 0265 59be d567 4dbe 8f4c 003e 7744 00bf
00000070: d275 66be 7547 5e3c 0164 4bbd bc6d f4bc
00000080: d82a babd 4c2b dabe 90b5 0abe 3a56 eebd
00000090: 1ef4 92be 4a76 6ebd d2f6 02be 5d31 12be
000000a0: 0c30 90be b93f 5b3e a178 b0be a808 ae3d
000000b0: 82d6 a4bc 1e71 78bd bc77 e2bd d9aa f9bd
000000c0: d3a6 403e ae9d 38be 996f 4fbe e72e 55bd
000000d0: 3d11 ccbe 3b9d bcbe 789a adbc 608f f9be
000000e0: f39a 56bd c497 59be fbb9 6fbd 22b3 b0bd
000000f0: 00a6 ddbd 2984 b8bd ba72 2fbe b496 d2be
00000100: b465 e63b 94ba acbc 34b2 02be 5d30 18be
00000110: 6114 27be 3562 83be 81da 8fbd b751 c5bd
00000120: 3272 7bbd 9d31 52be f3e9 38be 2d02 3bbd
00000130: efe2 afbe 0c07 243e 4723 2abd c71c 99bc
00000140: 02ae 47be bb4c ddbd 7372 e4bd 171b afbd
00000150: 9856 81be 385d b1bd 170d 9cbd 02ad 44be
00000160: b13c a8be 187e fdbd 8e0c 19be 66e0 66be
00000170: 099c 50be 5322 74be fb5a b1bc edb7 1dbe
00000180: 32ed 21bd 7daf 7fbe 801a 543d 6368 59be
00000190: daff 2abe 14b7 44be 7fae cabd 1f51 78be
000001a0: 77d0 f8bd d2ea 6bbe 39bb 10bf 0585 35be
000001b0: aed1 0abe b547 82be 2332 6ebe b201 80be
000001c0: 225e 27bd cd41 1e3e d0c7 963d ee78 84be
000001d0: d41c 383e aff6 90be ceac 14be 4db9 8abe
000001e0: c36d 03be b536 21be ac22 07be ca73 a6bd
000001f0: a27c 47be eb3b 5fbe f0f7 8dbe 24d6 7c3b
-0.06875356 -0.18623972 -0.09372426 -0.23091258 -0.09567633 -0.017892616 -0.21848762 -0.23877405
-0.30244896 -0.037862968 0.20992489 -0.31783614 -0.19365495 -0.48494008 0.09651555 -0.12412385
-0.11289306 -1.2450769 -0.32203823 -0.3605931 -0.45583355 -0.3133469 -0.32026032 -0.11350127
-0.21229938 -0.2005914 0.12529205 -0.5010447 -0.22505882 0.013566841 -0.049655918 -0.029837482
-0.09090203 -0.42611158 -0.13545823 -0.1163754 -0.28701872 -0.058218278 -0.12789467 -0.14276643
-0.28161657 0.21411027 -0.34467033 0.08497745 -0.020121817 -0.060654752 -0.11057994 -0.1219079
0.18813638 -0.180289 -0.20257415 -0.052046683 -0.39856902 -0.36838707 -0.02119182 -0.487422
-0.052393865 -0.212493 -0.058526974 -0.08627917 -0.108226776 -0.090095825 -0.17133608 -0.41130602
0.007031167 -0.021085061 -0.12763292 -0.14862199 -0.16316368 -0.25660864 -0.07024098 -0.096347265
-0.061388202 -0.20526738 -0.18057995 -0.04565637 -0.34352824 0.16018313 -0.04153755 -0.01869048
-0.19499972 -0.10805651 -0.11154642 -0.08550089 -0.25261378 -0.08660358 -0.07619684 -0.19206622
-0.32858804 -0.12377566 -0.14946195 -0.22546539 -0.20372023 -0.23841219 -0.021649828 -0.15402193
-0.039532848 -0.24969287 0.051783085 -0.21231227 -0.16699162 -0.19210464 -0.09896564 -0.24249695
-0.121491365 -0.23038796 -0.5653568 -0.17726524 -0.13556549 -0.25445333 -0.23261313 -0.25001293
-0.040861256 0.15454789 0.0736233 -0.25873512 0.17979747 -0.28313205 -0.14519045 -0.27094498
-0.1283484 -0.15743525 -0.1319682 -0.08127554 -0.19481137 -0.218002 -0.27728224 0.0038579786

6.weight f4 [12, 128]
00000000: 0ce2 1cbd 2f29 113c 35b4 f43c 6b2f be3c
00000010: 7c9f d2bb 8984 1bbd 4ba8 febc af45 39bd
00000020: a148 c7bb a50e c8bc 5b8c f5bc 7c6b bbbc
00000030: 5c39 423c 2b3e 403c 34d3 093d 9a84 0ebc
00000040: 6371 b13c 9b3b 413e 0701 3e3c 075c 173d
00000050: 8727 a83c 6b75 1dbc 2e0e a4bc 35f6 63bc
00000060: 74bd f43b 683c d03c ceed 94bd df42 bdba
00000070: 4d62 313d fe31 13bd d92b 473c 8c83 713d
00000080: 019f a9bc 62a3 0fbc dd94 97bd cd89 44bd
00000090: cc3d e8bc da91 ad3d 0b93 0d3d 8ad1 183d
000000a0: c7eb 76bc 9a78 03be bb1e a03b da40 133d
000000b0: 86fb 96bc c233 693b 9220 94bc 967d 8abc
000000c0: ba82 50bd 33d8 febc 2c2a 813c 6f9b 1fbc
000000d0: 0b0c 863c 9121 953d c21d 043d e020 993b
000000e0: a177 aebd 58b6 6e3d 3654 44bc df8d 80bb
000000f0: 1af5 81bc 3358 d53d 7ae5 8bbb af15 e43c
00000100: 9be2 1dba be2b 28bb 8542 5fbd ff85 413a
00000110: 857e fb3d 877b e73c 03cb 47bd da88 463b
00000120: 0be0 aebd 2967 25bc 0994 ddbd a05a d43b
00000130: df59 e83b 2080 e5bc 2bc5 a73c a248 0c3c
00000140: f3e2 04bc 998c 843d 618b 7b3c ad46 f3b8
00000150: 3c78 453c 0b33 55bc d560 bcbb 653f 8fbd
00000160: d66b debc d8fe c0bb 5c96 0b3c 81d8 283c
00000170: e485 7fbb c2e5 77bd cd73 d83c e0ee 15bc
00000180: 9dbf fabc 410c 183d 04bb 9cbc aece b73b
00000190: 2890 dabc acf3 0fbd 624a 573b 7ec0 cc3b
000001a0: 1b22 563c c28c 043d 989f 193d 0e38 08bc
000001b0: 28c4 9bba bdb2 393b fe25 3cbc 5aa0 82bc
000001c0: 79ea c23a 839e 48bd f57e ddbc 0ce5 72bc
000001d0: a355 aebc 3a17 713b cb9c 493d dffb ae3c
000001e0: e6a5 493c f3de 1ebb b128 e03c 2b86 383e
000001f0: 121b f8bc c494 bdbc 6c31 7d3d e030 ba3c
00000200: 6d6d 313b c30f 223c 288b 58bc b596 073c
00000210: 5a6e 8e3c 6ad1 42bb 61a2 963b f1b1 c7bc
00000220: d7c0 2fbc c61a 9abb 3f92 933d 799f 99ba
00000230: 6203 9c3c a9c6 65bb ee9a d53c 3157 c23d
00000240: ace2 4e3c 1a0c 723d b8f3 f83b bbb7 7bbc
00000250: 7b9a 97bb 48e7 6eba d07c a4bc 63c6 e33b
00000260: bc77 bc3c a761 81bc 8d03 af3d 56be 2cbc
00000270: db59 9c3c b789 31bc 7604 443c bcde aa3c
00000280: 2c22 d5bc 545a 09bc ffe5 dbbc c997 3a3c
00000290: a87f 5dba dfa0 7b38 4740 aaba 5748 423c
000002a0: 8d28 d1bc 3145 86bd 0618 52bc 85a3 0b3d
000002b0: 44e8 443b 8ee6 cb3b 705f a3bc f9e2 ee3b
000002c0: 4e6c 7bbc 1769 123e fabf 30bc 87e7 ba3c
000002d0: ca42 e33a b9c3 3abd d864 96bc b055 e4bd
000002e0: 42e9 b53c 4d9c 52bc 5b2d a9bb 5233 683c
000002f0: bbc6 ccbd da9b babc 923f 82bd 77a2 8bbc
00000300: c8c1 1a3c 7492 3c3c 4098 5d3c f3bc 453c
00000310: 9f9e 48bd a74f 9b3c 2a91 843c e3fc 4ebb
00000320: 3783 533c 16ad f7bb 2c94 a4bc 5b55 a9bd
00000330: 73ad 9dbd 7747 f23b f5aa 183c cebb 113c
00000340: b9d6 97bc 76e1 d23c 4d29 69bc 2fd3 213c
00000350: 8562 33bc 2a94 7b3b ac4b e23b 820e 0dbd
00000360: be41 b7bc 78cf 42bc b959 59bc 984f efbb
00000370: d498 5abc 6c57 32bc ce01 463d 2786 0e3c
00000380: d70f 84bc b433 6e3d 9c8a eab8 661a 27bc
00000390: 398c 123b dc62 fcbb f9ab 0ebc 3871 d1bc
000003a0: 6f5f 683c d79c 98bc e5ac 003d e683 37bc
000003b0: 013c 083c 41b5 d3bb 9e6e 58bc 9e31 963d
000003c0: eafe 733b c38a 9fbb 2205 50be f36e 3e3b
000003d0: 28c8 86bc d570 2c3c 345d 0abc d53a 043d
000003e0: fe45 4abc 2ab3 efbb 7963 8b3d 0863 07bc
000003f0: 7e84 9e3c 2626 b63b aaff 603d dcff 663c
-0.038301513 0.008859917 0.029871086 0.02321597 -0.0064277034 -0.037968192 -0.031086108 -0.04523247
-0.006081656 -0.024421046 -0.029974153 -0.022878401 0.011854496 0.011733572 0.033648685 -0.008698607
0.021660512 0.18870394 0.011596925 0.036953 0.02052666 -0.009610514 -0.020026293 -0.013913681
0.0074688736 0.025419429 -0.0727192 -0.0014439485 0.043306638 -0.03593635 0.01215645 0.058963344
-0.020705702 -0.008766981 -0.0740144 -0.04798298 -0.02834978 0.084750846 0.03456406 0.037309207
-0.015070862 -0.12838975 0.004886476 0.03595052 -0.018430483 0.0035583829 -0.018081937 -0.016905587
-0.05090592 -0.031108951 0.01576718 -0.009741648 0.016363164 0.07281793 0.03225494 0.0046731085
-0.08518911 0.058279365 -0.011982968 -0.0039231624 -0.015863944 0.10417213 -0.004269299 0.02784237
-0.00060228416 -0.0025660838 -0.054506797 0.00073823327 0.12279991 0.028257145 -0.04877759 0.0030293972
-0.085388266 -0.010095396 -0.10819251 0.00648053 0.0070907916 -0.028015196 0.02047976 0.008562239
-0.00811075 0.064721294 0.015353055 -0.00011600307 0.012052592 -0.013012658 -0.005748848 -0.069945134
-0.02715103 -0.0058897547 0.008519735 0.010305525 -0.0038989717 -0.06052185 0.026422406 -0.0091511905
-0.030608946 0.03712106 -0.019132145 0.005609355 -0.026680067 -0.035144493 0.0032850732 0.006248533
0.013069655 0.0323608 0.037505716 -0.008314146 -0.0011884021 0.0028335296 -0.011483667 -0.015945602
0.0014870904 -0.048979294 -0.027038077 -0.014825117 -0.02128107 0.0036787526 0.049221795 0.021360336
0.01230762 -0.0024241775 0.027363153 0.18019931 -0.030286346 -0.023142226 0.06181471 0.022728384
0.002707328 0.009891453 -0.013216771 0.008275677 0.017386604 -0.0029726871 0.004596994 -0.024376841
-0.010727129 -0.0047028987 0.072056286 -0.00117205 0.019044582 -0.0035061038 0.026074853 0.09489287
0.012627285 0.059093572 0.007597413 -0.015363629 -0.00462657 -0.0009113443 -0.020079046 0.00695114
0.023006313 -0.015793635 0.08545599 -0.0105434265 0.019085815 -0.010836056 0.011963954 0.020858161
-0.026017271 -0.008383352 -0.02684307 0.011388727 -0.0008449503 5.9992886e-05 -0.0012989127 0.0118580675
-0.025532031 -0.06556166 -0.01282311 0.03409149 0.0030045668 0.0062225526 -0.01994297 0.007290241
-0.015345646 0.14297901 -0.010787958 0.022815479 0.001733863 -0.045596812 -0.018358633 -0.11149156
0.022205953 -0.012854648 -0.0051628775 0.014172392 -0.09998842 -0.022779394 -0.06359781 -0.017045243
0.009445615 0.0115095265 0.013525069 0.012068975 -0.048979398 0.01895888 0.0161825 -0.0031583838
0.012909702 -0.0075584752 -0.020090185 -0.082682334 -0.076990984 0.007393773 0.009318103 0.008894874
-0.018535005 0.025742274 -0.014231038 0.00987701 -0.010948782 0.0038387873 0.0069059934 -0.034437664
-0.022370216 -0.011890285 -0.01326602 -0.0073031895 -0.013342101 -0.010885101 0.048341565 0.008698977
-0.016120834 0.058154777 -0.000111838075 -0.010199165 0.0022361411 -0.0077022146 -0.008707994 -0.025566682
0.014182909 -0.018629475 0.031414885 -0.011200881 0.008315087 -0.006460816 -0.013209967 0.073336825
0.0037230798 -0.0048688366 -0.20314458 0.002905783 -0.016452864 0.010524948 -0.008445073 0.03228267
-0.012345789 -0.007315059 0.06806082 -0.008263357 0.019350287 0.005558747 0.05493132 0.014099088

6.bias f4 [12]
00000000: dc65 b1be 5817 193e fa4e 193e 3627 a93e
00000010: 2fac ff3d 9da9 3e3e e637 73be a908 723d
00000020: 8f86 a13d 0992 523e d75f 85bc 5ee2 c73c
-0.34648025 0.14950311 0.14971533 0.33037728 0.12484013 0.1861939 -0.23751792 0.05909029
0.07886993 0.2056352 -0.016281052 0.024399932
